Models/thesis_Naive_CL_1_0.pth (torch, 289330 bytes, 12 tensors)

features.0.weight f4 [32, 3, 3, 3]
000000 d7 29 c9 bd a5 12 aa bd a0 de 35 bd 37 eb 0f be
       -0.098224334 -0.083043374 -0.044401765 -0.14054571
000010 b0 ec d7 3d 31 fa 50 3c 20 7e 00 be fe 02 31 3c
       0.105431914 0.012754963 -0.12548113 0.010803936
000020 68 91 84 3d c7 ce 04 bd ff 9c 31 3d d7 07 af bc
       0.064730465 -0.03242376 0.043362614 -0.021366043
000030 08 45 2d bd 8d 26 dc bd eb 42 d7 3d ee 06 e9 3c
       -0.04230216 -0.107495405 0.105108105 0.028445687
000040 e9 c9 f9 bc 31 0f 5b bd ae b2 03 bd 0c 7b f5 bd
       -0.030491786 -0.053481285 -0.032152824 -0.1198636
000050 36 69 10 be 22 fa 53 bd e6 bf c1 3d 3b da b3 3d
       -0.14102635 -0.051752217 0.0946043 0.087818585
000060 2e 2b 9d 3c 24 82 cf bc 16 f5 5e 3d 54 20 9d 3d
       0.019185629 -0.02533061 0.05443295 0.07672182
000070 1d cf 37 be 81 62 19 3e 86 62 d4 bc ba d9 fc bd
       -0.17950101 0.14978983 -0.025925886 -0.123462155
000080 8b 6f d8 3d 50 bf 8f bd 9b f7 01 3e 0a 59 27 be
       0.1056815 -0.07018912 0.1269211 -0.1634256
000090 33 90 1e 3e fd 9a 02 3e f9 15 4f be f5 81 27 bd
       0.15484695 0.12754436 -0.20223226 -0.04089542
0000a0 94 5a ee 3d 34 4e 19 be 20 3b b4 bd fa e0 30 3e
       0.1163837 -0.14971238 -0.0880034 0.17273322
0000b0 98 7d 19 3e 92 1a 37 be fe e5 42 be 0a 4f b3 3b
       0.14989316 -0.1788123 -0.19033048 0.0054720687
0000c0 2a 54 17 3e bc fc 9e bd a6 f3 13 be 19 b1 0f be
       0.147782 -0.07763049 -0.14448413 -0.14032401
0000d0 56 e5 74 bc 9a 0c 15 bc 4a 9b eb 3d fd ee 35 be
       -0.014947256 -0.009097243 0.115042284 -0.17766948
0000e0 2a 07 55 3d 98 e8 4b 3e 78 4f cc 3d b4 c8 1b 3d
       0.052008785 0.19912946 0.09976095 0.038033202
0000f0 bf 64 54 3e 99 f9 16 be 01 99 17 3c 56 02 21 3d
       0.20741557 -0.14743651 0.009252788 0.03930887
000100 40 cf 8f bd ee 6c ab bd d3 fb 2b 3d 2a f5 1f 3e
       -0.07021952 -0.08370386 0.041988205 0.15620866
000110 4c 10 af 3d da 81 e3 3d a3 40 df 3d f0 26 3d 3e
       0.0854803 0.111087516 0.10901 0.18471885
000120 b8 04 3a bd ba 90 57 be 8b be f0 3d 5a a1 2a be
       -0.045414656 -0.21051303 0.11755093 -0.16663113
000130 14 f7 04 be b6 96 85 bd a4 62 53 be 99 1e 9e bd
       -0.12984878 -0.065228865 -0.20643097 -0.0772068
000140 be dc 35 be f6 f6 0b be 25 61 0a be 84 fd 0e be
       -0.17759988 -0.13668427 -0.1351362 -0.13963896
000150 44 54 0b be a2 20 10 3e ef da 37 be f5 de f4 3d
       -0.13606364 0.14074948 -0.1795461 0.11956588
000160 bd 6e 8b 3d f8 cd 85 bd 19 72 d2 3d c6 b2 28 be
       0.06808231 -0.06533426 0.10275669 -0.16474447
000170 f4 73 ae bc 79 66 16 3e 29 2b 0c 3e 3b d4 ae 3d
       -0.021295525 0.14687528 0.1368834 0.085365735
000180 24 da 27 3e 85 ca 01 bd 95 bb ba 3d 2b a4 25 be
       0.16391808 -0.03168728 0.0911781 -0.16175906
000190 5d 94 38 be 2a fb 76 3d 13 1c 63 bd f9 40 de 3d
       -0.18025346 0.060298122 -0.055446696 0.10852236
0001a0 d4 73 46 3d 20 f3 96 3d e4 d0 2d bd 41 ce 38 be
       0.048450306 0.07370591 -0.04243554 -0.1804743
0001b0 f7 38 20 bc 2f ff c2 3d d2 86 40 3e 83 8f 9c 3d
       -0.0097792065 0.09521329 0.1880143 0.0764456
0001c0 3d d8 32 be 86 6e 4b 3e 42 29 91 bd 71 2b 9d 3d
       -0.17465301 0.1986638 -0.070879474 0.076743014
0001d0 cd 3f cb bd be 16 60 3c ad f1 39 3d 66 53 63 3d
       -0.099242784 0.013677297 0.045396496 0.055499457
0001e0 3b a0 37 be 0f 00 1c 3e 88 5e 95 3d ce 0a e0 3c
       -0.17932217 0.15234397 0.07293421 0.027348902
0001f0 66 41 07 3e 8e ce 95 3d 74 35 30 be 49 79 2a 3e
       0.13208541 0.07314788 -0.17207891 0.16647829
000200 dc f2 88 bd d2 3d ec 3d 7e 46 62 be ea e0 d1 bd
       -0.06686947 0.11535229 -0.22097203 -0.10247977
000210 3a bb 30 bd 5e 3a 64 bc ee 76 dd bd 61 fb 00 3e
       -0.043147303 -0.013929931 -0.108137 0.12595893
000220 2d 65 68 bc ee 3a 0e 3d c7 22 83 3c 00 ef 39 bd
       -0.014184278 0.03472417 0.016007794 -0.045393944
000230 40 d6 94 bc a7 6f c1 bd fc 87 03 be 0f c5 3f bd
       -0.018168569 -0.09445124 -0.12844843 -0.04681879
000240 f9 c4 c9 bd 59 72 10 bd de ab 85 bd f2 cf cd 3d
       -0.09852023 -0.0352653 -0.06526922 0.10049428
000250 63 f5 1a 3d 32 9d e9 bd d7 cb b4 3b 71 b9 05 be
       0.037831675 -0.11406936 0.0055174637 -0.13059022
000260 b2 4b 69 3d 4e fe d2 3d 90 64 60 3d e3 4b e9 bd
       0.056956954 0.10302411 0.054783404 -0.11391427
000270 f3 07 06 be bb 3c dc 3d 55 b9 a1 bc 46 24 87 bd
       -0.1308897 0.10753771 -0.019741694 -0.065987155
000280 b8 ed 3f bd ae b1 0a 3d 59 ff 35 3e 22 78 9f bd
       -0.046857566 0.033860855 0.17773189 -0.077865854
000290 c7 3c 0b be cc e9 04 bb 34 00 d8 39 34 6a 05 bd
       -0.13597403 -0.0020280955 0.00041198882 -0.032571986
0002a0 45 c8 f5 bd 2d e0 15 be 9c 0c a2 bd 7e e8 2a 3e
       -0.12001089 -0.14636298 -0.07912561 0.16690251
0002b0 ee 58 14 3e 56 88 30 bd c2 ce 6f 3d e5 f4 86 bc
       0.14487049 -0.04309877 0.05854679 -0.016474197
0002c0 30 69 3a 3e c3 22 07 3c 8e e6 ac bd b8 ed 8a 3d
       0.18204188 0.008248034 -0.08442412 0.067836225
0002d0 8f 51 ae bd d7 18 34 3e 68 4f 7f 3d 25 ca 34 3e
       -0.0851165 0.175876 0.062331587 0.17655237
0002e0 2e 2c 1c 3d 85 c7 49 3b 47 f2 18 3d d9 91 0b 3e
       0.03812807 0.003078909 0.03734043 0.13629855
0002f0 fb 5a f2 bd a6 33 69 3b cb 42 c9 bd 0f 13 09 bd
       -0.118337594 0.0035583763 -0.09827193 -0.03346544
000300 0b ba 79 bc 5c c3 41 3d 98 6a de bd fc 28 e5 bd
       -0.01524211 0.04730545 -0.10860175 -0.11189458
000310 92 c2 77 bd 9c 00 09 3e da 0b a3 3b d6 3c 14 bd
       -0.06048829 0.13379139 0.004975778 -0.03619083
000320 75 c6 86 3d f5 fc 88 bc 8d 31 38 ba c7 6b 78 bd
       0.065808214 -0.016722182 -0.00070264266 -0.06064966
000330 46 57 b7 bd e3 da ac 3d cf d1 37 3d 90 43 cd bd
       -0.08952193 0.08440187 0.044877823 -0.10022652
000340 89 75 b2 3c 97 39 b0 bd c7 56 af bd 93 74 f4 bd
       0.02178456 -0.086047344 -0.08561473 -0.11936297
000350 2f 71 a8 3d 5c 0b 3d bd 98 4d c5 bd fc 38 3e 3b
       0.08224713 -0.04615341 -0.096339405 0.0029025665
000360 11 8d 16 3d 26 59 1c 3e 4e 28 44 3e 36 96 cf bb
       0.036755625 0.15268382 0.19156 -0.006335045
000370 77 fd a5 3d 07 a2 4c 3e 2a 2a 11 be 77 2a 6c 3d
       0.08104985 0.19983684 -0.1417624 0.057657685
000380 34 31 f9 bd f0 c1 8b 3d 08 9d 6d 3d 3b cc 15 bd
       -0.12167588 0.068241 0.058011085 -0.036571722
000390 12 5a 31 be 65 05 ed 3d 00 0a 30 3b a9 a8 8c 3d
       -0.17319515 0.115732946 0.002686143 0.06868107
0003a0 11 95 04 be c6 fa 2c 3e 61 3a 49 be ca 50 7d bc
       -0.1294749 0.16892537 -0.19651176 -0.015461156
0003b0 a5 47 b5 bc 3b a3 ad bb 60 31 95 bd f1 99 df bd
       -0.02212889 -0.0052989996 -0.07284808 -0.10918034
0003c0 67 09 1d be 32 f6 06 3e d7 33 33 3d 86 81 c6 bd
       -0.15335618 0.13179854 0.04375061 -0.096926734
0003d0 d2 78 39 be c3 57 46 be b8 b0 0f bd f2 4b 9a bd
       -0.18112496 -0.19369416 -0.03508064 -0.07534017
0003e0 12 f9 39 be 6f c3 8d bd 51 c4 18 be 10 bc 06 3d
       -0.18161419 -0.069220416 -0.14918639 0.032894194
0003f0 83 a0 6d 3d db 39 a1 3c 12 e2 09 be eb 15 b3 3d
       0.058014404 0.019680908 -0.13465145 0.08744415

features.0.bias f4 [32]
000000 fd 21 74 3d 66 1e da 3d af 1c 5f bd c8 aa 82 3d
       0.059602726 0.10650329 -0.054470714 0.0638023
000010 bc b7 b7 bd cc 82 02 bd 62 dd 04 be 04 2a 76 bc
       -0.089705914 -0.03186302 -0.12975076 -0.015024666
000020 a0 6b 1f be 6f 00 c8 3d 15 fe 96 3b 37 c5 ed 3d
       -0.155684 0.09765708 0.0046079257 0.11609881
000030 76 77 ce bd 23 b2 8c 3d 23 ce 53 33 48 79 91 bc
       -0.10081379 0.068699144 4.9314746e-08 -0.017758027
000040 11 8a 35 bc d8 21 93 bb 4a 53 40 bd ac 43 a4 bd
       -0.011080281 -0.0044901185 -0.04695443 -0.0802072
000050 17 1a 25 be 45 9a 4a be ac 3e 24 3e 62 47 cb 3c
       -0.16123234 -0.19785412 0.16039532 0.024814311
000060 62 39 9a bd 06 8f 5c b6 dd 86 20 3d e3 65 5d 3e
       -0.07530476 -3.2865805e-06 0.039191116 0.21620898
000070 ea 8d 11 bd d4 fa 2c bd e5 01 de 3d ac 48 0b bd
       -0.03553573 -0.042231396 0.10840205 -0.034004852

features.2.weight f4 [32, 32, 3, 3]
000000 7d 82 0f 3c f1 eb 32 3d e7 92 16 3d 10 dc 28 bb
       0.008759138 0.043682043 0.03676119 -0.0025765933
000010 de f5 1a bb 4c 0c 31 3a 4f 59 97 b9 32 e8 7f bb
       -0.0023645083 0.00067538465 -0.00028867504 -0.0039048311
000020 87 48 d2 39 99 2c 68 3c 37 b7 b8 bc e4 3c 85 bd
       0.00040108358 0.014170789 -0.022548301 -0.065057546
000030 27 27 5b bd 92 d2 73 bd 75 da 41 bd 86 d0 f0 bb
       -0.053504135 -0.059526987 -0.047327477 -0.0073490767
000040 c7 91 20 bd 7f 40 4d bd e0 46 0e bd 73 a0 95 bd
       -0.039201524 -0.050110336 -0.03473556 -0.07305994
000050 3a 55 8a bd 0a 44 d0 3b 24 85 78 ba e1 0c 0f bd
       -0.06754537 0.006355767 -0.0009480289 -0.03492439
000060 b1 2c 6e bc 0b e1 d7 bc 8b 5f da 3b 8f 74 55 ba
       -0.014537022 -0.026352426 0.0066642216 -0.0008142674
000070 c0 33 3a bd 35 2a 2c 3d cf 69 2c bd c7 ef e9 bb
       -0.04545951 0.04203244 -0.042093094 -0.0071391794
000080 7c a7 74 bc 21 1a 0e bd f1 81 f0 3c 93 bf 59 bd
       -0.0149325095 -0.034692887 0.029358836 -0.053161215
000090 e2 28 78 bd 33 05 c7 bc 02 21 ce bb 58 c1 ae bc
       -0.060585864 -0.024294471 -0.006290556 -0.021332428
0000a0 0b d0 8c bd 6a d5 2f bc 77 35 6d bd b1 35 7d bb
       -0.068756185 -0.010732034 -0.057912316 -0.003863674
0000b0 a6 ba 3b bd f5 f7 ea bc 18 9c 80 bc 4c 7f fd bb
       -0.0458323 -0.028682688 -0.015699431 -0.0077361222
0000c0 7c 14 e8 bc 80 4b 9c bc 1f fa 11 bc 7e 47 98 bc
       -0.02833008 -0.01907897 -0.008909731 -0.018588778
0000d0 c0 1c 96 bc 3c b4 d9 bc 0b 0a e2 3d 0d 05 37 3d
       -0.018324256 -0.0265752 0.11037072 0.04468255
0000e0 19 c5 f1 3d 9c 83 db 3d 16 6c e2 3d cc 97 e2 3d
       0.118051715 0.10718462 0.11055772 0.11064109
0000f0 b3 b2 91 3d cf bd 84 3d 18 5e 1f 3d 4c 49 f3 3c
       0.07114162 0.064815156 0.038908094 0.029698037
000100 f0 fc a3 bb c1 80 23 3b b0 ed 07 3d 58 89 4b 3b
       -0.0050045177 0.002494857 0.03318566 0.0031057205
000110 9a 81 21 bb 07 93 cc 3c ad 6b 30 3c ba 44 28 b8
       -0.00246439 0.024972452 0.010767859 -4.0118328e-05
000120 af 41 95 bd 98 87 f0 3c 8c 8e 88 bd ca f4 b2 bc
       -0.07287919 0.029361531 -0.06667814 -0.02184524
000130 07 3f b9 3b 1b aa c0 3b d0 5c 08 3c 2e 76 d9 ba
       0.0056532654 0.005879653 0.0083229095 -0.0016591006
000140 b1 4e 5c bc b2 70 68 3b f0 99 1e 3d 23 b3 e6 bc
       -0.013446496 0.0035467562 0.038721025 -0.02816159
000150 15 9d 4a 3d 50 df 47 3d 7c 52 73 3d c8 fa 86 3d
       0.04946621 0.04879695 0.059404835 0.065908015
000160 26 0b 02 3c 92 b2 9e 3c e6 62 1c 3c 59 df b3 3c
       0.007937228 0.019372258 0.009545064 0.021957086
000170 82 1a d9 3c a3 ea 2f ba 0d 27 df 3b 87 d2 49 bc
       0.026501898 -0.0006710684 0.006810075 -0.01231826
000180 31 9f 35 bc 00 49 56 bc 1a 60 56 bc df ce 8d bc
       -0.0110853175 -0.013078928 -0.013084436 -0.017310558
000190 c9 36 aa 3a fb 41 78 3b e8 14 ba b8 a2 d5 83 3d
       0.0012986298 0.0037881124 -8.873065e-05 0.064372316
0001a0 bc 16 f1 3c fb 43 21 bd 3f b7 1b 3d 9e 9b 66 bd
       0.029429786 -0.03937147 0.038016554 -0.056300752
0001b0 54 4b e7 bb a8 c6 76 3b 25 65 27 bd 3a 7c 6e bd
       -0.0070585404 0.003765503 -0.040867943 -0.05822394
0001c0 1c ab c8 bb ad 5a 8f bd 1d 08 41 bc f1 c6 87 bc
       -0.0061239135 -0.06999717 -0.0117817195 -0.016574355
0001d0 27 85 98 bc 63 57 92 3d 8d 80 de 3d 7a 16 af 3d
       -0.01861818 0.07145574 0.10864363 0.08549209
0001e0 18 6e a9 3d 10 97 eb 3d fc 0e f6 3d c1 6c 3c 3d
       0.08272952 0.11503422 0.12014577 0.046002153
0001f0 38 67 b6 3d 52 09 e6 3c c0 84 d2 b4 6f 05 45 b2
       0.08906406 0.028080616 -3.9212136e-07 -1.1468145e-08
000200 e8 7b 5e b3 30 6f c9 33 6e 63 a9 b5 83 32 88 34
       -5.1801095e-08 9.380017e-08 -1.2620419e-06 2.5368726e-07
000210 f2 a4 42 b4 3e d4 ea b3 fc b9 9a 33 84 40 7c bb
       -1.8127665e-07 -1.0935081e-07 7.205014e-08 -0.0038490603
000220 e5 a4 e2 bb 1e a1 e4 bb d7 d1 76 bc 6c 13 58 bc
       -0.0069166296 -0.0069772145 -0.015064678 -0.013188224
000230 b1 7c 89 bc e8 85 bb bc 5e 4d c1 bc 6c 33 ca bc
       -0.01678309 -0.022891 -0.023596462 -0.024682723
000240 6b 16 37 bd b2 a3 c2 bd 79 4a 91 bc cd 00 68 3c
       -0.044699114 -0.09503879 -0.017735707 0.014160347
000250 a9 96 86 bd c1 49 df 3c cc e1 57 3c 95 78 a5 bc
       -0.06571705 0.027256848 0.013176393 -0.0201991
000260 be 8e 30 bd 3a d2 4b 35 9e a4 9d b4 90 2f 59 32
       -0.04310488 7.5929313e-07 -2.9363304e-07 1.2641877e-08
000270 98 fa cf b1 3c a9 81 b4 c1 43 36 b4 29 49 90 35
       -6.052982e-09 -2.4151257e-07 -1.697472e-07 1.0750128e-06
000280 f1 d8 e4 b3 4a 32 1b 33 b4 7c b2 bc 79 b9 04 bd
       -1.0656539e-07 3.6134487e-08 -0.021787979 -0.032403443
000290 ea 64 00 bd 65 4b c7 bc d7 bc 15 bd b4 0f 00 bd
       -0.03134624 -0.024327943 -0.036557045 -0.031264976
0002a0 78 e0 9f bb d1 e2 d4 bc 4d f6 be bc ba 21 8f 3d
       -0.0048790537 -0.02598706 -0.023310805 0.06988855
0002b0 89 8a 22 3c f8 78 e5 3c 12 ee 8f 3c f3 c7 e4 3c
       0.009920725 0.028011784 0.017569575 0.027927374
0002c0 a3 46 21 3d af 76 12 3d 5b 62 41 bd 3b 72 12 bc
       0.039374005 0.035757717 -0.04721294 -0.0089383675
0002d0 e7 52 69 3d 1f 77 f5 bb f1 64 f1 3c f4 52 2b 3d
       0.056963827 -0.007491007 0.029467078 0.041827157
0002e0 fa 09 46 bc c3 fa 9b bd a7 4b 37 3d bc ad 31 3d
       -0.01208734 -0.076161884 0.044749882 0.043378577
0002f0 09 d1 ef 3c cc 72 eb bb e1 78 0b 3d 60 30 00 bd
       0.02927448 -0.0071853157 0.034050826 -0.031296134
000300 12 a7 3b 3c 46 4f 8f bb e7 0c 03 3d 91 e6 62 bc
       0.011453407 -0.004373464 0.031994727 -0.013848917
000310 6a af 29 bd 78 ea 1a 3c 21 89 82 3c 26 30 a8 3d
       -0.041427054 0.009455316 0.015934529 0.082123086
000320 a9 ff bf 3d 90 5a 74 3d ad b0 ee 3d 8b 5f 42 3d
       0.09374935 0.05965668 0.11654792 0.047454398
000330 44 c8 d2 3c dd c5 2a 3d 80 db 15 3d 10 37 29 bd
       0.02573026 0.041692603 0.036586285 -0.041312277
000340 d4 30 f6 3c da 26 03 3c f5 68 78 3d 73 64 51 3d
       0.03005258 0.008004868 0.06064697 0.051121186
000350 5b 8b 1e 3d bd a3 0e bd fa a7 f6 bc b4 26 60 3b
       0.03870712 -0.03482412 -0.030109394 0.0034202756
000360 81 53 4e 3d 13 20 a2 3d 0e 71 a5 3c 2f d3 78 3d
       0.050372604 0.07916274 0.02019551 0.060748275
000370 a0 3d 55 3d a9 69 0a 3d c5 27 20 3d d5 77 fb 3c
       0.052060723 0.03379217 0.039100427 0.030696789
000380 e3 99 7e 3c 3d ce e7 b3 de b0 6d 33 2d 24 7c b5
       0.015539619 -1.079429e-07 5.5341722e-08 -9.392996e-07
000390 7c e7 24 33 3e 29 c0 b4 e2 85 ca b4 a7 80 cf 34
       3.839476e-08 -3.5792795e-07 -3.7722845e-07 3.8650361e-07
0003a0 64 bc 50 34 49 12 1a 36 b5 16 3b bc 6d 9b 74 bc
       1.9440046e-07 2.2958432e-06 -0.011418988 -0.0149296345
0003b0 2b 13 6e bc 6c 17 f3 bb de b3 ce bb e4 92 20 bc
       -0.014530937 -0.0074185636 -0.006308063 -0.009800646
0003c0 4e b9 b7 bb ac d4 a2 bb e8 9e 28 bc eb 76 96 3d
       -0.005606807 -0.0049692 -0.010291792 0.073469006
0003d0 61 a0 c2 3c c7 8f b9 3c 3c 22 fe 3d 18 4b b3 3d
       0.023758115 0.022651566 0.124088734 0.08754557
0003e0 b9 6a f1 3c 6f e6 cc 3d a8 23 45 3d 26 4e dd 3c
       0.029469835 0.10004889 0.048129708 0.027014803
0003f0 c0 13 7e 3c 90 5b 2d 3c 23 06 7a 3c a9 26 9e 3b
       0.015507638 0.010580912 0.015260252 0.004826386

features.2.bias f4 [32]
000000 f9 0a 79 bc 27 33 ba bb 7b 85 c4 bc 20 52 7a b6
       -0.01520037 -0.0056823674 -0.02398943 -3.7300706e-06
000010 30 c4 37 3c 7f 06 2b 3d 0e 9d bc bc b7 94 23 3c
       0.011216208 0.041754242 -0.023024108 0.009984187
000020 f2 25 ec 3c 1b cb 07 3d 59 5d 19 bd e2 d4 c6 3b
       0.028826687 0.03315268 -0.03744254 0.006067858
000030 fe cc 52 bd 9d cf a0 3b 5c ef 97 3d b9 90 18 bb
       -0.051465027 0.004907562 0.07418701 -0.002327962
000040 3a 70 1a bd c3 b9 86 3b d2 9b 44 3d 6b f9 f9 3c
       -0.037704684 0.0041115 0.048000164 0.03051444
000050 f1 54 1d 3d 31 55 1a 3d 58 42 4c 3c 9e 35 0b bd
       0.038411085 0.0376789 0.012466989 -0.03398668
000060 33 b0 48 bd 3c f7 ec 3c ad 5c d3 bc 7c 63 13 3d
       -0.04899616 0.028926484 -0.025801027 0.035983548
000070 1d 17 e0 3c 63 31 87 bc 8d 9b 86 3c eb 53 f6 3c
       0.027354771 -0.016503042 0.016431594 0.030069312

features.6.weight f4 [64, 32, 3, 3]
000000 4c 92 ab bd 2c 1b 94 bc b7 3d 77 3c 0d 09 23 bd
       -0.08377513 -0.018079363 0.015090398 -0.039803553
000010 b6 31 3c bd 33 a3 d9 bc 1d 36 2f bd 7d bb a1 bd
       -0.045945846 -0.026567077 -0.042776216 -0.07897089
000020 93 d3 a4 bd 37 d0 86 3d 41 04 7b 3b e4 d8 98 3d
       -0.08048167 0.065826826 0.0038302096 0.074632436
000030 15 5a 83 3d e6 99 96 bc f9 dd 82 3d e3 b0 ad 3d
       0.06413666 -0.018383931 0.06389994 0.08481004
000040 73 a1 6d bc a8 97 4f 3d 15 a4 cf b3 e0 cc 40 b2
       -0.0145038245 0.05068174 -9.669035e-08 -1.1222454e-08
000050 97 ff b2 35 04 88 79 b5 60 34 b2 b2 a4 2d 83 b2
       1.333642e-06 -9.295766e-07 -2.0745745e-08 -1.5271162e-08
000060 c7 fd 91 b5 c4 64 14 34 27 eb 47 34 cb 7d a9 b5
       -1.0877201e-06 1.3820232e-07 1.8618867e-07 -1.2628092e-06
000070 1c 0d d4 b5 00 9a e3 b3 a8 11 e7 b5 d9 b9 8a 35
       -1.5799046e-06 -1.0598524e-07 -1.721598e-06 1.033589e-06
000080 11 ce 98 b5 88 3e 68 36 bd 4c af b5 dc ae 6e b4
       -1.1384856e-06 3.4607092e-06 -1.306085e-06 -2.2229091e-07
000090 2b 1c bb 3c 8d 22 2e 3d 4a 6f ac bc 07 a3 bf 3d
       0.02284058 0.04251342 -0.02104916 0.09357267
0000a0 87 4a 10 3d 13 c7 36 bc 4c 37 bf 3d 4e c2 39 bc
       0.035227325 -0.011155861 0.09336719 -0.01133783
0000b0 ff 99 8c bc 79 e6 61 bc 75 80 86 3c 04 09 30 3d
       -0.017163275 -0.013787859 0.016418675 0.042977348
0000c0 f7 38 f6 bc 21 96 82 3d e5 0c 95 3c 92 13 3f bd
       -0.03005646 0.06376291 0.018194625 -0.046649523
0000d0 43 01 5c bd 2a 39 26 bd ea 5d 0e b3 cf da d4 b3
       -0.05371214 -0.04058186 -3.3147366e-08 -9.91182e-08
0000e0 be 98 11 b5 8c 4e 2b b2 1a 1a b7 b3 3b 39 09 b6
       -5.423898e-07 -9.9713695e-09 -8.5263494e-08 -2.0447903e-06
0000f0 b3 ae 83 b5 96 b1 0a 35 7b 99 83 b4 90 ce 24 3d
       -9.811105e-07 5.166743e-07 -2.4512323e-07 0.040236056
000100 0a cf 57 bc a5 f6 38 bc 36 bb 25 bd 9d 39 c9 bc
       -0.013171921 -0.011289273 -0.04046174 -0.024563605
000110 80 3f 22 3d 48 c5 0d 3d cd f2 5f bd 11 95 c4 3c
       0.03961134 0.03461197 -0.054674912 0.023996862
000120 98 84 be 3c 67 2a ed 3c fd b3 93 3c b2 85 ae bc
       0.023256585 0.028950883 0.018030161 -0.021303985
000130 f4 40 cb 3a 1d 90 ce 3b 49 ea 95 3c 61 da 64 bc
       0.0015507028 0.0063038007 0.018300192 -0.013968081
000140 96 7f 27 3c e7 3c b3 bc 5f ba 0a 3d 4f e7 97 bc
       0.01022329 -0.021879626 0.033869144 -0.018542914
000150 b8 0e 5b 3d bb da 0a 3b a9 51 25 3d f0 c8 fa bc
       0.053480834 0.0021187502 0.04036108 -0.030613393
000160 ba 59 37 3d 38 aa 97 3b fb dd 2a 3c 7c b7 6a 3d
       0.044763304 0.004628446 0.010428901 0.05730389
000170 85 cd 2e bb 22 57 bb bc 62 09 1f 3d 8b cf 3e 3c
       -0.0026672792 -0.022868697 0.038827308 0.011646162
000180 2f 88 68 3d ab ae 2e bd a9 b5 a6 3b bd 20 c7 37
       0.0567705 -0.042647045 0.0050875735 2.3737894e-05
000190 01 88 ff b8 cf 53 14 b9 ee 60 fb ba 6d af ab bb
       -0.0001218468 -0.00014145601 -0.0019178668 -0.0052394182
0001a0 55 3d c6 bb 9c b1 84 37 59 eb 9e ba fd 49 f7 3b
       -0.006049792 1.5818332e-05 -0.0012124582 0.007546662
0001b0 d8 d3 09 3d 8a 82 82 3d 8e b8 e2 bb 96 e1 de 3c
       0.033649296 0.063725546 -0.0069189733 0.027207177
0001c0 70 52 10 bd 9f 0f dd bc 22 d3 22 3c 94 5f a4 3c
       -0.03523487 -0.026984988 0.009938033 0.020065106
0001d0 a5 b3 2e bb 72 8f 5a bd e7 ab 8c 3c 2e e7 0f bd
       -0.002665737 -0.053359456 0.017171813 -0.03513258
0001e0 82 f2 9c bc db 07 18 bb ea 27 82 bc 2b ce 4e bd
       -0.019158605 -0.0023198042 -0.015888173 -0.050489586
0001f0 bb ab 23 bc c9 6c 59 3d 1b 6e 1c bd 77 e9 b7 bc
       -0.009989674 0.05308226 -0.038190942 -0.022450192
000200 b7 83 24 bc 3c 45 a5 bd d0 fc a6 bc cc a4 54 bd
       -0.010041169 -0.08069846 -0.020384222 -0.051914975
000210 2a 0f 90 bd 3b 39 91 bd 11 24 95 bd 71 04 01 35
       -0.07034142 -0.07090994 -0.0728227 4.806271e-07
000220 36 e3 7b b5 4a 8b 05 b5 6b a7 35 32 21 b2 e0 34
       -9.383542e-07 -4.9749053e-07 1.0573653e-08 4.1852857e-07
000230 4a 2e 93 34 9e 06 8f 34 c5 c3 cf 34 1d 7e d7 35
       2.7414563e-07 2.664064e-07 3.8699196e-07 1.6055452e-06
000240 e4 32 36 3d a8 19 1e 38 18 d7 e5 bc b6 c2 85 3d
       0.044482127 3.769403e-05 -0.028056666 0.06531279
000250 d1 a8 a1 3c 62 51 1e 3d 7a 7f 35 bd e9 dc fd bc
       0.019733818 0.03865183 -0.044311024 -0.030989127
000260 2f fc 4a 3d b1 a9 84 bc e0 94 5d 36 17 80 71 37
       0.049556907 -0.016194196 3.3018223e-06 1.4394543e-05
000270 e3 96 29 39 bc 2c a0 b9 e8 46 be b9 a6 b7 53 37
       0.00016173306 -0.00030550908 -0.00036292453 1.2619339e-05
000280 35 6b 90 3b fb a1 6c 3b c2 1f d0 3d 57 a5 93 3d
       0.0044073113 0.003610729 0.10162307 0.072092704
000290 7c ec 8c 3d 57 e2 98 3d 53 56 b7 3d ce 4e 0e bd
       0.06881043 0.07465046 0.08952012 -0.034743123
0002a0 2f f9 97 3d 1e 5a 61 bb ca 21 15 bc 37 e1 72 bc
       0.07420575 -0.003438599 -0.009102294 -0.014824203
0002b0 c7 f8 9d 3c 63 e7 5d 3a b2 d2 34 3c 03 04 9f 3c
       0.019283665 0.000846496 0.011036562 0.019411093
0002c0 79 5b ce 3a b0 f2 02 bc 47 ef 19 bd d2 0e f0 3a
       0.0015743814 -0.0079924315 -0.03758171 0.0018314964
0002d0 cd 21 60 3d 20 a7 80 3d b4 b1 83 bc 4b 93 29 3d
       0.054719735 0.062818766 -0.016075946 0.041400235
0002e0 67 25 bb 3c 6b eb 22 3c b5 67 b8 3a e4 08 81 3d
       0.022844983 0.009943823 0.0014068993 0.06300524
0002f0 0e d3 51 bb 6a b3 73 3c 20 12 0e 3d 27 b3 af bc
       -0.0032016668 0.014874319 0.034685254 -0.021447731
000300 e8 85 89 bc bc 32 a9 3c cb 76 11 bd da 44 9c 3d
       -0.016787484 0.020654075 -0.03551368 0.0763032
000310 a1 e6 98 bb 23 3c ac 3c 9c e3 2c 3d a5 a0 86 3d
       -0.004666165 0.02102477 0.042209253 0.06573609
000320 cc c3 35 3d dd 6d cd 3c f1 29 6f 3c 01 3c 9c 3d
       0.04437618 0.025076801 0.014597402 0.07628632
000330 51 fb b7 3d 9c c1 cb bc 6e 64 8c 3c e2 6a 0e 3d
       0.08983482 -0.024872594 0.017137732 0.0347699
000340 55 75 e5 bc f3 7e fa bc fe d1 10 bd 45 04 1d bd
       -0.02801005 -0.030578112 -0.035356514 -0.03833415
000350 18 ea 96 3b 75 88 96 3c 9a 18 53 bb 6c a1 64 bc
       0.004605543 0.018375615 -0.0032210709 -0.013954502
000360 b5 59 3c bd 34 f3 1b bd 50 9c 25 3b ce 9b 15 bd
       -0.04598399 -0.038073733 0.0025270171 -0.03652554
000370 8d ee 2d 3d 8c 2a 0c 3d 7f 9a 5d bd dd e7 3b 3d
       0.042463828 0.034220263 -0.054102417 0.04587542
000380 16 59 07 bc 14 38 ff bc f9 f9 6b bc 18 27 5e bc
       -0.008260986 -0.03115467 -0.01440286 -0.013559125
000390 bf f5 80 bd 63 5d 0a bd 8f b9 32 bd 83 67 b8 bd
       -0.06296872 -0.033780467 -0.043633994 -0.09004118
0003a0 a8 cb 85 bd 47 6e 63 bd 72 73 42 b5 6a 5f 8c b4
       -0.06532985 -0.05552509 -7.2438627e-07 -2.6146455e-07
0003b0 b2 5c cc 34 b5 87 8d b4 12 c8 67 b5 62 c4 c7 34
       3.8065406e-07 -2.6362036e-07 -8.6345347e-07 3.7209526e-07
0003c0 cc aa 8c b4 cc 3e 29 b3 89 9b d9 34 b9 9e 61 3c
       -2.6201303e-07 -3.9405492e-08 4.0532566e-07 0.013770753
0003d0 5d 77 6a 3d ca 59 8e bb 7a 19 46 3d ce 98 62 3b
       0.05724274 -0.0043442 0.04836414 0.0034575942
0003e0 59 7b a7 3b 75 8d 8a bc 08 30 a0 3c 9c 30 64 3d
       0.0051111397 -0.016913155 0.019554153 0.05571042
0003f0 f7 db 10 3d d9 6a fb 3c c3 9f 61 3d f9 5c 1c bc
       0.035366025 0.030690597 0.055084 -0.009543651

features.6.bias f4 [64]
000000 fa 12 b4 bb eb c2 58 bd d4 d5 74 3d 4f 8f 9a 3d
       -0.0054954262 -0.052920263 0.059774235 0.07546865
000010 37 1f 4f bd de 58 12 3d 25 b1 49 bc c7 86 40 3c
       -0.05056688 0.03572928 -0.012310301 0.011750883
000020 10 a0 b6 3d 3b 15 a9 39 fa 16 2c bc b5 6c 87 3c
       0.08917248 0.0003225001 -0.010503525 0.016531328
000030 47 6d 69 3d 29 a7 ac bc 4b 91 72 3d f4 4e 21 bd
       0.05698898 -0.021075802 0.059220593 -0.039381936
000040 c6 e8 71 ba 26 1c a6 bc 24 ec da bb d4 5b 74 3d
       -0.00092281064 -0.020277094 -0.006680982 0.059657887
000050 4d 24 3d 3d f7 fb 3b 3c 93 a7 64 3d 42 2e ce bc
       0.046177197 0.011473647 0.055823874 -0.025168542
000060 28 aa 86 3c 32 94 47 bd c3 4d 84 bc 9d 2a 08 3c
       0.016438559 -0.048725314 -0.01615036 0.008310941
000070 37 9e e1 39 34 07 84 bd 84 d6 90 3c cb 95 a3 3c
       0.00043033223 -0.064466864 0.017680414 0.019968888
000080 21 84 a5 bc 7b 6d d9 3b b1 9e 4e bd f7 8c ea bc
       -0.020204606 0.0066353655 -0.05044431 -0.02863167
000090 f5 dc 9a ba 22 7c 1a 3c b8 0f 6d bc 0e a8 8f 3d
       -0.0011815118 0.00942901 -0.01446908 0.07014476
0000a0 06 3d 74 3d 9e 05 64 3c 7f 11 59 bd 18 27 24 3d
       0.05962851 0.013917355 -0.0529952 0.040076345
0000b0 b8 e3 26 3c 79 db 9f 3c be 81 30 bd 83 ef d2 3b
       0.010186128 0.019513832 -0.04309248 0.0064372434
0000c0 dc a0 26 3d d1 e7 48 3c 64 33 c3 3c c8 ae 74 bd
       0.04068075 0.012262301 0.023828216 -0.059736997
0000d0 98 3d ac 3d 70 6d 7c 3d 58 c9 74 3c 40 85 08 bd
       0.084101856 0.061627805 0.014940582 -0.033330202
0000e0 7f f7 fd 3c 70 b7 5b bd 11 f9 93 bc 5e cb 86 3d
       0.031001804 -0.053641737 -0.0180631 0.06581758
0000f0 37 42 7b bd fd 08 85 bc 9c 6e 02 bd 36 1d 8a 3b
       -0.061342444 -0.016239638 -0.031843767 0.004214908

features.8.weight f4 [64, 64, 3, 3]
000000 d8 84 3b bb d0 df 07 bd 2c 56 fd bc 94 a5 df bc
       -0.0028613117 -0.03317243 -0.030924879 -0.027300633
000010 8f d4 ef bb 50 02 2f bc 91 70 36 bc d0 06 c3 3c
       -0.00731904 -0.010681704 -0.011135236 0.02380696
000020 ec b5 2b bd 74 4c 87 3a 19 8f b9 ba 91 2c 40 3c
       -0.04192154 0.0010322467 -0.0014157026 0.011729375
000030 fc 99 c3 37 bd 3d d0 3a 5b e3 0d bb 32 4c f6 33
       2.3317516e-05 0.001588754 -0.0021650407 1.14691275e-07
000040 7e d1 e9 37 32 e9 93 bb ac d1 03 bd 4b c9 62 bb
       2.7873317e-05 -0.004513883 -0.03218238 -0.0034604843
000050 70 2d 0e bd 6c 43 a3 3c 8d 3d fa bc e7 28 4c bd
       -0.0347113 0.01992961 -0.030546928 -0.049843695
000060 6a 0b 0c bd 9e 95 63 bc 28 49 c3 3c 6a 40 a8 bb
       -0.034190573 -0.013890652 0.023838595 -0.005134632
000070 ed 15 1a 3b e4 9b fa bc 4c 3c ea bb b0 6e 00 bd
       0.0023511604 -0.030591913 -0.007148301 -0.03135556
000080 f8 b1 62 bc 66 47 37 bd 0d 8c 16 bc ee f2 45 3c
       -0.013836376 -0.044745825 -0.009188664 0.012081845
000090 a2 a1 73 bc c8 85 24 3b d5 84 ec bb b2 e2 aa bc
       -0.014870079 0.0025104154 -0.0072179832 -0.02086005
0000a0 2b 88 03 bc 45 e5 a9 3c f7 d9 79 3c c5 13 60 3c
       -0.00802807 0.020739207 0.015249721 0.013676588
0000b0 71 65 20 bd 6d 54 1a bd a7 6f 4e 3c 5c a1 f5 bc
       -0.039159242 -0.03767817 0.012599862 -0.029984169
0000c0 d5 b6 9b bc 1d f8 ae ba dd b4 85 bc 84 dd 83 bc
       -0.01900808 -0.001334909 -0.016321594 -0.016096838
0000d0 90 7e 17 bd 57 ae 64 bb 86 53 f6 3c 5c ee 2e 3c
       -0.036985934 -0.0034893954 0.030069124 0.0106769465
0000e0 ae dd 77 3c 0a 77 da 3c fb ff 4b 3a b3 9b 03 3d
       0.015128536 0.02666809 0.00077819795 0.03213091
0000f0 a9 76 2e bd 88 45 02 3c 65 12 f9 3c 60 b1 9e 3c
       -0.042593632 0.007951148 0.030404279 0.019371688
000100 2d e0 d7 bc 2f fa 3e bb 07 1b 04 bd bd 1f 1d bd
       -0.026352013 -0.002914082 -0.032252338 -0.038360346
000110 c3 7e 84 3b 58 35 5d bb 6a a5 ba bc f3 73 9e 3c
       0.0040434315 -0.003375372 -0.022783954 0.019342398
000120 64 cf 86 bd ae f8 81 bc 26 24 3a bc b9 7f 57 3c
       -0.06582525 -0.01586565 -0.0113611575 0.01315301
000130 a6 a5 df 3b 48 c7 5c bc 3d 3d e9 3b b6 a2 0a bd
       0.0068251668 -0.013475247 0.007117896 -0.03384658
000140 e0 18 91 bc 43 78 2c bd 88 72 cd bc 84 ba fb 3c
       -0.017712057 -0.042106878 -0.025079027 0.030728586
000150 34 d0 19 bd 53 d0 f9 bb f4 27 2d 3c 87 77 e7 bc
       -0.037552074 -0.007623711 0.010568608 -0.028255237
000160 6d 08 25 bd 7c f3 02 bc c6 bd a9 37 b3 e5 59 37
       -0.04029124 -0.0079926215 2.023474e-05 1.2987689e-05
000170 28 95 0d 3a 61 cc 8a b3 1e 03 51 b7 85 8c 00 3b
       0.0005400949 -6.463302e-08 -1.24580965e-05 0.0019615006
000180 35 12 0a 36 b1 03 11 37 5e 8f 75 33 ec ab 40 3c
       2.05742e-06 8.643533e-06 5.71739e-08 0.011759739
000190 51 a4 dc 3c 1c b6 d1 3c b9 6d e7 bc 3b ae f2 3c
       0.02693382 0.025599532 -0.028250562 0.029624095
0001a0 fd ed 88 3c 07 8f 4a bc 11 5e 33 bd 43 d7 6a 3c
       0.016715044 -0.012363202 -0.04379088 0.014333549
0001b0 2b 9d 02 3d 98 a7 23 3c 3c 30 01 bd 37 10 39 bd
       0.03188817 0.009988688 -0.03154014 -0.04518148
0001c0 19 b8 3a 3c c1 6e be bc 54 fb 8e 3c 96 52 4d bd
       0.011396431 -0.023246171 0.017453827 -0.05012759
0001d0 71 96 5d 3c 7b fc 5b bd 19 15 d3 3b 97 80 dc 3b
       0.013524638 -0.05370758 0.006441724 0.0067291963
0001e0 ee 76 e5 bc fe ee e8 bc b6 e8 44 bd 2c 8a 82 3c
       -0.028010812 -0.028434273 -0.048073493 0.015935026
0001f0 db a7 73 3c 9a ac ce 3b 2b 6c 36 3b 4d ed 81 3c
       0.014871563 0.006307197 0.002783547 0.015860224
000200 15 a7 b1 3c d7 7a a3 bc 90 30 5b 3c c7 7c 0d 3d
       0.021686116 -0.019956036 0.013378277 0.034542825
000210 29 48 5f bd 73 8b a5 3c 96 49 55 bc 81 10 1b bd
       -0.054512177 0.020208096 -0.013018033 -0.037857536
000220 04 93 ef ba 05 82 11 3d 3d bd d3 bc 2f 56 ce bc
       -0.0018278067 0.035524387 -0.025847072 -0.02518758
000230 88 75 0f bd d5 ce 37 3c 01 b0 c0 bc e0 b8 bb bc
       -0.035024196 0.011218746 -0.023521425 -0.022915304
000240 1a 75 81 3b ad 33 18 bd 76 25 0d bd 47 47 31 3c
       0.003950727 -0.037158657 -0.034459554 0.0108202165
000250 f4 a9 fe bc d0 20 92 bc 86 e2 cc 3a ee 93 8f bc
       -0.0310869 -0.017837912 0.0015631474 -0.017526593
000260 51 01 16 bc dd ad b0 bc 22 c0 91 bc bb 45 41 bd
       -0.009155587 -0.02156728 -0.017791811 -0.04718564
000270 54 61 b5 bc 40 15 26 bd 8a 91 b6 3b be 7f 0c 3b
       -0.022141136 -0.04054761 0.005571549 0.0021438445
000280 e1 57 2e 3c f4 d7 6e 3c 81 5e 19 bd 1b bb c3 3c
       0.010641069 0.014577854 -0.03744364 0.02389293
000290 12 d8 8a bb 52 17 57 3c fa d2 5f 3c ad 97 b6 3c
       -0.0042371834 0.013128119 0.013661141 0.022289122
0002a0 d3 83 17 bd db c1 e5 bc 30 76 96 3c 48 aa 13 3c
       -0.03699095 -0.028046539 0.018366903 0.009012766
0002b0 f0 cd 03 bd 45 0e c0 bc 87 be 09 3d b2 9a 91 bc
       -0.03217882 -0.023444304 0.033628967 -0.01777396
0002c0 96 15 dd bc e2 9a 06 3c 0d 2f 72 3c 57 98 c2 bc
       -0.026987832 0.008215638 0.014781726 -0.023754282
0002d0 bd b5 e3 3a ff cb 41 bb e4 43 6e bd c1 e4 98 bb
       0.0017372888 -0.0029571054 -0.058170214 -0.0046659415
0002e0 66 b4 cd bc 09 70 d2 ba 2a d2 6c 3c 91 06 a3 3b
       -0.025110435 -0.0016055118 0.014454404 0.004975148
0002f0 09 3c 94 3c 7d fe 19 bc b7 94 53 bb 2a 0c 0e ba
       0.018095033 -0.009399054 -0.0032284686 -0.00054186827
000300 d6 42 10 3d ec 51 c9 bc d1 67 b3 bc 21 46 3b bd
       0.03521999 -0.024575196 -0.02190009 -0.045721177
000310 f3 f8 23 3c 46 a4 0a bd 06 cd 07 3c 54 f8 40 3c
       0.010008085 -0.03384807 0.0082886275 0.011777956
000320 d1 8f 74 bb b1 c1 0b bd 61 be 52 bd a1 cd 30 bb
       -0.0037317167 -0.034120265 -0.05145109 -0.0026978033
000330 74 91 e9 bc 68 c0 d2 bc 60 1c 68 3c b6 11 2a 3c
       -0.02851174 -0.025726512 0.014166921 0.010380199
000340 46 12 bb bb f0 c7 9b ba 72 c2 a6 bc 76 91 93 bb
       -0.0057089655 -0.0011885148 -0.02035639 -0.0045034243
000350 28 ba 22 3c 1d f4 e5 bc da 75 18 3d 08 68 c4 b9
       0.009932078 -0.028070504 0.037221767 -0.00037461543
000360 a6 27 d7 3c 9c bb 38 bd c7 e5 2f bd fc 69 b7 3c
       0.026264023 -0.045100793 -0.042943742 0.022389404
000370 d9 e4 1d 3c 60 a3 14 bc 4f 43 29 3d b8 aa 02 3d
       0.009637081 -0.009072155 0.041323956 0.03190109
000380 df 84 f8 bc 0d 80 89 3c 2b 1c 29 bd 1b be c7 bc
       -0.030336795 0.016784692 -0.04128663 -0.024382642
000390 ab a1 e5 3b 60 28 92 3c 56 42 92 3c 6f 73 d0 3c
       0.0070077977 0.017841518 0.017853897 0.025445668
0003a0 c9 ad 40 3c a5 d2 1c 3d 2a 72 17 bc 46 44 10 3c
       0.011760184 0.038286824 -0.009243527 0.00880534
0003b0 05 2c 0b bd 1c 49 2a bd 52 e9 f0 3c fb d4 9a bc
       -0.033977527 -0.04157363 0.02940813 -0.018900385
0003c0 9a 30 0f bd 9e 8f a0 3b 0e b2 06 3c eb b1 6a bb
       -0.03495846 0.004899933 0.0082211625 -0.0035811614
0003d0 82 3b ff 3c 62 75 9f 3b 73 ba 48 bb 7e 6f 1b bd
       0.031156305 0.004866288 -0.003062871 -0.037948124
0003e0 94 f0 32 bd 62 02 09 3c 32 04 f8 bc 59 ed f6 bc
       -0.043686464 0.0083623845 -0.030275438 -0.030142473
0003f0 17 a9 f9 bc 36 11 1f bd cd 80 89 bb 38 a3 bb 3c
       -0.030476136 -0.038834773 -0.0041962625 0.022904977

features.8.bias f4 [64]
000000 ff 28 72 bc 02 80 04 bc 85 ac bd bc 9c f9 e2 bc
       -0.014780282 -0.00808716 -0.023153553 -0.027706914
000010 d6 25 5d 3d 75 44 a9 3b 71 8f fc bb 6f 77 8a 3c
       0.05399116 0.0051656314 -0.0077075292 0.016902654
000020 1d 46 8d bc 41 f3 1b bd 15 aa c0 bb 64 67 24 3b
       -0.017245347 -0.038073782 -0.0058796504 0.002508604
000030 77 e8 94 3c c8 91 9d bc 24 d6 1b bd fb fd d9 3c
       0.018177254 -0.019234553 -0.038046017 0.026610365
000040 a0 85 f5 bc b5 c7 45 3d bc fd da bc cd fc 8a bc
       -0.029970944 0.04828616 -0.026732318 -0.016966248
000050 ed da 5f 3c c0 c9 6c bb 0b 4b a4 3b c5 11 0c bc
       0.013663036 -0.0036130995 0.0050138286 -0.008549158
000060 e2 43 6b bc 06 8c 3a 3c 7a 08 2d 3d 7a fa d6 bc
       -0.014359446 0.011385923 0.042244412 -0.026242483
000070 a0 c7 1a 3c 44 8e 1e 3d b5 53 bf bb 7c 07 de 3c
       0.009447008 0.038709894 -0.005838836 0.027103178
000080 9a c6 6f 3d c5 e8 36 bc b9 f8 c0 bc e2 d7 72 3c
       0.05853901 -0.011163895 -0.0235561 0.014821978
000090 36 36 39 bc f8 6e 5f 3c 42 5d bd bc 7d 90 6e 3d
       -0.011304429 0.013637297 -0.023115758 0.058243264
0000a0 56 44 b3 3c 3f 45 d7 bc 35 7a 65 3d 9b 93 30 3c
       0.021883171 -0.026278136 0.05602475 0.010777379
0000b0 d2 e2 de bc 34 18 98 bc 93 65 ce 3b 2b 92 02 bc
       -0.027207766 -0.018566228 0.0062987297 -0.0079694195
0000c0 57 61 a5 3c 4b c8 f0 bc 74 89 9b bb 35 35 97 3d
       0.020188017 -0.029392382 -0.0047466103 0.07383195
0000d0 21 bb 1a bd aa d0 7a 3c 9f 6f de bb 34 dc b9 3c
       -0.037776116 0.015308538 -0.0067882086 0.022688009
0000e0 06 96 3d 3d 68 bb e8 bc 8c 45 0c 3d c4 f6 91 bc
       0.04628565 -0.028409675 0.034246013 -0.017817862
0000f0 eb 81 ef 3c 23 df 3a bb 3c cf 12 3a 4a f7 bd ba
       0.029236754 -0.0028514348 0.00056003383 -0.0014493254

features.12.weight f4 [64, 64, 1, 1]
000000 e5 2c 7d 3b ac 61 8c b4 35 d2 04 b9 e4 e7 7a b4
       0.0038631496 -2.6148098e-07 -0.00012666809 -2.3367426e-07
000010 9c dd e3 3d f4 80 36 34 66 3a e2 3d 18 b2 09 bd
       0.11126253 1.6996984e-07 0.11046295 -0.03361711
000020 5f 99 2f 3d 16 6a d4 bc e7 c3 58 3d 65 75 ae 3d
       0.042870875 -0.025929492 0.052921202 0.08518485
000030 84 d8 87 b6 16 42 1b b6 b8 a3 5a 3c f7 2b 14 b6
       -4.0485193e-06 -2.3135267e-06 0.013344698 -2.207931e-06
000040 20 ff b8 bc 7e 8a b7 3d 8e d2 cd b3 96 b4 09 33
       -0.02258259 0.08961962 -9.584356e-08 3.206204e-08
000050 89 e0 ba bc 3e ad 31 bd f6 44 30 3e 7e c0 a0 3d
       -0.022812145 -0.043378107 0.17213807 0.07849215
000060 34 b3 9f af 87 a8 7f 3d db 1c bb 3d 52 cf 17 bd
       -2.9049263e-10 0.06241658 0.09136363 -0.03706295
000070 c1 fb 9b b7 a0 6f 10 bd fe cf 0e b6 b1 40 fb 38
       -1.8594672e-05 -0.035262704 -2.1280716e-06 0.000119806624
000080 e7 3d da 3d 3f 9c 57 3d 1f 94 49 b7 01 52 d3 3b
       0.10656338 0.052639242 -1.2015021e-05 0.0064489846
000090 17 e1 72 38 62 b6 d5 3c fd 5d 0b 3e 1a 6a c6 3c
       5.7906927e-05 0.026087943 0.13610072 0.024220515
0000a0 8c b5 9f 33 9b c8 f8 b5 17 c4 29 3e b0 f0 36 3d
       7.437038e-08 -1.8535824e-06 0.16578709 0.04466313
0000b0 d5 bf f4 3c 40 80 d8 3d 65 e8 c2 bb 20 8a 08 bd
       0.029876629 0.10571337 -0.0059481137 -0.03333485
0000c0 a9 d4 dc bb d2 b6 b9 35 b4 1f 83 bb 0c 32 10 3e
       -0.0067392183 1.3836782e-06 -0.004001582 0.14081591
0000d0 d9 da 6d b3 44 d7 8a 3a 17 26 0b bd 84 16 7b 3d
       -5.5379903e-08 0.0010592719 -0.033971872 0.06130077
0000e0 e9 b1 3c bd 05 2a 18 35 98 12 9f 3d e0 f0 08 bd
       -0.046068106 5.668556e-07 0.07767218 -0.03343284
0000f0 86 e6 4b bd 23 a6 f0 bc 55 6f 73 3c e8 e2 30 b7
       -0.04978039 -0.029376095 0.014858087 -1.0543248e-05
000100 b5 59 a6 bd 42 52 98 b1 20 09 b2 b3 66 cd f7 35
       -0.08122579 -4.433134e-09 -8.290431e-08 1.8462713e-06
000110 ab bc bd bd 0e 1e 9a 3b 9e 61 6d 3c 0f e1 b8 bd
       -0.09264501 0.00470329 0.014488606 -0.090273015
000120 9a c9 2d 3d 0f ed 7c 3d 5a a5 ac bd 63 f5 86 bd
       0.04242859 0.061749514 -0.08429976 -0.065897726
000130 c7 6f ec 37 17 ad a3 36 94 09 82 3c 71 a5 06 3b
       2.8185443e-05 4.877929e-06 0.015873708 0.0020545388
000140 3f dd cb bd 8f a4 03 3d 73 31 96 b8 aa 21 4b 36
       -0.09954309 0.032139357 -7.161768e-05 3.0268952e-06
000150 02 4f 91 bc ff e8 8a 3d d6 56 65 3c 6c 9b 7c bd
       -0.01773787 0.06782722 0.013997754 -0.06167166
000160 30 d8 da 33 ff 49 19 bd 7b 0d e3 bd 13 8d a1 bc
       1.019074e-07 -0.037424084 -0.110865556 -0.01972059
000170 53 81 4b b8 7b 9d 1c bd dd 9e 51 39 66 52 b5 b6
       -4.8519414e-05 -0.038236123 0.00019990974 -5.403813e-06
000180 62 23 2d 3d a1 68 ed 3c b2 e7 2a b8 5c e9 d7 bd
       0.04227007 0.028980555 -4.074694e-05 -0.10542557
000190 db 28 59 38 f7 d3 5b bd 8d 4e 5a 3d cc 0e 20 be
       5.177488e-05 -0.053668942 0.053297568 -0.15630645
0001a0 77 7c 29 3d 07 83 20 3c 5a 63 b6 bd a6 6a 94 bd
       0.041378465 0.009796864 -0.089056686 -0.07246904
0001b0 68 0d e7 bc 99 80 a2 bd bd 53 89 bd 43 8e 8a bc
       -0.028204635 -0.07934684 -0.06705425 -0.016913539
0001c0 52 4a 6c 3d a6 2c c8 b2 64 eb 9a 3d b5 6a 25 bd
       0.057688065 -2.3303368e-08 0.075644284 -0.040384967
0001d0 c0 6a c1 b4 75 8a 47 3c 47 f6 1b bd 08 b5 3a 3d
       -3.6026722e-07 0.012179007 -0.038076665 0.0455828
0001e0 08 7b 5d bd 5a e3 89 3b 51 0d 76 bd e4 d1 2e bd
       -0.05407241 0.0042080106 -0.060071293 -0.042680636
0001f0 9c 77 78 bc 9d 70 f5 bc 5c 96 a0 bd a5 b6 84 3c
       -0.015165236 -0.029960925 -0.07841179 0.016200373
000200 02 5e db bd 2d b2 91 b5 0c 1c b5 b7 77 02 7c 38
       -0.1071129 -1.0855198e-06 -2.1589942e-05 6.0083777e-05
000210 55 47 2d bd d6 72 c4 3b 16 b5 b4 3d fb b0 99 3d
       -0.042304356 0.005995135 0.08823602 0.075044595
000220 a7 39 94 3d 45 e0 f3 bd 2a 85 92 3d 65 cf 42 3d
       0.07237559 -0.119080104 0.07154305 0.047561068
000230 ad 5b 1e bc d1 cd 4b 3d 35 d7 6b 3c 16 75 68 bc
       -0.009665412 0.04975683 0.014394571 -0.014188072
000240 40 79 9c bd 7e 40 c0 bc 1c 7b 8f b5 38 12 94 34
       -0.07640314 -0.023468252 -1.069016e-06 2.7580404e-07
000250 c5 56 4f 3d 8a 5d dc bd fb 93 f3 3c 4e 35 08 3c
       0.05061986 -0.10760029 0.029733649 0.00831349
000260 bc 8c 9c 34 ca e5 90 3c a3 56 5e 3d 21 dd f2 bd
       2.9159662e-07 0.017687697 0.054281842 -0.11858583
000270 a0 a7 b9 33 a9 eb 46 b9 d4 4c 82 bd 04 db 9b 35
       8.6452246e-08 -0.00018970542 -0.0636231 1.1612142e-06
000280 aa 56 8a bd 31 e4 df bb 53 5b b1 33 04 d8 87 3c
       -0.06754811 -0.0068326225 8.2588166e-08 0.016582496
000290 28 1a 8e 34 f6 68 0a 3d 72 c9 3d bd f4 2c c0 3d
       2.6468592e-07 0.033791505 -0.04633469 0.09383574
0002a0 e4 6c cb 3a 82 45 aa bc 94 53 7b bc 6e f7 66 bd
       0.0015520123 -0.020785097 -0.015339751 -0.05638831
0002b0 20 6e f3 3c 32 a0 3d 3d b9 bf ca bc f8 2d 39 bd
       0.029715598 0.046295352 -0.024749624 -0.045209855
0002c0 49 28 e4 3c 10 93 78 34 92 5f 03 bd 59 21 1a bd
       0.02785124 2.3150301e-07 -0.032073565 -0.03762946
0002d0 6b 3d 4e b9 8f 93 6d bc 55 f2 a5 bc 20 e5 9b 3d
       -0.00019668571 -0.014500513 -0.020257154 0.076120615
0002e0 67 aa c9 bc dd b6 84 3c bd 01 bc 3b 3e c9 ba bd
       -0.024617387 0.016200477 0.005737512 -0.09120415
0002f0 51 93 7d bc 67 6e a5 bd 02 cb 06 3d f8 93 39 bd
       -0.0154770175 -0.08077698 0.032908447 -0.04530713
000300 12 dc 18 bd 2d d0 8f 34 7b f6 4c b9 ef 51 8a bc
       -0.03731925 2.6787293e-07 -0.00019546777 -0.016884772
000310 53 97 f5 bd cd 88 10 bc b5 56 b6 bc ec ed 22 bd
       -0.119917534 -0.008821678 -0.022258142 -0.03977768
000320 48 40 2c 3d 93 43 e8 bc ac 8b 97 3d 9e 4c 03 3d
       0.04205349 -0.028352534 0.07399687 0.03205549
000330 00 67 bb 3d 2d 8e 98 bd b6 ff ed bc eb bd 82 bd
       0.09150505 -0.07448993 -0.029052597 -0.0638388
000340 4b b0 f9 3d 5f c5 18 be 58 4b bb 3d 57 89 31 bd
       0.12191828 -0.14919041 0.0914523 -0.043343868
000350 eb 87 d6 bd d0 ea b0 3d cc b5 64 bd e1 21 26 bc
       -0.10475143 0.08638537 -0.055837438 -0.010139913
000360 ef 02 9b b7 44 ed 46 3d de 31 e9 bd 72 17 fa 3d
       -1.8478806e-05 0.048566118 -0.113864645 0.12211503
000370 db 74 83 bd ee b3 50 3d a5 e2 dc bc 16 2f 83 bc
       -0.06418773 0.050952844 -0.026963541 -0.016013663
000380 09 d5 2b be d6 18 18 3d 7a 89 13 bd e8 f4 9f 3c
       -0.16780485 0.03713306 -0.03601978 0.01952596
000390 b9 82 1c b6 ec 2e a4 bd 68 c0 d9 3d cb eb 19 3d
       -2.3321902e-06 -0.08016762 0.10632402 0.037578385
0003a0 0f 4c 32 bd 1d 5b ea bd 78 61 ed 3b b0 19 c8 3d
       -0.043529566 -0.1144316 0.007244285 0.097705245
0003b0 71 1b 8b 3d b9 85 e4 3d 0e e3 07 be 52 18 c0 bd
       0.067923434 0.11158318 -0.13270208 -0.09379639
0003c0 be b0 b1 3d df f8 31 b5 a2 11 a5 3c 76 73 52 bd
       0.08676289 -6.6299793e-07 0.02015001 -0.051379643
0003d0 8c a0 c2 bc 2b 77 a6 bd 24 17 ea bd 1c 38 b5 bc
       -0.023758195 -0.08128198 -0.11430195 -0.022121482
0003e0 66 11 2e bd ea a0 8f 3d ae 91 14 3d 82 6f 15 bd
       -0.04249706 0.07013114 0.036271743 -0.036483295
0003f0 fa 01 ba 3d 03 59 bb 3d d2 aa 34 bd 85 e2 e2 3c
       0.09082408 0.09147837 -0.04410822 0.027695904

features.12.bias f4 [64]
000000 b4 0e b4 bc cb af 74 bd b0 d1 37 bd c7 a3 8c 3d
       -0.021979667 -0.05973796 -0.044877708 0.068671755
000010 ca 9d 52 3d 6e ae 6a bd 25 66 b2 bc d3 64 36 3e
       0.05142001 -0.057295255 -0.021777222 0.17811899
000020 4a 08 9e 3c b4 2e 31 3c e0 92 b6 3d 1d 0d fe 3c
       0.019291062 0.010814358 0.08914733 0.031012112
000030 d8 1b 8c 3c 2e f6 dc bc c5 8d de 3d f1 f9 28 bd
       0.01710312 -0.026972856 0.10866884 -0.041253988
000040 d7 de d9 bc 06 70 86 bd 8c 5c 10 3e 03 aa c2 bd
       -0.026595516 -0.065643355 0.14097804 -0.095050834
000050 c2 4d ae 3d 48 27 49 bd f9 53 cd 3c 24 54 80 3c
       0.08510925 -0.049109727 0.025064455 0.015665121
000060 20 04 1e bd 9e b7 28 bd 28 66 15 3e 56 33 1e be
       -0.038578153 -0.041190736 0.14589751 -0.1544927
000070 b3 43 f6 3b 53 ae e7 3c 73 6d 8f 3d 60 1d fd bc
       0.0075153946 0.028281366 0.07003298 -0.030897796
000080 4b 64 50 bd 95 55 ff bc 9e 43 9e bd 8b 7c 97 3d
       -0.050876897 -0.031168738 -0.07727741 0.073968016
000090 6a 04 21 be bd 47 24 be 39 82 ad bd 77 60 21 3d
       -0.1572434 -0.16042991 -0.084721036 0.039398637
0000a0 98 fe 4a bd e4 13 d0 bd f5 81 a4 bd 9f e1 4e bd
       -0.049559206 -0.10160044 -0.080326 -0.050508138
0000b0 cb 04 db 3d dd a2 b0 bb 78 6e 27 bd 52 42 af 3d
       0.106942736 -0.0053905086 -0.040876836 0.085575715
0000c0 65 a4 83 bd 7c 71 fc bc 5b dd 5d 3d 79 9f c6 bd
       -0.0642784 -0.030815832 0.05416618 -0.09698386
0000d0 a7 e5 26 3b 67 51 60 bd 0d 6a bc 3a 80 4a d7 bd
       0.0025466473 -0.05476513 0.0014374867 -0.105122566
0000e0 ab 6a d9 3d b7 35 cf 3d 4c 17 92 3d 44 85 96 3c
       0.106160484 0.10117667 0.0713335 0.018374093
0000f0 24 de 7d bd f9 47 bb bd b1 09 82 3d 49 ea d6 bc
       -0.061979428 -0.09144587 0.06349505 -0.026234763

classifier.weight f4 [22, 64]
000000 cd f8 c1 3d f4 f0 25 bd 43 17 08 3c 57 69 0f 3e
       0.09471283 -0.040512994 0.008306327 0.14005028
000010 e8 41 f5 3d 6f 5f 9a 3d f5 b2 23 3d 75 09 18 3e
       0.11975461 0.07537734 0.03996559 0.14847358
000020 f9 e6 95 3d 51 06 f8 3c 6f 38 90 bd e2 a7 60 ba
       0.07319445 0.03027645 -0.07042014 -0.00085699384
000030 79 32 84 3d b1 60 20 3d a9 c1 56 3d fe 6a 35 3d
       0.064549394 0.039154712 0.052430782 0.04429149
000040 e7 20 a0 3d 29 bc 37 3d 7e 1c e5 3d 8c 1c a5 3d
       0.078187756 0.044857178 0.11187075 0.080620855
000050 32 d6 cb 3d 14 d3 d0 3d 02 99 b4 3d 05 14 09 3e
       0.09952964 0.1019651 0.088182464 0.13386543
000060 ea 48 94 3d 25 15 88 3d b1 19 89 bc 86 1f 1e 3d
       0.0724047 0.06644658 -0.016735883 0.03860428
000070 e1 0a d3 3d c6 e2 08 bd 2a fd 86 3d 9d 4a 30 3d
       0.10304809 -0.033419393 0.06591256 0.043039907
000080 21 ef 19 bd fa 48 ee 3d d8 63 d4 3a 83 0a fd bc
       -0.037581567 0.11635013 0.0016204072 -0.030888801
000090 fd 90 b4 bc f1 01 54 3d 33 40 9d 3d 58 ff be bb
       -0.022041792 0.051759664 0.07678261 -0.005828779
0000a0 2e 2f e1 bc 81 fa 3a bd 27 9c 61 3d a0 96 be 3d
       -0.027488317 -0.045649055 0.05508056 0.09306073
0000b0 28 6e a1 bc f0 64 07 bc f5 0d a0 3c f6 b9 c7 3d
       -0.019705847 -0.0082638115 0.019537905 0.09752266
0000c0 46 4f f7 3c a3 e1 33 3d 3d 38 04 3e 1a b7 e7 3d
       0.030189168 0.043916356 0.12912078 0.11314221
0000d0 56 e8 0a 3e 0d 17 a9 3d fe 5d 24 3e 2b 57 29 3e
       0.13565192 0.0825635 0.1605148 0.16537158
0000e0 3e 9c 7c 3d 00 87 96 3d 3e cd 07 bd 70 86 38 3d
       0.06167244 0.07349968 -0.03315472 0.045050085
0000f0 40 a2 20 3e da 19 28 3c e3 3c 03 3e b6 ee 24 3d
       0.15686893 0.01026007 0.12816195 0.040266715
000100 38 db ad 3d cb ba 72 bd a1 2d e1 3c e6 35 98 3c
       0.08489078 -0.05926017 0.027487578 0.018580388
000110 54 f4 a9 bd 55 52 6f 3d bf d9 8f bd 77 97 05 3e
       -0.08298555 0.058428127 -0.07023954 0.1304606
000120 17 26 bc 3d 8b 13 c7 bc b3 c3 af 3b a4 c1 b6 bc
       0.091869526 -0.024301311 0.0053639053 -0.022309132
000130 0c 0b e1 3d f0 49 e6 bc cb 20 c4 3d ca ca 53 3d
       0.10988435 -0.028111428 0.09576567 0.051707067
000140 5e 72 33 ba fd 34 64 3d cb ce f7 3d 21 4e 4d 3c
       -0.000684535 0.055714596 0.120999895 0.012530834
000150 76 13 e1 3d 52 58 b9 bd 5b 35 e9 bc 3c 22 af 3d
       0.1099004 -0.09050049 -0.028467825 0.085514516
000160 5f 4f 35 bd 57 8d 11 3d c9 40 c9 3d b7 28 3a bc
       -0.044265147 0.035535183 0.0982681 -0.011362246
000170 d8 45 5d bd fe 9c 70 bd 89 2a ba 3d d1 ff 78 3d
       -0.054021686 -0.05874347 0.09090144 0.06079084
000180 59 3f 7f 3d c0 37 e1 3d 9c 94 9e bd 44 c6 4c 3d
       0.062316272 0.109969616 -0.07743189 0.04999377
000190 4c 06 14 be de 16 c4 bd 98 6b 52 3c 3f e2 6c bd
       -0.14455527 -0.09574674 0.012843035 -0.057832953
0001a0 df f7 01 3c cd b8 93 bd 38 6b 26 3c 62 a2 b4 bd
       0.007932632 -0.07212982 0.010157399 -0.088200346
0001b0 ef 79 b3 3c 3d b6 f1 bc 4e c3 b3 bd 9e 18 4a bd
       0.021908728 -0.029505843 -0.08777486 -0.049339883
0001c0 64 f8 55 3c dc e1 ac bc 5a 92 12 3c b6 be 8b bc
       0.013059709 -0.021103792 0.008946026 -0.017058711
0001d0 d9 ac b1 3c 6f b8 d0 3b 2d bd 9f bd 9a b3 b9 bd
       0.021688865 0.0063696424 -0.07799754 -0.090674594
0001e0 70 15 d4 3d d3 a6 c6 3d bc 93 a1 3d c2 8c 33 bd
       0.103556514 0.09699788 0.07889506 -0.04383541
0001f0 39 5a 71 bd 4a 0e e6 3c 86 f8 d5 3d 0f 60 1b bd
       -0.058923934 0.028082985 0.10447793 -0.037933405
000200 3c d9 2b be 63 61 bd bd 2a e3 7b bc 56 29 16 bd
       -0.16782087 -0.09247091 -0.015373984 -0.036660515
000210 c1 f0 11 bc 9a a5 67 be cf 15 af bd 6d 29 6b be
       -0.008907498 -0.22621766 -0.085490815 -0.22965021
000220 ec df 66 be a7 98 dd bb 40 7d 5b bd 4f f8 da 3b
       -0.22546357 -0.0067625823 -0.053586245 0.0066824327
000230 e4 66 36 be 77 23 bb 3b 7b 3b a4 bd 16 17 d1 bd
       -0.17812687 0.005711015 -0.080191575 -0.102094814
000240 e7 d2 63 bc 7e c0 1f be 08 a7 43 be 10 4b fa bd
       -0.0139052635 -0.15600774 -0.19106686 -0.12221348
000250 2d f9 56 be c0 cc 7a bc 44 52 84 bd 38 0f cb bd
       -0.2099349 -0.015307605 -0.064610034 -0.09915012
000260 a5 2a 08 bd ce a9 a8 bd 0c f0 da bd 6b 9b a3 3b
       -0.033243794 -0.08235513 -0.106903166 0.0049928925
000270 7a af 71 bd 67 d1 bb bd b6 02 13 be 59 23 de bd
       -0.059005238 -0.091708 -0.14356503 -0.10846586
000280 2f e8 8a bd 55 7c eb bd fd bb 0f bc 0a 92 4a bd
       -0.06782567 -0.11498324 -0.008772847 -0.04945568
000290 b7 14 2c bc c3 4a 6e 3b 11 d6 dd bc 65 63 89 39
       -0.010502986 0.003636048 -0.027079614 0.0002620473
0002a0 40 ba 5d bd 56 3d 73 3a 7c fc 5b bb 31 3d 95 bd
       -0.0541327 0.0009278854 -0.003356724 -0.07287062
0002b0 c0 15 d6 bd 69 4b 69 bc c0 97 7c 32 4b a3 d7 bd
       -0.10453367 -0.014239171 1.47028345e-08 -0.105291925
0002c0 83 84 2f be b5 3e a3 3b ee 06 c6 bd 86 d4 e8 ba
       -0.17140393 0.0049818405 -0.096692905 -0.0017763532
0002d0 47 ad 3b bd b4 ac 79 bc 09 41 97 bd 0a 0a ce ba
       -0.045819547 -0.01523893 -0.07385451 -0.0015719545
0002e0 43 9a fa bd b6 01 68 be 45 8a 1c be 30 a4 83 bc
       -0.12236454 -0.22656903 -0.1528712 -0.016069502
0002f0 89 63 b7 3b f9 a1 d9 bd 99 b3 db bd 6c f0 dc bd
       0.0055965823 -0.10626597 -0.10727615 -0.10788044
000300 74 f5 7e be 85 c7 11 be 99 a2 1d be 4a 1e 0c bd
       -0.2489832 -0.14236267 -0.15394057 -0.034208573
000310 ef e8 ca bb 33 3c e4 bd 5a a5 7d bd 6d 32 ec bd
       -0.0061923186 -0.111442946 -0.06192527 -0.115330555
000320 31 95 5b be 21 d7 9a bc 3a 08 91 bd 0e c1 b2 bb
       -0.21443631 -0.01890141 -0.07081647 -0.005455143
000330 9c 0e 05 be 54 bc 8a bb 06 79 40 be 5a 2b 51 be
       -0.12993854 -0.0042338762 -0.18796167 -0.20426694
000340 56 cc 96 bc 89 16 42 be ea ae cb bd 81 8f 04 be
       -0.018407982 -0.18953909 -0.099454716 -0.12945367
000350 ec 51 fa bd bf 91 86 bd d0 a5 04 be 75 e5 37 be
       -0.122226566 -0.065707676 -0.12953877 -0.17958625
000360 f7 f8 60 bd 29 54 11 be fc 15 24 bd 29 fa 64 3b
       -0.05492493 -0.14192261 -0.04006003 0.0034939146
000370 15 e9 62 bd b8 07 11 be 6c f4 31 be b1 7d 33 bd
       -0.055398066 -0.141631 -0.17378396 -0.04382104
000380 7a b7 0f be 93 21 5b be 93 4a 6e bc 00 dd 5e bd
       -0.14034835 -0.21399526 -0.014544147 -0.05440998
000390 60 f0 c7 38 4f 50 84 3b 39 05 f3 bd 00 5c 3b 34
       9.533833e-05 0.004037894 -0.118662305 1.7449202e-07
0003a0 0d 4d 58 bd a8 37 e6 bc a6 f6 3e bc d3 c5 22 bd
       -0.052807856 -0.02810271 -0.011655485 -0.03973944
0003b0 a0 bf 42 be a3 7f 6a bd c2 e5 a9 36 0c 32 d3 bd
       -0.19018412 -0.05725063 5.06334e-06 -0.1031228
0003c0 90 8c 3c be c8 08 d7 3b 0e 94 dc bd 26 ec d8 ba
       -0.18412995 0.006562326 -0.10770427 -0.001654987
0003d0 7e 49 05 be 61 09 ed bc 4d 9a 7b bd 44 cb f8 ba
       -0.13016316 -0.028935136 -0.06142645 -0.0018981476
0003e0 57 d9 34 be 07 3e 0d be 05 46 04 be b0 38 25 bd
       -0.17661034 -0.13793193 -0.12917335 -0.040337265
0003f0 f9 0e b5 3b 5d 94 20 be 1c ee 38 be 9a a4 c5 bd
       0.0055254665 -0.15681596 -0.18059582 -0.09650536
