Models/thesis_AGEM_CL_1_0.pth (torch, 289315 bytes, 12 tensors)

features.0.weight f4 [32, 3, 3, 3]
0.089897506 -0.09564475 0.15690514 0.13466191 -0.011537899 -0.12445236 0.093964726 -0.06816144
0.033455744 -0.029333098 -0.043823674 0.089022934 0.0060492367 0.088493966 -0.17823848 -0.108128175
0.18779749 -0.009407447 -0.04485172 0.114590615 0.11060655 -0.02931267 0.1561403 -0.0010347462
-0.03933914 -0.021264978 -0.112631805 0.15467723 0.116686724 0.14525685 0.06708416 -0.16643809
0.020872189 0.07958537 -0.1472701 0.11453389 0.12791389 -0.1920753 -0.076200575 -0.12379882
-0.06041507 -0.1057203 -0.09167159 -0.11657335 0.07710897 -0.16943416 0.008022314 0.17048614
0.1128217 -0.18938465 0.102227874 -0.048318826 -0.032995764 -0.0019176805 0.019245574 0.19147256
-0.035892 -0.011217433 -0.07775643 0.12599623 -0.0902445 -0.13427159 -0.12274462 -0.113473594
-0.026037158 -0.015273724 -0.06829758 -0.035529986 -0.013392482 0.0030149221 -0.1365242 0.1523136
0.0063289013 0.026179137 0.07868835 -0.16264266 -0.06706807 -0.024279442 0.05369219 -0.13799697
-0.18332538 0.14249401 0.06388924 -0.16615629 -0.028648647 -0.018188924 -0.15985644 -0.110813126
-0.17645766 0.10606085 0.124574006 0.01853575 0.027593663 0.05683665 0.14304164 0.00706881
0.10299205 -0.17153224 -0.087719485 0.08808363 -0.086403534 0.11477679 -0.08264575 -0.08632063
-0.14837857 -0.0156873 0.143833 -0.07233635 0.09387924 -0.017226547 -0.16967572 0.13004355
-0.14489253 -0.09305409 -0.044432625 0.14931287 -0.11107372 -0.044956982 -0.062882885 -0.13885503
-0.034803763 -0.18709104 -0.086547166 0.14302774 -0.055440083 0.047419697 -0.099472895 -0.18695715
0.1815375 -0.12241857 0.104571596 0.006981567 -0.00010560445 -0.14178091 0.017072216 -0.16865586
0.024364727 0.15585352 0.07278784 -0.13256533 0.15725492 0.12016882 0.13829586 0.042075526
-0.051409777 -0.122164786 0.12681231 -0.054717895 0.1801905 -0.10926646 0.13024756 -0.17946513
-0.037139624 0.047166355 -0.011979992 -0.13285571 0.05889076 -0.17807811 0.14230591 -0.042290207
-0.06156041 -0.0066020447 0.17500496 0.09775218 0.15916239 -0.11120415 -0.09116536 0.17345363
0.0748942 -0.15715262 -0.18749231 -0.018136462 0.15349028 -0.017237071 0.14842929 -0.04142867
0.04333573 -0.11362824 -0.029075826 -0.11428114 0.10994822 -0.05276897 -0.1702986 -0.07100624
-0.17637712 0.18550482 0.0872871 0.09430183 0.052609235 0.036827214 0.027754651 -0.17449436
0.15641505 -0.15949383 0.04031819 -0.042987045 0.13351963 0.13615125 0.14868666 0.05722757
-0.1711845 -0.12414254 -0.13798356 -0.032920167 -0.004133535 0.06475173 -0.1589281 0.15628342
-0.014023094 -0.04151072 0.18650718 -0.18612918 0.026128316 0.14892642 -0.10853142 -0.09185278
0.025145646 -0.15892649 -0.12599206 -0.10824823 0.033260185 -0.0072460123 -0.11766242 -0.16798875
-0.12560174 0.09323884 0.1806702 0.017915769 -0.13563271 0.1727477 0.053365447 0.017481813
0.18001644 -0.062298894 0.12294577 0.17414048 0.1882875 0.1836107 0.1057081 0.08651675
-0.08287289 -0.13534184 0.14198674 0.037326284 -0.022014076 -0.10721476 0.032664794 0.19198292
0.046206143 -0.1489915 0.17466542 0.14439094 -0.049448337 -0.025328718 0.17308208 -0.14230438
00000000: 2f1c b83d 65e1 c3bd beab 203e d0e4 093e
00000010: 7509 3dbc e1e0 febd 9470 c03d 3a98 8bbd
00000020: e408 093d f74b f0bc 7480 33bd a851 b63d
00000030: ad38 c63b 533c b53d 2684 36be 4e72 ddbd
00000040: fc4d 403e b121 1abc 70b6 37bd 7cae ea3d
00000050: b085 e23d 2021 f0bc 3ee3 1f3e 52a0 87ba
00000060: 1422 21bd e433 aebc 81ab e6bd b563 1e3e
00000070: 73f9 ee3d 36be 143e 6c63 893d bf6e 2abe
00000080: 27fc aa3c a8fd a23d f9cd 16be be90 ea3d
00000090: dcfb 023e 63af 44be 0c0f 9cbd 3c8a fdbd
000000a0: cb75 77bd e283 d8bd 51be bbbd 02be eebd
000000b0: 4feb 9d3d 2680 2dbe 0670 033c eb93 2e3e
000000c0: 100f e73d 0dee 41be d95c d13d f6e9 45bd
000000d0: 9126 07bd ae5a fbba e5a8 9d3c 6211 443e
000000e0: 7d03 13bd 53c9 37bc c33e 9fbd 2805 013e
000000f0: 1cd2 b8bd 7e7e 09be 8861 fbbd d864 e8bd
00000100: e14b d5bc a43e 7abc 9adf 8bbd e487 11bd
00000110: 246c 5bbc 0096 453b 00cd 0bbe 19f8 1b3e
00000120: ac62 cf3b a175 d63c 5c27 a13d cc8b 26be
00000130: fc5a 89bd aee5 c6bc 58ec 5b3d 144f 0dbe
00000140: a6b9 3bbe f3e9 113e 5dd8 823d e024 2abe
00000150: 91b0 eabc f000 95bc 68b1 23be fef1 e2bd
00000160: 51b1 34be 6e36 d93d a820 ff3d 49d8 973c
00000170: 1b0c e23c 8ccd 683d 8279 123e 7aa1 e73b
00000180: 7fed d23d 26a6 2fbe 46a6 b3bd 3165 b43d
00000190: 56f4 b0bd 1810 eb3d 2d42 a9bd dfc8 b0bd
000001a0: 8df0 17be a782 80bc f548 133e 1525 94bd
000001b0: c243 c03d b01e 8dbc 79bf 2dbe 232a 053e
000001c0: b55e 14be 2593 bebd fcfe 35bd 79e5 183e
000001d0: 9e7a e3bd d024 38bd bec8 80bd 0330 0ebe
000001e0: 648e 0ebd cb94 3fbe a43f b1bd dd75 123e
000001f0: 2415 63bd 283b 423d 72b8 cbbd b271 3fbe
00000200: f7e4 393e 96b6 fabd a229 d63d a1c5 e43b
00000210: f577 ddb8 042f 11be 08db 8b3c 1fb4 2cbe
00000220: 8998 c73c 1198 1f3e cb11 953d 35bf 07be
00000230: 6f07 213e 121b f63d 6e9d 0d3e 6357 2c3d
00000240: 0f93 52bd 8831 fabd 16db 013e df1f 60bd
00000250: dc83 383e 18c7 dfbd 9e5f 053e b5c5 37be
00000260: b81f 18bd 8231 413d ba47 44bc 540b 08be
00000270: 7037 713d 1c5a 36be a4b8 113e 7f38 2dbd
00000280: c526 7cbd f755 d8bb 8034 333e 4c32 c83d
00000290: 77fb 223e 00bf e3bd e7b4 babd d49d 313e
000002a0: 2162 993d 9eec 20be fcfd 3fbe eb92 94bc
000002b0: 8e2c 1d3e c234 8dbc d9fd 173e 1cb1 29bd
000002c0: ce80 313d ecb5 e8bd 6d30 eebc 3b0c eabd
000002d0: 882c e13d 4724 58bd c262 2ebe b86b 91bd
000002e0: 349c 34be faf4 3d3e 94c3 b23d 5121 c13d
000002f0: c87c 573d 22d8 163d b95d e33c a6ae 32be
00000300: 442b 203e 5a52 23be b024 253d 2f13 30bd
00000310: 5fb9 083e 3c6b 0b3e 5141 183e 7567 6a3d
00000320: fd4a 2fbe 723e febd 904b 0dbe 4cd7 06bd
00000330: 9b72 87bb 8e9c 843d 0cbe 22be c308 203e
00000340: 1fc1 65bc 2507 2abd bdfb 3e3e a698 3ebe
00000350: 0d0b d63c 2b80 183e b945 debd 4f1d bcbd
00000360: 3efe cd3c a0bd 22be 1004 01be 3fb1 ddbd
00000370: d53b 083d f56f edbb fff8 f0bd 3e05 2cbe
00000380: be9d 00be 01f4 be3d 9c01 393e 17c4 923c
00000390: 4de3 0abe c6e4 303e ba95 5a3d 0536 8f3c
000003a0: 3b56 383e 202d 7fbd feca fb3d e251 323e
000003b0: 70ce 403e 7104 3c3e 7d7d d83d b22f b13d
000003c0: 43b9 a9bd 0d97 0abe f964 113e 72e3 183d
000003d0: dd56 b4bc 6993 dbbd 85cb 053d 2c97 443e
000003e0: a742 3d3d 3a91 18be 7edb 323e 38db 133e
000003f0: 578a 4abd 2c7e cfbc 6e3c 313e 3db8 11be

features.0.bias f4 [32]
-0.008767613 -0.17255583 0.09655344 0.09838721 0.0023747534 0.013479597 -0.009658299 -0.120365
0.16152708 -0.095654145 0.16653654 0.07724875 -0.00033252823 0.08118154 0.10646497 -0.043784663
-0.107706256 -0.03983266 -0.026105711 0.16805886 0.12690169 0.16792347 0.0034107717 0.15041223
0.14925708 0.15970327 -0.03212536 0.12577291 0.0014489825 0.0074411267 0.113228515 -0.14348389
00000000: 09a6 0fbc 7ab2 30be cfbd c53d 3c7f c93d
00000010: c0a1 1b3b 87d9 5c3c d83d 1ebc ed81 f6bd
00000020: 5b67 253e 52e6 c3bd 8e88 2a3e 9834 9e3d
00000030: 2f57 aeb9 8242 a63d 4e0a da3d 8c57 33bd
00000040: 1995 dcbd 9227 23bd a5db d5bc 9f17 2c3e
00000050: 84f2 013e 21f4 2b3e 4187 5f3b aa05 1a3e
00000060: d9d6 183e 4189 233e e295 03bd 9dca 003e
00000070: c9eb bd3a b2d4 f33b 5ae4 e73d 71ed 12be

features.2.weight f4 [32, 32, 3, 3]
0.008745994 0.026941175 -0.05488733 0.0125302775 -0.04073549 0.020642294 0.035296552 -0.008333493
0.04701686 -0.047818206 0.01000284 0.043579448 0.020129457 0.04520418 0.0067888987 -0.044017714
0.053169366 -0.0084498525 0.0409307 0.02598403 -0.018181793 0.023894329 0.034764577 -0.004183594
0.034116182 -0.04940125 0.016463388 -0.012604909 0.038277995 0.023667771 -0.04155703 -0.024602331
0.004035139 -0.033269204 -0.0021924665 -0.04107643 0.029171545 0.028505508 -0.057483032 0.004974697
-0.015916042 0.0026170462 0.004783217 -0.00017784526 0.03745455 0.013556275 0.040729143 0.03793935
0.04498213 -0.045630615 -0.03610677 -0.003080052 0.04537521 -0.02290376 -0.029160568 -0.056609616
0.008837661 0.040787745 0.014200446 0.016843673 0.023118788 0.0033834598 -0.0055359537 -0.04564762
-0.04124983 0.047456715 -0.03532044 -0.04057848 -0.054487705 0.057883214 -0.044671368 0.0024479867
0.01603907 0.0065801223 0.0123549765 -0.049865376 0.034564562 0.02682376 -0.021129467 0.012680767
-0.036619727 -0.0038496105 -0.033304498 -0.058373403 0.0024462997 -0.00046315353 -0.014167594 0.026455157
-0.019648459 -0.013430992 -0.009924671 0.02951456 -0.01947917 0.040382195 0.041005578 0.058468543
-0.0076639485 -0.05347432 0.058720276 0.04127633 -0.00016677647 0.023636002 0.025932942 0.056676175
0.019755265 -0.04907565 0.017174007 -0.03383227 0.026428048 0.044083435 0.045624208 -0.04892994
-0.02567302 -0.05530699 0.05257609 -0.022968594 0.04365195 0.006796454 -0.02753822 -0.035574254
-0.026579095 0.03906979 -0.056393515 0.040601864 0.057530046 0.032894637 0.05709378 -0.009813827
-0.013610956 0.034478277 0.029143058 0.05844451 -0.004295971 0.0153891165 -0.0035584038 -0.05259986
-0.0048723444 -0.05507608 0.026510324 0.02126101 0.04382172 0.04033788 0.020487014 0.016730953
0.028827975 0.014578807 -0.040035706 -0.055608924 0.040361106 -0.02864278 0.0080665415 0.0108708665
-0.0050573163 -0.017712396 0.03483696 -0.0005345975 -0.04437942 -0.026432347 -0.05484739 -0.045993738
0.0010984326 0.038503848 0.05393028 -0.04893181 -0.026326159 -0.039057855 -0.012640294 -0.0017800896
0.024667012 -0.032781344 0.017758122 -0.04212849 0.044894308 -0.027018126 0.02818293 -0.03122941
0.0020249393 0.031036327 -0.056461323 -0.0013929869 -0.012636255 0.011903026 0.009947988 0.029039286
-0.0073632337 0.03340501 -0.04311966 0.015429812 -0.006733364 0.013357109 -0.019455733 0.015270229
0.0103358645 0.053923633 0.02695533 -0.02371828 -0.031821825 -0.03448974 0.032160584 0.034981642
0.0135608995 0.0026799685 -0.0473315 0.005266112 0.030239124 -0.035024054 0.049205083 -0.057384122
-0.03857833 0.038837995 -0.00021147054 -0.027054112 0.010089855 0.049935937 0.046736486 -0.017420031
0.02281581 0.01928139 0.041629046 -0.007210092 0.019077333 -0.023222724 -0.045791127 0.031875532
0.04836145 -0.05125914 -0.02480751 -0.05012954 -0.056845248 0.0046237553 0.05580913 -0.013748794
0.040230177 -0.013877881 -0.057844985 -0.041443974 -0.0030974948 0.03484571 0.030552931 0.011719769
0.0040104887 0.032689206 -0.007255683 0.04184403 -0.05044322 -0.037615366 0.036988035 -0.038853977
0.0010847065 0.058251873 0.022825215 -0.007613932 0.047554225 -0.0070476453 -0.054398023 0.011918648
00000000: 5c4b 0f3c bdb3 dc3c 89d1 60bd cb4b 4d3c
00000010: 42da 26bd 071a a93c 1e93 103d 3489 08bc
00000020: c094 403d 06dd 43bd f4e2 233c 5d80 323d
00000030: 88e6 a43c 0528 393d 6975 de3b eb4b 34bd
00000040: 1fc8 593d 4071 0abc f3a6 273d 76dc d43c
00000050: fcf1 94bc 0abe c33c 4d65 0e3d 8816 89bb
00000060: 69bd 0b3d f758 4abd 3ade 863c d284 4ebc
00000070: 63c9 1c3d eae2 c13c b437 2abd d48a c9bc
00000080: 3339 843b 4a45 08bd 7caf 0fbb c23f 28bd
00000090: 2af9 ee3c 6284 e93c 5473 6bbd c802 a33b
000000a0: 5c62 82bc c082 2b3b 88bc 9c3b f97b 3ab9
000000b0: f169 193d 231b 5e3c 9ad3 263d 4b66 1b3d
000000c0: 2f3f 383d 2be7 3abd b1e4 13bd b3da 49bb
000000d0: 5bdb 393d aba0 bbbc 25e2 eebc 7cdf 67bd
000000e0: d6cb 103c 0d11 273d fda8 683c befb 893c
000000f0: 9d63 bd3c 09bd 5d3b f266 b5bb 00f9 3abd
00000100: 95f5 28bd f961 423d 2aac 10bd 9f35 26bd
00000110: 802e 5fbd f316 6d3d 53f9 36bd 676e 203b
00000120: 5e64 833c 119e d73b 876c 4a3c a33f 4cbd
00000130: 9293 0d3d 80bd db3c b417 adbc fec2 4f3c
00000140: 91fe 15bd bf49 7cbb 4c6a 08bd f318 6fbd
00000150: 1952 203b 6ad3 f2b9 321f 68bc 7cb8 d83c
00000160: cef5 a0bc aa0d 5cbc 169b 22bc 85c8 f13c
00000170: c892 9fbc cd67 253d 77f5 273d b67c 6f3d
00000180: dc21 fbbb e307 5bbd ac84 703d 5e11 293d
00000190: b8e0 2eb9 4aa0 c13c 5271 d43c 4725 683d
000001a0: cbd5 a13c 8c03 49bd 81b0 8c3c b593 0abd
000001b0: a27f d83c d590 343d 73e0 3a3d c36a 48bd
000001c0: 3a50 d2bc 9589 62bd 075a 573d a228 bcbc
000001d0: 63cc 323d cab4 de3b d597 e1bc 4fb6 11bd
000001e0: 67bc d9bc a507 203d e3fc 66bd 244e 263d
000001f0: a0a4 6b3d 87bc 063d 2bdb 693d 2dca 20bc
00000200: 7d00 5fbc 1839 0d3d 6cbd ee3c 8363 6f3d
00000210: 37c5 8cbb a222 7c3c 1c34 69bb f372 57bd
00000220: 30a8 9fbb 7597 61bd 2e2c d93c 922b ae3c
00000230: 677e 333d 5539 253d 62d4 a73c 5a0f 893c
00000240: a528 ec3c f3db 6e3c 7bfc 23bd 2fc6 63bd
00000250: b051 253d 43a4 eabc 8729 043c b81b 323c
00000260: d8b7 a5bb 9619 91bc 33b1 0e3d 3b24 0cba
00000270: 32c7 35bd a688 d8bc a8a7 60bd ee63 3cbd
00000280: 48f9 8f3a 36b6 1d3d ffe5 5c3d b96c 48bd
00000290: f5a9 d7bc 21fb 1fbd 3c19 4fbc e551 e9ba
000002a0: 7912 ca3c bb45 06bd 7b79 913c ec8e 2cbd
000002b0: 18e3 373d 1e55 ddbc e3df e63c d2d4 ffbc
000002c0: d8b4 043b e53f fe3c fd43 67bd e294 b6ba
000002d0: 4b08 4fbc e904 433c e3fc 223c cce3 ed3c
000002e0: 4847 f1bb b1d3 083d 3e9e 30bd 52cd 7c3c
000002f0: 8da3 dcbb c7d7 5a3c a161 9fbc fc2f 7a3c
00000300: c257 293c 07df 5c3d 6dd1 dc3c d74c c2bc
00000310: 9a57 02bd 1d45 0dbd d1ba 033d e948 0f3d
00000320: 892e 5e3c 69a2 2f3b adde 41bd 598f ac3b
00000330: 0ab8 f73c 6275 0fbd 458b 493d 9d0b 6bbd
00000340: 5004 1ebd 9714 1f3d 31be 5db9 96a0 ddbc
00000350: eb4f 253c a089 4c3d c26e 3f3d 74b4 8ebc
00000360: 39e8 ba3c 01f4 9d3c 3883 2a3d a342 ecbb
00000370: 1148 9c3c 953d bebc 7a8f 3bbd eb8f 023d
00000380: a816 463d 1bf5 51bd 1f39 cbbc a254 4dbd
00000390: 90d6 68bd df82 973b 1d98 643d 9f42 61bc
000003a0: 66c8 243d 0d60 63bc ddee 6cbd 28c1 29bd
000003b0: 57ff 4abb 60ba 0e3d 244a fa3c 4604 403c
000003c0: 6b6a 833b 1ee5 053d 15c1 edbb a564 2b3d
000003d0: 8d9d 4ebd 9212 1abd c480 173d 5925 1fbd
000003e0: b62c 8e3a 8499 6e3d f2fb ba3c 4a7e f9bb
000003f0: 38c8 423d efef e6bb 76d0 5ebd 6f46 433c

features.2.bias f4 [32]
-0.0215759 -0.01241949 0.02481392 -0.00011950552 0.02631057 0.0030315344 -0.022601297 0.029255109
-0.03681362 -0.0321036 -0.029479094 -0.03541039 -0.046914168 -0.042964976 0.058677703 0.04725496
0.041277006 0.054949768 -0.040469207 -0.028650599 -0.0550823 -0.028443294 0.011443315 0.02877015
0.011689694 0.051951095 -0.03427396 0.033052 0.0031753946 -0.007568218 -0.047641322 -0.032625187
00000000: f1bf b0bc 1e7b 4bbc 9046 cb3c 0a9f fab8
00000010: 4489 d73c b5ac 463b 5b26 b9bc 69a8 ef3c
00000020: e1c9 16bd 117f 03bd 247e f1bc 7c0a 11bd
00000030: 1229 40bd 0bfc 2fbd 0858 703d 6b8e 413d
00000040: 1412 293d 0213 613d 0ac3 25bd a9b4 eabc
00000050: fa9d 61bd e901 e9bc be7c 3b3c 61af eb3c
00000060: 2186 3f3c acca 543d da62 0cbd 8961 073d
00000070: 481a 503b d0fe f7bb 8c23 43bd fda1 05bd

features.6.weight f4 [64, 32, 3, 3]
-0.04000677 -0.021055002 0.043676812 0.0074595287 -0.019042237 0.049725566 0.039464276 -0.032905605
-0.037270296 0.0027971459 0.0027842994 0.011100155 0.005236672 -0.026518043 -0.01961373 0.030479357
-0.03768595 0.008093795 -0.03229791 0.03649118 0.00896735 -0.043985378 -0.027254682 -0.0055977954
0.0198312 -0.035278093 -0.023401467 0.04776159 -0.027347269 -0.04582165 -0.037602533 0.05703622
-0.054300867 -0.017886253 0.01702639 0.044059422 0.050963055 0.055151995 0.025428373 0.03604957
0.034784887 0.044758942 0.03895953 -0.028275091 0.01360352 -0.031243332 -0.039396107 0.008601139
0.0457195 0.033948686 -0.05696739 0.045529295 -0.046761647 -0.004709933 -0.004988946 0.04389107
0.011624241 -0.005807481 -0.055568803 -0.019084698 -0.055939835 0.008177512 -0.030460224 -0.035359167
0.051286515 -0.015096971 -0.026032379 0.041008662 -0.0106830355 -0.0015949571 -0.036300097 0.050822854
0.00082387775 -0.0004468485 -0.0025555582 -0.04966426 -0.035277966 -0.011723314 0.01969489 -0.01588922
-0.00469777 -0.05232303 -0.01907369 0.058591027 -0.050217982 0.021805026 0.007066826 -0.0019199422
-0.044649523 -0.05284865 -0.038038235 0.04634225 0.029539082 -0.05191424 0.052929275 -0.009461825
0.0019445565 0.03209987 0.020859346 0.041858625 0.0580466 0.050995786 -0.012167247 -0.00041137644
0.012628372 -0.031803865 0.020007182 0.031924218 -0.014234345 0.031419445 -0.024038833 -0.03435994
0.028813522 -0.023788385 0.052007187 -0.011580493 -0.05158249 0.050180648 -0.0034411498 0.047509965
0.0084239915 -0.03261465 0.024908036 -0.040820315 -0.019230727 0.0013368697 -0.056295738 -0.040084723
0.05594129 0.048309766 -0.03427736 0.02456088 -0.050585277 0.023438621 0.05684456 0.05614819
0.052108914 0.008965316 -0.025990404 0.0130024245 -0.05384458 0.03725179 0.016262434 -0.043253537
-0.012784347 0.033234186 0.03798125 -0.03774272 0.025038892 0.043046087 0.027410176 0.026328355
-0.008966879 -0.00070675096 -0.034380447 -0.018173385 0.008325217 -0.035276618 0.03934141 0.05284642
0.037845768 -0.039413385 0.04915994 0.051982086 0.0013224493 -0.0088453805 0.022288758 -0.03484978
-0.048861995 0.043095473 0.01609897 0.009453651 0.014574606 0.012174811 -0.05137365 -0.014371857
-0.04929206 -0.047590323 -0.009892166 0.0425003 -0.03091951 -0.044242866 0.0417624 0.045994576
0.013392571 -0.014621668 0.05432115 0.010781314 -0.023964044 0.023684993 -0.05692348 0.041896872
0.04861273 0.013445643 0.0062829154 0.017019132 -0.039637636 -0.046810534 0.05651051 -0.041562814
-0.0159918 -0.031731583 -0.023720538 0.0019437342 -0.009225117 -0.033396 -0.0009628722 -0.0042274683
-0.041876826 -0.006637301 -0.0072803157 -0.053707674 0.0035024013 -0.05535616 0.03942137 -0.01570888
-0.03096963 -0.0058561973 -0.0033929895 0.014203759 -0.049402505 -0.045398325 -0.0061204913 -0.039837167
-0.054462604 0.030656936 0.035263542 -0.03784614 -0.009636122 -0.004916438 0.05824713 0.025557699
-0.014892008 -0.038704406 -0.01193735 -0.050190996 -0.028473154 0.02302238 0.056752454 -0.028944854
0.057639588 0.002713617 0.050085198 -0.02563762 0.055974923 -0.01795615 0.002918415 -0.0059505966
-0.053683765 0.036033176 0.05067316 0.04979069 -0.01879305 -0.023432441 -0.027049415 0.03312475
00000000: 24de 23bd 8a7b acbc 75e6 323d 106f f43b
00000010: 77fe 9bbc 09ad 4b3d 4ba5 213d 07c8 06bd
00000020: bda8 18bd 5250 373b cb78 363b 6ddd 353c
00000030: 6398 ab3b 5e3c d9bc f9ac a0bc d8af f93c
00000040: 955c 1abd d69b 043c d04a 04bd c777 153d
00000050: cbeb 123c 032a 34bd 3645 dfbc b66d b7bb
00000060: 0a75 a23c c37f 10bd 6fb4 bfbc a8a1 433d
00000070: 6107 e0bc 7caf 3bbd 1d05 1abd d09e 693d
00000080: 966a 5ebd 3186 92bc ee7a 8b3c a777 343d
00000090: a3be 503d 0fe7 613d 2a4f d03c b7a8 133d
000000a0: 997a 0e3d 2755 373d 0794 1f3d 2aa1 e7bc
000000b0: 4ce1 5e3c 04f2 ffbc d05d 21bd cbeb 0c3c
000000c0: 5f44 3b3d c70d 0b3d a356 69bd ed7c 3a3d
000000d0: 2489 3fbd c855 9abb 507a a3bb 1fc7 333d
000000e0: 9a73 3e3c ae4c bebb 1d9c 63bd 8357 9cbc
000000f0: 2b21 65bd f9fa 053c b887 f9bc c6d4 10bd
00000100: cf11 523d 4959 77bc db41 d5bc b3f8 273d
00000110: e607 2fbc e10d d1ba 69af 14bd a02b 503d
00000120: 80f9 573a fe46 eab9 277b 27bb c06c 4bbd
00000130: a17f 10bd 2513 40bc 2e57 a13c 1c2a 82bc
00000140: c0ef 99bb ac50 56bd 6d40 9cbc 25fd 6f3d
00000150: 5fb1 4dbd 74a0 b23c d590 e73b 92a6 fbba
00000160: 6be2 36bd d377 58bd fbcd 1bbd 5fd1 3d3d
00000170: f2fb f13c 07a4 54bd 5ecc 583d c505 1bbc
00000180: 7de0 fe3a 277b 033d 38e1 aa3c f373 2b3d
00000190: 46c2 6d3d f5e0 503d 2259 47bc 03ae d7b9
000001a0: 3be7 4e3c c544 02bd 1ae6 a33c f8c2 023d
000001b0: 2c37 69bc adb1 003d 16ed c4bc 02bd 0cbd
000001c0: 560a ec3c dcdf c2bc 7d05 553d 1cbc 3dbc
000001d0: 2948 53bd 398a 4d3d ea84 61bb cf99 423d
000001e0: c804 0a3c f096 05bd f00b cc3c 3433 27bd
000001f0: c289 9dbc e739 af3a 5c96 66bd e12f 24bd
00000200: b222 653d 76e0 453d 6b66 0cbd e633 c93c
00000210: 8232 4fbd 5a02 c03c d7d5 683d a5fb 653d
00000220: 2870 553d 43e3 123c d4e9 d4bc 1f08 553c
00000230: 228c 5cbd 5595 183d cc38 853c 9f2a 31bd
00000240: 7075 51bc 9220 083d 3a92 1b3d 1c98 1abd
00000250: 5d1e cd3c 1851 303d 4e8b e03c 90ae d73c
00000260: d1e9 12bc 4145 39ba 83d2 0cbd 5ae0 94bc
00000270: 7e66 083c 377e 10bd 7524 213d 7d75 583d
00000280: 2a04 1b3d ee6f 21bd ef5b 493d 2beb 543d
00000290: 0956 ad3a 37ec 10bc ea96 b63c a5be 0ebd
000002a0: 8423 48bd e184 303d fde1 833c 7ce3 1a3c
000002b0: 54ca 6e3c dc78 473c 2d6d 52bd f077 6bbc
000002c0: 79e6 49bd 12ee 42bd c012 22bc cb14 2e3d
000002d0: ea4a fdbc 0238 35bd 0d0f 2b3d cf64 3c3d
000002e0: 846c 5b3c b88f 6fbc db7f 5e3d 1ca4 303c
000002f0: 3e50 c4bc 0807 c23c 9828 69bd 0e9c 2b3d
00000300: 241e 473d 1d4b 5c3c eae0 cd3b b56b 8b3c
00000310: 135b 22bd 67bc 3fbd 9177 673d c53d 2abd
00000320: 3c01 83bc faf8 01bd 9351 c2bc e6c4 fe3a
00000330: f224 17bc 3eca 08bd 4269 7cba 9386 8abb
00000340: 0987 2bbd b77d d9bb b78f eebb 94fc 5bbd
00000350: 8b88 653b 24bd 62bd 4d78 213d e9af 80bc
00000360: 06b4 fdbc 58e5 bfbb eb5c 5ebb e2b6 683c
00000370: 485a 4abd 98f3 39bd 678e c8bb 4c2c 23bd
00000380: 2e14 5fbd 4124 fb3c 8170 103d 8e04 1bbd
00000390: d3e0 1dbc 121a a1bb 8b94 6e3d 615e d13c
000003a0: 9cfd 73bc 8388 1ebd e094 43bc 1395 4dbd
000003b0: 8840 e9bc 6e99 bc3c 4375 683d c21d edbc
000003c0: 7d17 6c3d f0d6 313b 2326 4d3d fc05 d2bc
000003d0: f645 653d c718 93bc e142 3f3b 39fd c2bb
000003e0: 82e3 5bbd 8697 133d a98e 4f3d 53f1 4b3d
000003f0: e2f3 99bc 64f5 bfbc bc96 ddbc d1ad 073d

features.6.bias f4 [64]
-0.051614385 0.009154154 -0.027907101 0.034588344 -0.031056123 0.050600685 -0.025776561 0.0104851
0.014576932 0.010938985 -0.043640547 -0.04340175 0.03747276 0.05668349 -0.018013753 -0.041499496
0.00029204876 -0.022460612 0.016177049 -0.0046572774 0.010007421 -0.01849373 -0.008149014 0.039360404
-0.024463953 -0.051269647 -0.042100225 -0.023133054 0.058479175 -0.016782572 0.03698998 0.04546768
0.03268632 -0.027713414 0.01534718 0.04478853 -0.027724802 0.022808332 0.0054992153 0.02051466
-0.029873922 -0.014556452 -0.004783456 0.055599064 -0.0026004356 0.02953973 0.0051680957 -0.05697382
-0.042010467 -0.029717477 0.0447741 0.0036659837 0.038676165 -0.04191466 -0.03225679 0.034742862
0.047170755 0.0071221595 -0.022420578 -0.05302106 -0.0047960165 0.033940177 -0.032357167 -0.008169931
00000000: 9b69 53bd 4efb 153c 6f9d e4bc 82ac 0d3d
00000010: 6969 febc aa42 4f3d 5e29 d3bc b2c9 2b3c
00000020: 16d4 6e3c 6e39 333c 6ec0 32bd 09c6 31bd
00000030: 097d 193d f22c 683d 9491 93bc 60fb 29bd
00000040: 1f1e 9939 51ff b7bc bb85 843c 139c 98bb
00000050: 2af6 233c 2a80 97bc 7183 05bc 6038 213d
00000060: a168 c8bc 1f00 52bd 4971 2cbd 8881 bdbc
00000070: dc87 6f3d 9b7b 89bc ce82 173d 513c 3a3d
00000080: 17e2 053d 3e07 e3bc bd72 7b3c 2d74 373d
00000090: 201f e3bc 8ad8 ba3c c332 b43b 5c0e a83c
000000a0: 28ba f4bc 2f7e 6ebc 8abe 9cbb d8bb 633d
000000b0: 126c 2abb 4efd f13c 2159 a93b 615d 69bd
000000c0: 2b13 2cbd 1172 f3bc 0c65 373d 0041 703b
000000d0: e66a 1e3d b5ae 2bbd b21f 04bd 884e 0e3d
000000e0: 1f36 413d 0161 e93b 5cab b7bc 9c2c 59bd
000000f0: e727 9dbb db04 0b3d f388 04bd 2ddb 05bc

features.8.weight f4 [64, 64, 3, 3]
-0.040158726 -0.022793397 0.019157644 -0.025796909 -0.030434951 0.019755296 -0.025072806 0.005117895
0.036382437 -0.005964053 -0.01316496 0.013648691 -0.040738046 0.020618092 0.028543165 0.02263687
-0.023230493 0.026002118 0.02069145 0.03861096 0.027232442 0.0038967868 0.04054211 -0.0031015
0.03739382 -0.028952412 0.032243047 0.041266337 -0.012467229 0.025208972 -0.030609109 -0.00903718
-0.022351755 -0.011541708 -0.01696914 0.03601781 -0.016829753 0.018576562 0.011934279 0.037561137
-0.011681274 0.016333178 -0.008891112 -0.04097983 -0.035026357 -0.0008979147 0.021755416 -0.03849927
-0.027183449 0.033334136 -0.02711532 -0.027740257 0.01641721 -0.015666557 0.036686532 -0.009699396
-0.03188115 0.008071304 0.037967287 0.011271804 0.0054272623 -0.018776517 -0.009515734 -0.016957903
0.012049689 -0.021720214 0.017595276 -0.023556348 -0.0011045439 0.041511904 0.036354374 0.021085331
0.0069603776 -0.03785688 0.005881356 0.026018139 -0.021514177 0.024568725 -0.013849089 -0.038311534
0.0041471072 -0.005764864 -0.025741052 -0.020361252 0.009246331 -0.031614877 0.031972464 -0.018136252
-0.0015677701 -0.0071141818 0.024065804 0.025601177 0.004215562 -0.01570711 0.008098738 -0.01767559
0.036553536 0.010788148 0.00557735 0.00020439038 -0.0218547 0.0037124688 0.012994239 -0.02622444
0.010425216 0.016208991 -0.025270887 0.023592802 -0.003801381 0.02532221 0.036259647 0.0018569663
0.035885736 0.01365892 0.0055719917 -0.0104196 0.009158769 0.03729302 0.03555504 -0.028275464
0.029182464 0.0034279637 -0.04119247 0.03089696 -0.012872966 -0.036728077 0.0069745476 -0.01906076
-0.021785796 -0.030936917 -0.006864669 0.011381703 -0.011591522 -0.0060147517 -0.026560081 -0.039260905
0.032168694 0.040102534 0.01579204 0.0005593153 0.021337366 -0.0027759625 0.011949874 -0.030254642
0.017183222 0.024893064 0.009717148 -0.03862252 -0.0074142413 0.010353587 -0.01768502 0.0056478037
-0.0193951 0.0081969295 0.009125091 0.0028966526 0.010935456 0.031596087 -0.035769742 0.022531006
0.0117912525 0.022504954 -0.0044937218 0.036403425 0.012019431 -0.008777189 -0.0009865498 0.004938664
-0.033784073 0.009931435 0.020520506 0.021379817 0.035563964 -0.033066433 -0.022290511 0.007579957
-0.029715296 0.015065425 0.023753162 0.024651427 -0.03983357 0.0034631367 0.039812736 0.014599771
-0.03238655 -0.039041057 0.004460254 -0.014079829 -0.034599356 -0.025547506 0.010251717 0.03330029
0.035725527 -0.0006570314 -0.02553632 -0.011760887 -0.0094801355 0.0060620955 -0.03703829 0.010739666
-0.031161292 -0.025719907 -0.021227144 -0.0073044705 -0.03268493 0.0041845525 -5.3605105e-05 -0.015284077
0.02344688 -0.037512243 0.021199584 -0.028359536 -0.020779917 -0.030397065 0.027929239 0.026612606
0.00039911852 -0.03221822 0.029372497 -0.025977055 0.02403347 0.006610525 0.031270243 0.0026539455
0.028219461 -0.014778646 -0.016456848 0.024949137 -0.029451795 -0.009895324 -0.02432396 0.012582536
-0.040714107 -0.04127292 0.041565754 -0.008357864 -0.012670873 -0.007333841 -0.039522476 -0.018941393
-0.041041132 0.02882308 0.040569123 0.0256687 -0.03509928 0.036157068 -0.03553019 0.012781895
0.034375906 0.014356914 0.013476588 0.008318312 0.030798571 -0.031764884 0.017271996 -0.002531331
00000000: 7a7d 24bd 38b9 babc 7ef0 9c3c 0a54 d3bc
00000010: b852 f9bc dcd5 a13c 7c65 cdbc 04b4 a73b
00000020: c005 153d 1a6e c3bb d8b1 57bc c29e 5f3c
00000030: f0dc 26bd 46e7 a83c 5bd3 e93c f570 b93c
00000040: e04d bebc 6502 d53c 1e81 a93c 8726 1e3d
00000050: 9216 df3c 3c61 7f3b 7c0f 263d 8942 4bbb
00000060: 432a 193d 9c2d edbc 4911 043d e406 293d
00000070: 5943 4cbc 0c83 ce3c f4bf fabc ae10 14bc
00000080: 071b b7bc 6f19 3dbc de02 8bbc 6987 133d
00000090: 8dde 89bc e02d 983c ff87 433c b5d9 193d
000000a0: d062 3fbc 28cd 853c 07ac 11bc 77da 27bd
000000b0: cc77 0fbd 0962 6bba 6a38 b23c 69b1 1dbd
000000c0: d3af debc 6089 083d f320 debc 893f e3bc
000000d0: 637d 863c 2757 80bc 9e44 163d 37ea 1ebc
000000e0: cf95 02bd 813d 043c 9683 1b3d 5fad 383c
000000f0: 2dd7 b13b 36d1 99bc e2e7 1bbc 4deb 8abc
00000100: 0f6c 453c 97ee b1bc f823 903c 3ef9 c0bc
00000110: 58c6 90ba 6308 2a3d 53e8 143d 25bb ac3c
00000120: e113 e43b d10f 1bbd 64b8 c03b fe23 d53c
00000130: 803e b0bc 5a44 c93c 4ae7 62bc 8eec 1cbd
00000140: 75e4 873b 2fe7 bcbb e6de d2bc a4cc a6bc
00000150: ec7d 173c 9a7e 01bd 8ff5 023d 7a92 94bc
00000160: a37d cdba 151e e9bb a625 c53c 8fb9 d13c
00000170: b222 8a3b 32ac 80bc 92b0 043c 66cc 90bc
00000180: 29b9 153d c6c0 303c 34c2 b63b a051 5639
00000190: a108 b3bc e44c 733b cae5 543c a3d4 d6bc
000001a0: 86ce 2a3c b8c8 843c e404 cfbc b145 c13c
000001b0: 9720 79bb 8670 cf3c ff84 143d 7365 f33a
000001c0: ecfc 123d aac9 5f3c 4195 b63b f8b6 2abc
000001d0: a90e 163c 91c0 183d 29a2 113d f2a1 e7bc
000001e0: 1010 ef3c b0a7 603b 6fb9 28bd 9f1b fd3c
000001f0: 22e9 52bc 2e70 16bd bf8a e43b 5025 9cbc
00000200: 2078 b2bc 6b6f fdbc 04f1 e0bb 537a 3a3c
00000210: 5eea 3dbc 6517 c5bb 8794 d9bc 0bd0 20bd
00000220: 52c3 033d 8e42 243d 4f5e 813c 049f 123a
00000230: b3cb ae3c ecec 35bb 68c9 433c 95d8 f7bc
00000240: d4c3 8c3c 8aec cb3c ac34 1f3c a632 1ebd
00000250: 2af3 f2bb 17a2 293c 2de0 90bc 3611 b93b
00000260: 79e2 9ebc 6a4c 063c 6881 153c c4d5 3d3b
00000270: a02a 333c e66a 013d 4b83 12bd f292 b83c
00000280: 1930 413c 4f5c b83c 1240 93bb c21b 153d
00000290: 26ed 443c 33ce 0fbc 1e4f 81ba 84d4 a13b
000002a0: 2b61 0abd 75b7 223c 9f1a a83c ba24 af3c
000002b0: 85ab 113d ab70 07bd 979a b6bc 4a61 f83b
000002c0: 7e6d f3bc f9d4 763c fe95 c23c caf1 c93c
000002d0: 8728 23bd cbf5 623b ae12 233d e133 6f3c
000002e0: c2a7 04bd 84e9 1fbd 5327 923b 15af 66bc
000002f0: 0eb8 0dbd 0149 d1bc d1f6 273c e365 083d
00000300: ee54 123d a23c 2cba 8b31 d1bc bcb0 40bc
00000310: 9252 1bbc 8ba4 c63b 76b5 17bd 6df5 2f3c
00000320: f745 ffbc 8eb2 d2bc 8ce4 adbc 575a efbb
00000330: a2e0 05bd 921e 893b 0bd6 60b8 116a 7abc
00000340: ac13 c03c 70a6 19bd c0aa ad3c 4252 e8bc
00000350: a53a aabc 4403 f9bc dccb e43c ae02 da3c
00000360: c840 d139 41f7 03bd 979e f03c d5cd d4bc
00000370: d7e1 c43c 1a9d d83b 3a15 003d d1ed 2d3b
00000380: 802c e73c 2222 72bc 83d0 86bc 2262 cc3c
00000390: e444 f1bc ff1f 22bc 0b43 c7bc fb26 4e3c
000003a0: d6c3 26bd cb0d 29bd da40 2a3d 6cef 08bc
000003b0: 7e99 4fbc b850 f0bb 52e2 21bd fb2a 9bbc
000003c0: bf1a 28bd 611e ec3c cf2b 263d 2a47 d23c
000003d0: 43c4 0fbd 6f19 143d 1b88 11bd 276b 513c
000003e0: c0cd 0c3d 4339 6b3c e8cc 5c3c 8749 083c
000003f0: 494d fc3c e51b 02bd 007e 8d3c b0e4 25bb

features.8.bias f4 [64]
0.037240658 -0.009534057 0.016518831 -0.03828433 0.030666566 0.012539828 0.02520809 0.027115947
0.021568445 0.02733198 -0.01676713 0.039638616 -0.038072634 -0.0029208346 -0.004802719 0.033557184
0.01999332 0.010909267 0.019507958 0.026329538 0.009396645 0.028414039 -0.012494287 0.034680553
-0.035175573 -0.017937446 0.006461961 -0.041330654 -0.035639577 -0.00068367517 0.039726447 0.007853747
0.019884367 0.03326622 0.01709258 0.006859651 0.027242783 0.039686706 0.0052075507 0.034548495
0.033148333 -0.0020487453 -0.028521653 -0.019954069 -0.028379267 0.034375254 -0.012789219 -0.01284381
0.016074574 -0.008636213 -0.03311654 -0.017149124 -0.03731016 -0.0073941206 -0.019668885 -0.01866446
0.011807035 0.039418984 0.011139378 -0.03415446 0.0019866673 0.027697865 0.0227018 0.0050774566
00000000: a989 183d bc34 1cbc 8052 873c 08d0 1cbd
00000010: 7338 fb3c da73 4d3c 3281 ce3c 4322 de3c
00000020: 4fb0 b03c 51e7 df3c 385b 89bc 1a5c 223d
00000030: 0df2 1bbd 796b 3fbb 2160 9dbb 4273 093d
00000040: 08c9 a33c c8bc 323c 27cf 9f3c 0bb1 d73c
00000050: 63f4 193c 8fc4 e83c d7b4 4cbc 320d 0e3d
00000060: 4314 10bd 8df1 92bc dcbe d33b 554a 29bd
00000070: cefa 11bd aa38 33ba 33b8 223d 01ad 003c
00000080: 8ae4 a23c 2942 083d bd05 8c3c ecc6 e03b
00000090: 422c df3c 878e 223d 1aa4 aa3b b982 0d3d
000000a0: 8cc6 073d 3e44 06bb 3ea6 e9bc b776 a3bc
000000b0: a37b e8bc 11cd 0c3d df89 51bc d86e 52bc
000000c0: d3ae 833c e77e 0dbc 36a5 07bd 527c 8cbc
000000d0: 8ad2 18bd 614a f2bb a420 a1bc 36e6 98bc
000000e0: 4b72 413c cd75 213d f081 363c 8ce5 0bbd
000000f0: bf32 023b a2e6 e23c 20f9 b93c cb60 a63b

features.12.weight f4 [64, 64, 1, 1]
-0.12332991 0.118139476 0.07595832 0.014960476 -0.08267705 0.12318947 -0.022403952 0.114787266
-0.06426718 0.044539418 0.11704305 0.0921344 -0.026631104 0.020595329 0.06071225 0.023981635
0.12249773 -0.042808276 0.07204623 -0.008602258 -0.042030424 -0.04668269 0.0675389 -0.07657965
0.027232679 0.04849095 -0.060610298 0.045179505 -0.0991244 0.009163306 0.010949762 -0.10464112
-0.044259157 0.097171366 -0.07257837 -0.0018991353 0.048666894 -0.0020674984 0.061639752 -0.041502386
-0.07020015 -0.04163894 0.12156538 0.10148002 -0.10231721 0.053951874 -0.119940884 -0.032510947
0.054156337 0.05066378 0.010996193 0.0792016 -0.024478555 -0.007081555 0.0038635214 0.124481976
0.034413755 -0.0068966798 0.055170696 0.11701138 -0.011300615 0.090177886 -0.025719503 -0.019510075
0.1161305 -0.03386485 0.0041977814 -0.052709423 -0.09123338 0.11184025 0.03471006 -0.10603615
0.035401437 -0.009452479 -0.029197128 0.025431424 -0.039983924 -0.0840875 -0.11190177 0.0038907598
-0.03174209 0.028577965 0.039259963 0.12021305 -0.11405645 0.013022855 0.12105309 0.082054414
0.06898975 0.08632224 -0.091376916 -0.058398936 0.050260678 -0.06815254 0.044417035 0.004345521
-0.035807192 -0.09585243 -0.027494995 0.10913654 -0.029077455 0.11388992 0.025476398 -0.10643761
0.051655866 0.10846371 0.03888747 -0.09664327 -0.12183077 -0.12169501 -0.10763249 -0.019838884
0.04048896 0.08961894 0.039156258 -0.077632785 0.08078502 0.08816641 0.09717581 0.07387808
0.06468372 0.087231286 0.012932232 0.066007175 -0.114474006 0.076877154 0.04565553 0.124304816
-0.124861844 0.10592555 -0.044116516 0.079709575 -0.06576396 0.058122665 0.10179074 -0.040543884
-0.11973207 0.11320778 0.05985566 0.050753117 -0.016627904 0.016002782 0.08707369 0.013475467
-0.028522668 -0.022771468 0.087627545 -0.020114124 -0.07973243 -0.075168476 0.0804625 -0.035718445
-0.05633114 0.010956826 0.092830114 -0.068619534 -0.083007336 -0.1126731 -0.08894751 -0.024501197
0.0006393783 0.11048921 -0.110759266 0.12075289 -0.043901876 -0.034837507 0.060393665 0.10479831
-0.04687566 0.106326275 0.09896048 -0.10975386 -0.02377151 0.052118983 0.097125456 -0.017121406
0.056161758 -0.0685783 0.015496016 0.063041516 0.10444558 0.011238211 0.108702004 0.021209935
-0.101298206 0.018933026 -0.11536273 0.03216396 -0.04999961 -0.08295665 -0.037155744 -0.09787713
0.05852113 -0.12390298 -0.019488212 0.013286613 0.10511245 0.071334474 -0.019101808 -0.02592743
-0.06194216 0.0927975 -0.046061166 -0.027832743 -0.059094466 0.006263023 0.03732244 -0.05555548
-0.047894422 -0.0752913 0.09231028 -0.025102567 0.021715615 -0.04020334 0.11355118 -0.04500416
-0.01927811 -0.06088313 -0.0961026 0.034198135 -0.08767888 -0.034713026 0.11591681 -0.03682159
0.09377744 0.101152994 0.055094223 -0.1161641 0.096260145 -0.12120794 -0.04403847 0.0032564118
-0.07405177 -0.03015022 0.05111027 -0.1137134 0.07803101 0.0801031 0.010288034 0.059854064
0.011681658 0.051816918 0.0394748 -0.080999814 0.05491142 -0.10797089 -0.041752614 -0.020954847
-0.0023607283 0.009858114 -0.0338426 0.07306193 0.045463037 0.06251357 0.08305519 0.06783757
00000000: 6494 fcbd 1cf3 f13d 0990 9b3d c91c 753c
00000010: 9652 a9bd c34a fc3d 7e88 b7bc 9615 eb3d
00000020: 839e 83bd f76e 363d 44b4 ef3d f6b0 bc3d
00000030: 7929 dabc 89b7 a83c 69ad 783d 2275 c43c
00000040: 17e0 fa3d bb57 2fbd f98c 933d 7cf0 0cbc
00000050: 1828 2cbd 5936 3fbd d651 8a3d cbd5 9cbd
00000060: 1117 df3c 729e 463d 8142 78bd 250e 393d
00000070: bc01 cbbd b121 163c a166 333c 154e d6bd
00000080: 1749 35bd c801 c73d f8a3 94bd 68ec f8ba
00000090: f056 473d de7e 07bb f779 7c3d 68fe 29bd
000000a0: 19c5 8fbd 988d 2abd 45f7 f83d c2d4 cf3d
000000b0: af8b d1bd a4fc 5c3d 91a3 f5bd 332a 05bd
000000c0: 09d3 5d3d d384 4f3d 6029 343c 7334 a23d
000000d0: 4087 c8bc 640c e8bb 2233 7d3b 68f0 fe3d
000000e0: 70f5 0c3d 8bfd e1bb abfa 613d aaa3 ef3d
000000f0: 3726 39bc 2faf b83d b5b1 d2bc 98d3 9fbc
00000100: d4d5 ed3d deb5 0abd 8b8d 893b d6e5 57bd
00000110: 91d8 babd 800c e53d 232c 0e3d 7b29 d9bd
00000120: 1901 113d 92de 1abc d12e efbc 9055 d03c
00000130: 2fc6 23bd 1136 acbd c12c e5bd 1efc 7e3b
00000140: fe03 02bd 561c ea3c 0ecf 203d 4232 f63d
00000150: 6e96 e9bd d05d 553c afea f73d 250c a83d
00000160: 804a 8d3d b7c9 b03d d223 bbbd b933 6fbd
00000170: 24de 4d3d 8f93 8bbd a3ee 353d df64 8e3b
00000180: 90aa 12bd 474e c4bd 2f3d e1bc fa82 df3d
00000190: d833 eebc 1e3f e93d e1b3 d03c f6fb d9bd
000001a0: 1a95 533d 3922 de3d 7848 1f3d e8ec c5bd
000001b0: 6982 f9bd 3c3b f9bd 6c6e dcbd 2885 a2bc
000001c0: c0d7 253d 238a b73d 5062 203d f0fd 9ebd
000001d0: 9e72 a53d 9790 b43d 1c04 c73d 644d 973d
000001e0: e678 843d 51a6 b23d b6e1 533c c52e 873d
000001f0: 5971 eabd c571 9d3d 4b01 3b3d 8693 fe3d
00000200: 91b7 ffbd 7fef d83d 85b3 34bd c63e a33d
00000210: 41af 86bd 0812 6e3d aa77 d03d 5811 26bd
00000220: 1636 f5bd 7bd9 e73d 352b 753d 80e2 4f3d
00000230: 3e37 88bc 4418 833c b153 b23d 35c8 5c3c
00000240: 5fa8 e9bc 3b8b babc 1276 b33d 60c6 a4bc
00000250: c24a a3bd eef1 99bd 86c9 a43d 814d 12bd
00000260: 7bbb 66bd 4284 333c b71d be3d 6688 8cbd
00000270: c0ff a9bd 27c1 e6bd 1d2a b6bd bcb6 c8bc
00000280: f49b 273a 2b48 e23d c1d5 e2bd 4b4d f73d
00000290: 74d2 33bd c6b1 0ebd 595f 773d 7fa0 d63d
000002a0: b100 40bd 97c1 d93d cbab ca3d a2c6 e0bd
000002b0: 78bc c2bc b77a 553d b6e9 c63d 3142 8cbc
000002c0: df09 663d c872 8cbd 00e3 7d3c e91b 813d
000002d0: 90e7 d53d 7920 383c 289f de3d 75c0 ad3c
000002e0: 6f75 cfbd 6f19 9b3c 4c43 ecbd 5bbe 033d
000002f0: 64cc 4cbd 2de5 a9bd 9f30 18bd ce73 c8bd
00000300: dab3 6f3d d8c0 fdbd bea5 9fbc 18b0 593c
00000310: 3245 d73d cf17 923d 657b 9cbc c365 d4bc
00000320: 10b7 7dbd 9e0c be3d a2aa 3cbd 7e01 e4bc
00000330: 0a0d 72bd 0b3a cd3b 6adf 183d 258e 63bd
00000340: f12c 44bd 5332 9abd 2c0d bd3d e6a3 cdbc
00000350: f2e4 b13c 42ac 24bd 858d e83d 4856 38bd
00000360: 20ed 9dbc 9760 79bd 71d1 c4bd 5813 0c3d
00000370: fc90 b3bd 3f2f 0ebd cb65 ed3d 3cd2 16bd
00000380: 630e c03d 4d29 cf3d 7baa 613d 72e7 edbd
00000390: 0a24 c53d de3b f8bd af61 34bd 8669 553b
000003a0: 74a8 97bd 98fd f6bc 0159 513d 92e2 e8bd
000003b0: b9ce 9f3d 180d a43d 248f 283c 8929 753d
000003c0: 6d64 3f3c fa3d 543d 54b0 213d 3be3 a5bd
000003d0: ccea 603d d81f ddbd ca04 2bbd 80a9 abbc
000003e0: 73b6 1abb ed83 213c 8a9e 0abd 7ea1 953d
000003f0: 7337 3a3d 1d07 803d d718 aa3d 6dee 8a3d

features.12.bias f4 [64]
-0.014275238 0.04453185 0.0689964 -0.0511014 0.10191057 -0.020032525 -0.0017142065 -0.025728285
0.07945999 -0.023392465 -0.11153066 0.043628696 -0.058927838 -0.123345375 -0.09028539 -0.007893133
0.095996715 -0.1026209 0.0032884881 0.0009614822 0.025342576 0.004536569 0.064792395 0.074068934
-0.049822144 -0.057591647 -0.058320016 -0.075437665 -0.007430181 0.11681911 -0.12270276 -0.12215072
-0.05161898 -0.044771977 0.0987472 0.1189369 0.108543925 0.108715676 0.1024794 -0.03847468
-0.088507965 0.116101906 0.033067852 -0.0705253 -0.099911064 -0.11616941 -0.043363694 0.060505208
0.028167982 -0.08427715 -0.09340176 0.06939817 0.015292135 0.015765212 -0.03451872 0.084648885
-0.108802706 0.051793363 0.021004414 -0.03520863 0.022845421 -0.09824118 -0.010819607 0.039600294
00000000: b0e2 69bc 0767 363d fc4d 8d3d b44f 51bd
00000010: 7db6 d03d 401b a4bc 3aaf e0ba 20c4 d2bc
00000020: ebbb a23d 8ea1 bfbc 306a e4bd 01b4 323d
00000030: 515e 71bd 809c fcbd 8ce7 b8bd 3352 01bc
00000040: ed99 c43d e82a d2bd ad83 573b fa0b 7c3a
00000050: 3c9b cf3c 80a7 943b e0b1 843d 74b1 973d
00000060: 4e12 4cbd 38e5 6bbd f8e0 6ebd 107f 9abd
00000070: e078 f3bb dc3e ef3d 964b fbbd 282a fabd
00000080: 6c6e 53bd d262 37bd f93b ca3d 3095 f33d
00000090: 474c de3d 53a6 de3d b8e0 d13d a097 1dbd
000000a0: aa43 b5bd d6c6 ed3d 2872 073d 926f 90bd
000000b0: 2c9e ccbd 3aea edbd 219e 31bd 4fd4 773d
000000c0: 8ac0 e63c 8099 acbd 6c49 bfbd a120 8e3d
000000d0: dd8b 7a3c 0c26 813c 8063 0dbd 655c ad3d
000000e0: f4d3 debd 4725 543d 7311 ac3c ed36 10bd
000000f0: 5226 bb3c ac32 c9bd b944 31bc eb33 223d

classifier.weight f4 [22, 64]
0.07720492 -0.08995481 -0.07676076 -0.026172549 0.03132247 0.015330284 -0.110708505 0.09701041
0.072423935 0.058245257 0.051127315 -0.108873814 -0.02561303 0.052812576 -0.031891048 0.1131871
0.124824 -0.03377199 0.06809585 0.05869985 0.119780615 -0.07410175 -0.0424402 -0.04448774
0.0839687 -0.10307942 -0.027922243 -0.0021057874 0.081037484 -0.06255459 0.1118401 -0.05087611
-0.11596663 -0.01701189 -0.105247326 0.082568936 -0.02355153 0.12315473 0.020729106 -0.03924346
0.007179931 0.07394167 -0.11077755 -0.0014829785 -0.101420745 0.06224884 0.073390245 -0.036061734
0.033376187 0.08758178 0.111625254 0.10771186 0.094614655 -0.019544356 -0.10410952 0.1032857
0.11103095 0.086882226 -0.055958748 0.021244792 0.0015887417 0.0762067 0.021741562 0.07407765
0.106289946 0.041407593 0.11702761 0.048983373 -0.09474079 0.014622309 0.026556674 -0.03320876
-0.034598134 -0.03166534 -0.01948969 -0.075628676 0.05446315 0.07234901 -0.09964925 -0.12253366
0.07337979 -0.05193664 -0.031048264 0.031252887 -0.006759434 0.087414294 0.041457906 0.0970037
-0.077957064 0.060619593 -0.090600654 -0.045626283 0.048186388 0.05355409 0.0026484877 -0.019952297
0.0631727 -0.024607133 0.08144246 0.07553467 -0.009118985 -0.056306884 -0.046830766 0.030598
0.118768334 -0.03513921 0.018449122 0.023798212 0.040169895 0.07549292 0.11094914 -0.023219712
-0.08049664 0.006721124 0.052128285 0.098298065 0.08045106 0.11212471 -0.07965207 -0.10339917
0.0069326907 -0.07864052 -0.0365506 0.04089822 0.026224647 -0.11112736 0.048408303 0.049382854
-0.12109674 -0.07758861 0.09425195 -0.12194611 -0.06409018 -0.111138836 -0.117877826 -0.02105955
0.124464676 -0.096565515 0.010608166 0.06616944 0.017307246 0.10983311 -0.03661962 0.0019242663
0.09440514 0.10927881 0.09499506 0.10405119 0.020543821 -0.10010482 -0.06712856 -0.071968175
-0.06467864 -0.116908 -0.08721669 -0.08681178 -0.064790845 0.039240252 -0.012784034 0.045295924
-0.05354789 0.00010508787 0.109085605 0.07954488 0.055020902 -0.005344377 -0.09501786 -0.0620939
-0.04824674 0.091936 0.06182035 -0.0986187 -0.06220551 0.07671817 -0.06268776 0.006763505
0.09028655 -0.0061948597 0.123863295 0.04510399 0.05408889 -0.0027644807 0.11061152 0.032019306
0.09505913 -0.0068636094 -0.049374573 0.09429798 0.054482013 -0.093136474 -0.040365133 0.09260207
0.015852304 -0.06525151 -0.11825331 -0.10567401 0.07805638 0.020309197 -0.07337473 -0.032356318
-0.08998549 0.0958506 0.05120167 -0.12107013 0.0331616 0.0612825 0.1010555 -0.061512172
-0.07221261 -0.117819816 -0.0803243 0.08421976 -0.0043395343 0.003769043 -0.11450496 -0.033151902
-0.089951396 0.06568889 -0.10086307 -0.11027156 -0.067199394 0.043441985 0.05255997 -0.013713762
0.08611061 -0.04344728 -0.10147395 0.037511155 -0.09314366 0.04511818 -0.057099205 0.023042545
0.038839594 -0.046778124 0.049039666 0.01917325 -0.04803373 -0.06621261 0.08777798 -0.006585865
0.03808153 -0.012853861 -0.03163153 0.02938145 -0.0058584753 0.03441606 -0.068454996 -0.11200091
0.026151344 -8.867104e-05 -0.12097119 -0.013384939 0.03180529 0.0021631122 0.023950484 -0.06346781
00000000: 9d1d 9e3d 3a3a b8bd bf34 9dbd d067 d6bc
00000010: fe4b 003d df2b 7b3c 24bb e2bd 65ad c63d
00000020: 0053 943d 9492 6e3d e06a 513d 3cf9 debd
00000030: 6bd2 d1bc 0052 583d 30a0 02bd a3ce e73d
00000040: baa3 ff3d 8054 0abd d675 8b3d 416f 703d
00000050: 8a4f f53d a9c2 97bd c6d5 2dbd c738 36bd
00000060: c8f7 ab3d 4e1b d3bd 30bd e4bc 4001 0abb
00000070: fbf6 a53d 9f1c 80bd 6c0c e53d 7863 50bd
00000080: ea7f edbd 855c 8bbc e98b d7bd e719 a93d
00000090: 23ef c0bc 8c38 fc3d 16d0 a93c c0bd 20bd
000000a0: a045 eb3b bb6e 973d 57df e2bd 8060 c2ba
000000b0: aeb5 cfbd a4f8 7e3d a04d 963d 78b5 13bd
000000c0: 78b5 083d 145e b33d c89b e43d 0998 dc3d
000000d0: 54c5 c13d 7c1b a0bc 5f37 d5bd 7487 d33d
000000e0: 3264 e33d 4fef b13d 0035 65bd 8f09 ae3c
000000f0: 533d d03a 4212 9c3d 5c1b b23c 06b6 973d
00000100: 8bae d93d 029b 293d 2cac ef3d caa2 483d
00000110: 7607 c2bd 6992 6f3c 628d d93c e905 08bd
00000120: c6b6 0dbd 84b3 01bd d8a8 9fbc 35e3 9abd
00000130: c114 5f3d b82b 943d e814 ccbd edf2 fabd
00000140: 2548 963d 84bb 54bd ee58 febc 0703 003d
00000150: 3e7e ddbb 4406 b33d c4cf 293d e0a9 c63d
00000160: f4a7 9fbd 404c 783d d68c b9bd a0e2 3abd
00000170: 175f 453d 895b 5b3d 4092 2d3b 0073 a3bc
00000180: b060 813d e694 c9bc 4ecb a63d ecb1 9a3d
00000190: cc67 15bc 0ca2 66bd 9ed1 3fbd a8a8 fa3c
000001a0: d03c f33d 22ee 0fbd 9d22 973c 78f4 c23c
000001b0: 3089 243d 089c 9a3d 4d39 e33d 4437 bebc
000001c0: 6cdb a4bd e03c dc3b 7884 553d 7f50 c93d
000001d0: 86c3 a43d a4a1 e53d a020 a3bd f2c2 d3bd
000001e0: a02b e33b 480e a1bd 15b6 15bd e484 273d
000001f0: 12d5 d63c be96 e3bd c947 463d ad45 4a3d
00000200: 9101 f8bd c7e6 9ebd 2b07 c13d e2be f9bd
00000210: b641 83bd c29c e3bd ee69 f1bd 1485 acbc
00000220: 56e7 fe3d 24c4 c5bd e0cd 2d3c d883 873d
00000230: edc7 8d3c 2ef0 e03d 74fe 15bd aa37 fc3a
00000240: 7b57 c13d 92cd df3d c58c c23d ca18 d53d
00000250: 844b a83c c203 cdbd b37a 89bd 0d64 93bd
00000260: 3c76 84bd 766d efbd aa9e b2bd 60ca b1bd
00000270: 10b1 84bd 63ba 203d 2074 51bc 3888 393d
00000280: 0855 5bbd 9f62 dc38 4668 df3d 6de8 a23d
00000290: 995d 613d e21f afbb b998 c2bd 2c56 7ebd
000002a0: 609e 45bd f148 bc3d 5637 7d3d 9af8 c9bd
000002b0: 34cb 7ebd 6a1e 9d3d 7162 80bd 64a0 dd3b
000002c0: 28e8 b83d 40fe cabb 0aac fd3d f6be 383d
000002d0: 508c 5d3d 4a2c 35bb 4b88 e23d ad26 033d
000002e0: 5cae c23d 21e8 e0bb fe3c 4abd 4d1f c13d
000002f0: 8828 5f3d 56be bebd e955 25bd 27a6 bd3d
00000300: b1dc 813c 95a2 85bd cb2e f2bd 9e6b d8bd
00000310: 06dc 9f3d 795f a63c 7e45 96bd 0f88 04bd
00000320: 504a b8bd 524d c43d d8b8 513d 9ef3 f7bd
00000330: 75d4 073d 5c03 7b3d 30f6 ce3d 30f4 7bbd
00000340: 34e4 93bd 844b f1bd 1181 a4bd 697b ac3d
00000350: a732 8ebb 0c02 773b 9481 eabd 4aca 07bd
00000360: 7038 b8bd e687 863d 4c91 cebd 0ed6 e1bd
00000370: d69f 89bd 39f0 313d 2049 573d b0af 60bc
00000380: c25a b03d c6f5 31bd 93d1 cfbd 4ca5 193d
00000390: 1ac2 bebd d7cd 383d dbe0 69bd b8c3 bc3c
000003a0: 4416 1f3d 6b9a 3fbd d1dd 483d 3811 9d3c
000003b0: 04bf 44bd 7a9a 87bd f1c4 b33d 3dce d7bb
000003c0: 61fb 1b3d 0099 52bc 1090 01bd 5eb1 f03c
000003d0: 74f8 bfbb dbf7 0c3d 2232 8cbd bc60 e5bd
000003e0: 583b d63c e7f4 b9b8 bebf f7bd 814c 5bbc
000003f0: 4446 023d 00c3 0d3b ce33 c43c 69fb 81bd

classifier.bias f4 [22]
-0.036760915 0.03627179 -0.058010265 0.11152318 -0.09520752 0.058259357 -0.08407421 0.05490539
-0.03631576 -9.293757e-05 0.121276945 -0.113371804 0.04914053 -0.07543457 0.044134047 -0.0105307745
-0.02110189 0.045693617 0.118240684 0.027722724 0.0374275 0.10532768
00000000: 9d92 16bd ba91 143d 2c9c 6dbd 4466 e43d
00000010: 29fc c2bd 5da1 6e3d 192f acbd 79e4 603d
00000020: d6bf 14bd 7ae7 c2b8 0c60 f83d 7a2f e8bd
00000030: 9547 493d 717d 9abd e7c5 343d 4589 2cbc
00000040: dfdd acbc 3b29 3b3d 2c28 f23d c41a e33c
00000050: 944d 193d 0ab6 d73d
