Models/thesis_Naive_CL_1_0.pth (torch, 289330 bytes, 13 tensors)

active_units i1 [22]
0	0x00	0
1	0x00	0
2	0x00	0
3	0x00	0
4	0x00	0
5	0x00	0
6	0x00	0
7	0x00	0
8	0x00	0
9	0x00	0
10	0x00	0
11	0x00	0
12	0x00	0
13	0x00	0
14	0x00	0
15	0x00	0
16	0x00	0
17	0x00	0
18	0x00	0
19	0x00	0
20	0x00	0
21	0x00	0

features.0.weight f4 [32, 3, 3, 3]
0	0xbd53fccb	-0.051754754
1	0xbd6fa2ea	-0.058504976
2	0xbd2755f6	-0.040853463
3	0xbd364641	-0.044500593
4	0xbd32e093	-0.043671202
5	0xbd2e7de1	-0.042600516
6	0xbd414d0f	-0.04719263
7	0xbd37aa39	-0.04484007
8	0xbd3dfdc6	-0.046384595
9	0xbd3ea5b0	-0.04654473
10	0xbd283e6c	-0.041075155
11	0xbd1746eb	-0.036932867
12	0xbd46ffcd	-0.048583794
13	0xbd295b6b	-0.04134695
14	0xbd2fdd52	-0.042935677
15	0xbd4a0fb0	-0.049331367
16	0xbd433a40	-0.047662973
17	0xbd1694f4	-0.036763147
18	0xbd1e85f5	-0.03870197
19	0xbd1667a4	-0.036719933
20	0xbd1d1605	-0.038351078
21	0xbcf6dc1c	-0.030134253
22	0xbcff23b6	-0.031144958
23	0xbd0e9e97	-0.03481921
24	0xbd1e6c9c	-0.038677797
25	0xbd3055dd	-0.043050636
26	0xbd0d83d6	-0.034549557
27	0x3d3be0c0	0.045868635
28	0xbd85cd51	-0.065333016
29	0x3d87bcee	0.06627832
30	0xbdb1dfa2	-0.08685233
31	0x3daa9042	0.08328296
32	0x3ce7202e	0.028213587
33	0xbd07f48e	-0.03319221
34	0xbc56f56e	-0.013120038
35	0xbe319055	-0.17340215
36	0x3d178e36	0.037000857
37	0xbd8de002	-0.06927492
38	0xbdfec5ed	-0.12440095
39	0xbe3bc82e	-0.18338081
40	0xbdce6faa	-0.10079892
41	0xbb113606	-0.0022157445
42	0xbe4e8806	-0.20169076
43	0xbd20be56	-0.03924402
44	0xbd91ca18	-0.071186244
45	0x3d9942d3	0.07483449
46	0xbc769bc8	-0.01505179
47	0xbbaaf54b	-0.0052172295
48	0xbdd03ec8	-0.101682246
49	0x3dac4ec0	0.08413458
50	0xbd99a7ad	-0.07502685
51	0xbdf7e996	-0.121051
52	0xbde8fc9b	-0.11376306
53	0x3d4e9985	0.050439376
54	0x39d36119	0.000403174
55	0x39ee2996	0.0004542588
56	0xb9ebd8d4	-0.00044984242
57	0x3a25f1e1	0.0006330293
58	0xb922ca22	-0.00015524824
59	0x3a156f38	0.0005700472
60	0x3a4698d2	0.00075758726
61	0x39fd434e	0.00048306066
62	0x3aad5fc4	0.0013227393
63	0xb7054280	-7.942901e-06
64	0xba40ab8b	-0.00073497806
65	0xbb0dac7a	-0.0021617697
66	0xba43c5b8	-0.0007468122
67	0x3900f940	0.00012299884
68	0xba3c4114	-0.0007181328
69	0xb88281c0	-6.223051e-05
70	0xb92f5910	-0.00016722479
71	0xba8cc9a9	-0.0010741252
72	0xbb7fdef6	-0.0039042807
73	0xbb90f73f	-0.0044240053
74	0xbbee2a47	-0.0072682234
75	0xbb9614b1	-0.0045801033
76	0xbc1d91c2	-0.009617271
77	0xbbf0e328	-0.007351298
78	0xbbb7876b	-0.00560086
79	0xbbaf771f	-0.0053547765
80	0xbbe69a4e	-0.0070374375
81	0x3d004edd	0.03132521
82	0xbca0c6bc	-0.019626014
83	0xbcc1db80	-0.023664236
84	0x3d0b230f	0.03396898
85	0xbd600e89	-0.05470136
86	0xbd11868d	-0.03552871
87	0xbd9c7e38	-0.07641262
88	0xbd92c8d0	-0.07167208
89	0xbd6946ab	-0.05695216
90	0xbd5cd655	-0.05391534
91	0x3d32c6df	0.04364669
92	0x3cec117e	0.028816935
93	0x3d8955b7	0.06705802
94	0xbcfddd46	-0.0309893
95	0xbcab2156	-0.02088992
96	0xbd7ac7d8	-0.061225742
97	0x3a16c2b4	0.0005751059
98	0xbce9aa4e	-0.02852359
99	0xbcce36f5	-0.02517269
100	0xbe059269	-0.13044132
101	0x3cfcfe54	0.030882992
102	0xbdf48d0c	-0.11940965
103	0xbcfff8b2	-0.031246517
104	0xbd95e249	-0.07318551
105	0xbc2e2d6e	-0.0106309485
106	0x3c66538f	0.014058008
107	0xbbcbff4e	-0.006225503
108	0xbbd21b5d	-0.0064119534
109	0xbbf3c056	-0.0074386997
110	0xbbe35ed7	-0.006938796
111	0xbbf2f388	-0.007414285
112	0xbbcc94fb	-0.006243346
113	0xbbf3509c	-0.007425381
114	0xbba3f1c1	-0.0050031845
115	0xbbb74c63	-0.005593823
116	0xbbd8165c	-0.0065944623
117	0x3b50328a	0.0031768405
118	0x3aa878c2	0.0012853371
119	0x3a147283	0.00056628155
120	0x3a3336ba	0.0006836463
121	0x3b014305	0.0019723785
122	0x3ab48272	0.0013771786
123	0x3b48bad2	0.0030628932
124	0x3a08e07c	0.0005221439
125	0x38cf9bb6	9.8995326e-05
126	0xbc922fbb	-0.017845025
127	0xbc8b7e3a	-0.017027963
128	0xbc1b3c4a	-0.009474823
129	0xbcbb92fa	-0.022897232
130	0xbc652d7e	-0.013987897
131	0xbcbce7ff	-0.023059843
132	0xbc9b8690	-0.018985063
133	0xbc9af3ec	-0.01891514
134	0xbc18ff29	-0.009338179
135	0xbd21eee3	-0.03953446
136	0x3d26e852	0.0407489
137	0xbd4d13da	-0.05006776
138	0xbd4d714a	-0.05015687
139	0xbe37269a	-0.17885819
140	0xbe119a51	-0.14219023
141	0xbe159d38	-0.14610755
142	0x3da40518	0.08008784
143	0x3db65374	0.08902636
144	0x3c9bdc0d	0.019025827
145	0x3db25456	0.08707492
146	0xbe0ce1fd	-0.13758083
147	0x3dbc72ac	0.092015594
148	0xbe084ef0	-0.13311362
149	0x3d6198bf	0.05507731
150	0x3da7fb86	0.08202271
151	0xbe380c83	-0.17973523
152	0xbda2e841	-0.07954455
153	0x3c5466ca	0.01296396
154	0xbc15cfd4	-0.009143788
155	0x3d86a435	0.06574289
156	0xbe220818	-0.158234
157	0xbd3e681c	-0.046486005
158	0xbe358c92	-0.17729405
159	0xbc037758	-0.008024059
160	0xbdc717ae	-0.097213134
161	0xbd39c1d2	-0.045350857
162	0x3c0ac891	0.00847067
163	0x3b5e5888	0.003392728
164	0x3bd570af	0.006513677
165	0x3bf14574	0.007363016
166	0x3c25a877	0.010110966
167	0x3bcbce8b	0.00621969
168	0x3c243061	0.0100213
169	0x3c20bfb8	0.009811334
170	0x3c086f14	0.008327264
171	0x3bb94407	0.0056538614
172	0x3c023e1d	0.007949379
173	0x3b9d7466	0.0048051355
174	0x3bbc0fcb	0.0057391874
175	0x3bd184af	0.006393991
176	0x3bc3e66b	0.0059783957
177	0x3c10c62d	0.008836311
178	0x3af1c2bc	0.0018444876
179	0x3c00ce24	0.007861648
180	0x3be997a4	0.0071286727
181	0x3b7cc1c3	0.003856764
182	0x3bbe0750	0.0057992116
183	0x3bfe91b4	0.007768834
184	0x3be3c265	0.006950664
185	0x3b474173	0.0030404
186	0x3bdca394	0.006733367
187	0x3be492ae	0.0069754934
188	0x3b87e5a3	0.004147248
189	0x3b2c0672	0.002624896
190	0x3baacce0	0.0052124113
191	0x3b882703	0.004155041
192	0x3bb089ad	0.005387506
193	0x3b29dab0	0.0025917701
194	0x3b3b4ed5	0.0028580923
195	0x3bbda9df	0.0057880725
196	0x3b40c2c2	0.002941296
197	0x3b7d8c18	0.0038688239
198	0xbaa8e895	-0.0012886698
199	0x3a1a052d	0.0005875405
200	0x39cc80e6	0.0003900595
201	0x3aa464dd	0.0012542267
202	0x3ac49e4d	0.0015000791
203	0x3b827218	0.003980886
204	0xba16d27c	-0.00057534105
205	0xb9bbe381	-0.00035836923
206	0x3a91c03b	0.0011119911
207	0xbb661018	-0.0035104807
208	0xbb843368	-0.0040344484
209	0xbb81c601	-0.0039603715
210	0xbb814102	-0.003944517
211	0xbb87b6d9	-0.00414167
212	0xbb89b1ca	-0.0042021023
213	0xbb4e6f96	-0.0031499616
214	0xbb852834	-0.0040636305
215	0xbb8969b9	-0.0041935113
216	0x3c86037e	0.016359087
217	0xbc9f876f	-0.01947376
218	0x3b9577a8	0.0045613833
219	0xbe436020	-0.19079638
220	0x3da62a41	0.08113528
221	0xbdd35f82	-0.10320951
222	0x3d17cb04	0.037058845
223	0xbe248bf6	-0.16069016
224	0xbd74af83	-0.059737694
225	0x3ce3fc65	0.027830312
226	0xbe50d14d	-0.20392342
227	0xbdb3b8b0	-0.08775461
228	0x3d8ba55e	0.06818651
229	0x3da7e9b1	0.0819887
230	0xbe5634d5	-0.20918591
231	0xbcc4e5ed	-0.024035418
232	0x3c8c5580	0.017130613
233	0xbbd61d3f	-0.006534248
234	0x3c9436ea	0.018092591
235	0x3e0ac524	0.13551766
236	0x3dd87ab5	0.105702795
237	0xbcc72369	-0.024308877
238	0xbe2c13f7	-0.16804491
239	0xbd41fee2	-0.047362216
240	0xbd1cb0fb	-0.03825472
241	0x3d12d1a7	0.03584447
242	0xbd065eaf	-0.03280514
243	0xbc89ea60	-0.016835392
244	0x3d91c93f	0.07118463
245	0xbd8ee584	-0.069773704
246	0xbc386133	-0.011253643
247	0xbcb312ab	-0.021859488
248	0xbd17803a	-0.03698752
249	0x3cf5bbe5	0.029996822
250	0xbdc30118	-0.09521693
251	0xbc814cdd	-0.015783722
252	0x3c9c0ba9	0.019048529
253	0xbc5f338d	-0.0136231305
254	0xbc9c5643	-0.019084102
255	0x3d227255	0.039659817

features.0.bias f4 [32]
0	0xbd99814e	-0.07495366
1	0xbd8f7481	-0.07004643
2	0xbc7a4f1c	-0.01527765
3	0xbd15b2c1	-0.036547426
4	0xbcf5a106	-0.029984009
5	0x3dc2668e	0.09492217
6	0x3b951d2d	0.004550597
7	0xbcff5cf0	-0.031172246
8	0x3cbe3de1	0.023222866
9	0xbe2d8836	-0.16946492
10	0x3d9e3b3b	0.07726141
11	0xbe26c7af	-0.16287111
12	0x3ddc9825	0.10771207
13	0x3be803e5	0.0070805424
14	0x3d4fde83	0.050749313
15	0xbce7f32d	-0.028314197
16	0x3deaedf4	0.11471167
17	0x3cbdf954	0.023190178
18	0xbd978c88	-0.07399851
19	0xbda82196	-0.08209531
20	0x3df75bff	0.12078094
21	0xbc33f9aa	-0.0109848175
22	0x3dcec2f0	0.10095775
23	0xbd2fcb92	-0.04291875
24	0xbda8e322	-0.08246447
25	0xbbb1589c	-0.0054121744
26	0xbcc31009	-0.023811357
27	0xbd870fff	-0.06594848
28	0xbe1cf4cf	-0.15327762
29	0xbca2915a	-0.0198447
30	0x3d085966	0.033288382
31	0x3c7303ab	0.0148324175

features.2.weight f4 [32, 32, 3, 3]
0	0x3973f11c	0.00023264106
1	0x39c8c064	0.00038290315
2	0x39fbee8c	0.00048052182
3	0x39935afb	0.0002810581
4	0x3996dbd4	0.00028774014
5	0x39a72b56	0.0003188501
6	0x398cc29f	0.00026847885
7	0x39870c4e	0.00025758374
8	0x39e075ee	0.00042812474
9	0xbc082186	-0.008308774
10	0xbce96c05	-0.02849389
11	0xbd4408aa	-0.047859825
12	0xbc07d36d	-0.008290154
13	0xbc909bb1	-0.017652364
14	0xbd048cbb	-0.032360774
15	0xbcaf99b5	-0.021435598
16	0xbca8fb36	-0.0206276
17	0xbd49e353	-0.04928906
18	0x39ae1ac2	0.00033207802
19	0x3a33545c	0.00068408786
20	0x3a13a961	0.00056328444
21	0x39021ddb	0.00012408888
22	0x39fbd2e0	0.00048031565
23	0x3a0f152d	0.00054581725
24	0x390e092e	0.00013545595
25	0x39c84180	0.00038195774
26	0x39e2e1b4	0.0004327424
27	0xbbf2214d	-0.0073892237
28	0xbb9d2ba0	-0.0047964603
29	0xbc1a2fc5	-0.009410803
30	0xbc2ab90e	-0.010420097
31	0xbc31d739	-0.010854536
32	0xbc8461d6	-0.016159933
33	0xbbf2a534	-0.0074049477
34	0xbc3e7e6a	-0.011626819
35	0xbc465ae4	-0.012106631
36	0xb9f56cba	-0.0004681105
37	0xba53611e	-0.0008063483
38	0xba3bb4f8	-0.00071604503
39	0xb9f52e72	-0.00046764646
40	0xb9f7fb56	-0.0004729877
41	0xb9be4c4f	-0.00036296478
42	0xba322c0b	-0.0006796724
43	0xb9c53df5	-0.0003762093
44	0xba41a4a0	-0.0007386897
45	0xbdb2db18	-0.08733195
46	0xbd08d703	-0.033408176
47	0xbd1ac0e1	-0.0377816
48	0xbd657797	-0.056022253
49	0xbd09eace	-0.033671193
50	0xbcb2274d	-0.021747256
51	0xbca23561	-0.019800844
52	0xbcceed8d	-0.025259757
53	0xbd1d2046	-0.038360856
54	0x3b82c860	0.0039911717
55	0x3bbeb220	0.005819574
56	0x3bba7141	0.0056897704
57	0x3b6834b4	0.0035431804
58	0x3babe1a2	0.0052454034
59	0x3b915944	0.00443569
60	0x3b897ed8	0.004196029
61	0x3bae6438	0.0053220056
62	0x3bb2f9cc	0.005461907
63	0x3a58b114	0.0008266133
64	0x3a43dcac	0.00074715423
65	0x3a80dc7b	0.0009831333
66	0x3a8de053	0.00108243
67	0x3a32aee6	0.0006816223
68	0x3a5fe34f	0.00085406465
69	0x3a4e3dbd	0.0007867476
70	0x39f4593a	0.00046605786
71	0x3a1632e0	0.0005729627
72	0xbd9572c5	-0.07297281
73	0xbd5364e5	-0.051609892
74	0xbcb310ed	-0.021858657
75	0xbd4a601b	-0.04940806
76	0xbc5af5f7	-0.013364307
77	0xbd6bdc55	-0.057583172
78	0x3b8c5b99	0.00428338
79	0xbc75ab37	-0.014994434
80	0xbcf9d0d2	-0.030495081
81	0xbbfdeea0	-0.0077493936
82	0xbbbf7452	-0.005842724
83	0xbb3f887c	-0.0029225638
84	0xbbc41dc5	-0.005984994
85	0xbc03cb02	-0.008044006
86	0xbc7c985b	-0.015417184
87	0xbbd1ef94	-0.0064067338
88	0xbc001d54	-0.007819492
89	0xbbada2ab	-0.0052989325
90	0xbc9b879e	-0.018985566
91	0xbc076a2c	-0.008265059
92	0xbbd5d4e9	-0.006525625
93	0xbbcf3593	-0.006323525
94	0xbc08f47b	-0.00835907
95	0xbc04f8bd	-0.008115944
96	0xbb8012b5	-0.00390848
97	0xbbff4083	-0.007789673
98	0xbba23f1a	-0.00495137
99	0xbbeffc5e	-0.0073237857
100	0xbc095835	-0.008382847
101	0xbc1f1188	-0.00970877
102	0xbbb73417	-0.0055909264
103	0xbbc7ed08	-0.0061012544
104	0xbc122f22	-0.00892237
105	0xbb8b29ea	-0.00424694
106	0xbb92d663	-0.0044811233
107	0xbba09149	-0.004900132
108	0xbbd5ff30	-0.006530665
109	0xbc96f1cb	-0.018425843
110	0xbd319478	-0.04335448
111	0xbd9412e0	-0.072301626
112	0xbd31de15	-0.043424685
113	0xbcf67e13	-0.030089414
114	0xbca56fd5	-0.020194927
115	0xbb3c579c	-0.0028738743
116	0xbd9b4f54	-0.0758349
117	0x3b33c7b6	0.002743227
118	0x3b0f0acf	0.002182651
119	0x3b41d94a	0.0029578977
120	0x3b4015c2	0.0029309844
121	0x3b21bf4c	0.0024680672
122	0x3b4fc319	0.003170198
123	0x3b3687d8	0.0027851965
124	0x3b3149ce	0.0027052048
125	0x3af01bed	0.0018318869
126	0x3ba8be2a	0.0051496224
127	0x3bb6ada9	0.005574901
128	0x3bbca134	0.0057565216
129	0x3bdde0db	0.0067711896
130	0x3be920c8	0.0071145035
131	0x3bf09398	0.0073418133
132	0x3c3e8eb8	0.0116307065
133	0x3c253cb8	0.010085277
134	0x3c469d0e	0.012122406
135	0x3bb501c9	0.0055238944
136	0xbd277f58	-0.04089293
137	0x3c43957e	0.011937497
138	0xbc89f5e2	-0.016840879
139	0xbcc4fd9d	-0.024046713
140	0x3bc086fb	0.005875466
141	0x3c4196c2	0.011815729
142	0x3b5df807	0.003386976
143	0xbd4296d8	-0.047507137
144	0xbca42bfc	-0.020040505
145	0xbc7b7f23	-0.015350136
146	0xbb5e343d	-0.0033905648
147	0xbc2c0396	-0.010498902
148	0xbaa32825	-0.0012447877
149	0xbd06dc76	-0.03292509
150	0xbb491225	-0.003068098
151	0xbcbcd717	-0.023051782
152	0xbbfc07c8	-0.0076913573
153	0x3b1228e6	0.002230221
154	0x3b236b48	0.002493577
155	0x3b0acfb4	0.002118093
156	0x3b1105eb	0.0022128772
157	0x3b15435e	0.002277575
158	0x3b21a02a	0.0024662116
159	0x3b132671	0.0022453333
160	0x3b0c09e8	0.002136821
161	0x3b01f751	0.001983125
162	0xb9dea2a1	-0.00042464308
163	0xba199bda	-0.00058597105
164	0x382e56f6	4.156582e-05
165	0xba014253	-0.00049308426
166	0xba9deb00	-0.0012048185
167	0x39ce4530	0.0003934293
168	0xbaf5e131	-0.0018759129
169	0xbb16bb05	-0.0022999656
170	0xbb4ec359	-0.0031549542
171	0x3a7366dc	0.00092850416
172	0x3a90f0c8	0.0011058087
173	0xb9cc75f0	-0.00038997782
174	0x3a367432	0.00069600635
175	0x3a51ccf7	0.00080032594
176	0xb9acf268	-0.00032987003
177	0x38275e0e	3.9903498e-05
178	0x3a2c8c50	0.00065821875
179	0x3a1e1524	0.0006030372
180	0xbba2fc2c	-0.004973909
181	0xbb8ef223	-0.004362361
182	0xbb9c803b	-0.0047760285
183	0xbb5f3896	-0.0034060827
184	0xbb578046	-0.0032882853
185	0xbaa343cc	-0.0012456118
186	0xbb877cc3	-0.004134746
187	0xbbc4a761	-0.0060013984
188	0xba8e1963	-0.0010841306
189	0xb95dbd52	-0.0002114673
190	0xb924ca1e	-0.00015715553
191	0xb997ab97	-0.0002892881
192	0xb9ae61a5	-0.00033260617
193	0xb99e72de	-0.0003022169
194	0xb9a141c9	-0.00030757327
195	0xb9959372	-0.0002852935
196	0xb969daf9	-0.00022302185
197	0xb9b4e62d	-0.0003450377
198	0xbd94e041	-0.072693355
199	0xbd32b3b2	-0.043628402
200	0xbd4ffaa3	-0.050776135
201	0xbdaaaa26	-0.083332345
202	0xbceedd81	-0.029158356
203	0xbc2121a2	-0.009834679
204	0xbc0dc402	-0.008652689
205	0xbc4355d4	-0.0119223185
206	0x3b9e3eb5	0.0048292526
207	0xbc758891	-0.014986173
208	0xbcca30f5	-0.024681548
209	0xb982a8b5	-0.0002492123
210	0xbcbd1e39	-0.0230857
211	0xbbec1939	-0.007205155
212	0xb63301a9	-2.6674045e-06
213	0xbcae52a5	-0.021279642
214	0xbc08501b	-0.00831988
215	0xbb4d9a73	-0.0031372576
216	0x3a4ed631	0.00078901934
217	0x3a72e072	0.00092650123
218	0x39e8dde5	0.00044415813
219	0x3abc9b0d	0.001438947
220	0x3ab72872	0.0013973846
221	0x3a3662b0	0.00069574546
222	0x3ab0b1f7	0.0013480772
223	0x3aa87d45	0.0012854716
224	0x3a48710f	0.00076462416
225	0xbd5cf218	-0.053941816
226	0xbcf2f049	-0.029655593
227	0xbd116e30	-0.035505474
228	0xbd0f69f6	-0.03501316
229	0xbd69faed	-0.057124067
230	0xbd885b98	-0.06658095
231	0xbd823f2f	-0.063597076
232	0xbd1f0dfe	-0.038831703
233	0xbc9efa6f	-0.019406525
234	0x398d38f5	0.00026936052
235	0x38bbaeb4	8.949396e-05
236	0xb880ee55	-6.1479084e-05
237	0xb7180a94	-9.062369e-06
238	0xb8af2a8c	-8.352575e-05
239	0xb9846a88	-0.00025256374
240	0xb88780aa	-6.461267e-05
241	0xb9999a39	-0.0002929734
242	0xb8ca4641	-9.6451964e-05
243	0x3a311385	0.0006754923
244	0x3a9015b4	0.0010992796
245	0x3a90ccef	0.0011047403
246	0x3a24357f	0.0006264075
247	0x3ad2408b	0.0016040964
248	0xb9d760d2	-0.00041080132
249	0x3a849de4	0.0010117856
250	0x3aec252b	0.0018016448
251	0xb9a77b7f	-0.00031944734
252	0xbca0b7d1	-0.0196189
253	0xbd00ae8b	-0.031416457
254	0xbd0f0a9d	-0.03492223
255	0xbc5f936e	-0.01364599

features.2.bias f4 [32]
0	0x3ca7ac25	0.020467827
1	0xbd9604b0	-0.07325113
2	0xbd9036ce	-0.07041703
3	0x3b960126	0.0045777736
4	0xbbb0b307	-0.0053924355
5	0x3b281169	0.0025645143
6	0xba3df659	-0.00072464865
7	0x3c96ed10	0.018423587
8	0xbba244ca	-0.004952048
9	0xbc3c54f3	-0.011494863
10	0xbca71cb6	-0.020399433
11	0xbb97cc58	-0.004632514
12	0xbb2cb02a	-0.002635012
13	0x3c6c37d2	0.0144176055
14	0x3cb01508	0.021494403
15	0xbd163438	-0.036670893
16	0xbd1173d0	-0.035510838
17	0xbd2da25b	-0.042391162
18	0xbcef713a	-0.029228795
19	0xbcb7a6b3	-0.022418356
20	0xbca62fcf	-0.020286469
21	0xbc8fffd1	-0.017578037
22	0xbb008dc7	-0.0019615756
23	0xbd4dacd3	-0.050213646
24	0xbbced928	-0.006312508
25	0xbd833393	-0.064063214
26	0xbc7e7873	-0.015531647
27	0xbd8d1813	-0.068893574
28	0xbd14b563	-0.036305796
29	0xbc288b83	-0.010287168
30	0x3b3b823c	0.0028611561
31	0xbc8a0567	-0.01684828

features.6.weight f4 [64, 32, 3, 3]
0	0xb9dd0eac	-0.00042163336
1	0xba8abd17	-0.0010584918
2	0xbadf8213	-0.0017052315
3	0xb9dc8e6c	-0.00042067782
4	0xba84ba74	-0.0010126368
5	0xbb179e11	-0.0023134986
6	0xb9baffdc	-0.00035667315
7	0xb9ed80f4	-0.0004530024
8	0xbaaaf092	-0.0013041666
9	0xb92e5344	-0.00016624952
10	0x38acc542	8.238341e-05
11	0x37c9cf28	2.4057532e-05
12	0x39ac84b8	0.0003290528
13	0xb91271ba	-0.00013966011
14	0xb8ced692	-9.862812e-05
15	0xb8a3680a	-7.7918245e-05
16	0x39c75455	0.0003801907
17	0x392a148e	0.0001622012
18	0x382d2514	4.1280946e-05
19	0x38825c59	6.216084e-05
20	0x383a85de	4.447053e-05
21	0xb92f0654	-0.00016691658
22	0xb9fd5bb5	-0.00048324247
23	0x39c83880	0.00038189068
24	0x3965185d	0.00021848218
25	0x385c9111	5.258719e-05
26	0xb9e927f6	-0.00044470996
27	0x390f8a0e	0.00013688972
28	0x3945c704	0.00018861523
29	0x3930ae2b	0.0001684955
30	0xb947317a	-0.0001899655
31	0x398ed165	0.00027240362
32	0x3811e99a	3.4788252e-05
33	0x3934eae8	0.00017253647
34	0xb914af48	-0.00014179677
35	0xb608e800	-2.040062e-06
36	0x37532550	1.25852675e-05
37	0x39687f31	0.00022172627
38	0x38f912e2	0.000118767624
39	0xb961c156	-0.00021529695
40	0x39fb4d4f	0.0004793205
41	0xb9814c23	-0.00024661524
42	0x383ff0be	4.5762157e-05
43	0xb9614093	-0.00021481728
44	0x393df6d0	0.0001811639
45	0xb9af957c	-0.00033489976
46	0x393f2816	0.00018230113
47	0xba01a97a	-0.00049462134
48	0x35bf3380	1.4245597e-06
49	0xb71ebb6c	-9.461171e-06
50	0xb51f95c0	-5.945003e-07
51	0xb73a53f8	-1.1106014e-05
52	0x38ad85c4	8.2741986e-05
53	0x3a00a614	0.000490756
54	0x3ac52a28	0.0015042471
55	0x3aeedfd3	0.0018224664
56	0x3ae241ba	0.001726202
57	0x3ae0dbab	0.001715531
58	0x3adc34e9	0.0016800436
59	0x3ae28304	0.0017281477
60	0x3ac3671e	0.0014908051
61	0x3ad58b3a	0.0016292103
62	0x3ad192b4	0.0015989156
63	0x39445fe7	0.00018727743
64	0xb7b0fce6	-2.10986e-05
65	0x398605e9	0.00025562875
66	0x3a0059f7	0.00048962183
67	0x39babe8c	0.00035618653
68	0xb9171964	-0.00014409941
69	0xb5ecd8c0	-1.7646453e-06
70	0xb85b7aae	-5.2327923e-05
71	0xb8c3e5ca	-9.341126e-05
72	0xbac034cc	-0.0014664172
73	0xbb04f1a9	-0.0020285642
74	0xbb547d71	-0.0032423402
75	0xbaeb0c99	-0.0017932832
76	0xbb4bc899	-0.0031094907
77	0xbb8a1b85	-0.0042147064
78	0xbb0295be	-0.001992568
79	0xbb2b4ac1	-0.0026137086
80	0xbb90f005	-0.004423144
81	0x39044916	0.00012615728
82	0x398883c8	0.00026038126
83	0xb7c85526	-2.3881508e-05
84	0xb92a491a	-0.00016239696
85	0xb88925c5	-6.539704e-05
86	0x39a762a0	0.00031926204
87	0xb879bb6b	-5.9540773e-05
88	0x39297b96	0.00016163135
89	0xb99e7fa6	-0.00030231214
90	0xb9ace1d5	-0.00032974654
91	0x380f666c	3.4189245e-05
92	0x396bc942	0.00022486321
93	0x38b3b658	8.569349e-05
94	0xb7b8c17e	-2.2024611e-05
95	0xb8d2216b	-0.00010019805
96	0x39451a7b	0.00018797249
97	0xb844dc40	-4.6935165e-05
98	0xb971a380	-0.0002304446
99	0xb7da3af8	-2.6015085e-05
100	0xb9f4bd21	-0.0004668022
101	0x38aadff8	8.147949e-05
102	0x39063f49	0.00012802811
103	0x37bd7d78	2.2588982e-05
104	0x399f06d4	0.0003033193
105	0x3928ed49	0.00016110124
106	0x393cfa41	0.00018022304
107	0xb9c4e00c	-0.0003755096
108	0x38a7a7d3	7.99444e-05
109	0x3796f4dc	1.7995415e-05
110	0x39090783	0.00013068136
111	0x38727690	5.7807716e-05
112	0x386f6b20	5.708181e-05
113	0xb82aca2f	-4.0719457e-05
114	0xb8a887bb	-8.036146e-05
115	0xb8e87a91	-0.00011085452
116	0xb9684746	-0.00022151796
117	0x399fbbe2	0.00030466827
118	0xb53625c0	-6.7855217e-07
119	0x389894b3	7.275622e-05
120	0x3794feb8	1.7761588e-05
121	0x38729edf	5.7845256e-05
122	0x386bc9bc	5.6216246e-05
123	0xb95066e9	-0.00019874763
124	0xb89d9cf2	-7.515577e-05
125	0xb986a449	-0.00025680874
126	0xbb11eb76	-0.002226559
127	0xbb5109e5	-0.0031896767
128	0xbb9ecee6	-0.0048464416
129	0xbb36bec4	-0.0027884701
130	0xbb68fe2a	-0.0035551884
131	0xbb9c44aa	-0.0047689276
132	0xbb07de0d	-0.0020731718
133	0xbb24390a	-0.0025058412
134	0xbb870f29	-0.0041216803
135	0xbb389cd1	-0.0028169642
136	0xbb5cd291	-0.0033694843
137	0xbb45a09f	-0.0030155552
138	0xbb104017	-0.0022010857
139	0xbb3b0b38	-0.0028540622
140	0xbb7699c4	-0.0037628273
141	0xbad94292	-0.0016575626
142	0xbaf6329c	-0.0018783393
143	0xbb35a7aa	-0.0027718344
144	0x392ba08a	0.00016367636
145	0xb8b1062c	-8.441167e-05
146	0x36f93b40	7.427676e-06
147	0xb9963abd	-0.00028653993
148	0x37a5d300	1.9767787e-05
149	0xb700b790	-7.6721335e-06
150	0x38fd79a5	0.00012086638
151	0x383f513a	4.5613597e-05
152	0xb9cc2ade	-0.0003894185
153	0xb9ff8bd8	-0.00048741582
154	0xb9587810	-0.00020644092
155	0x38c37799	9.3206014e-05
156	0xb91d8434	-0.00015021936
157	0xb86b0113	-5.6029367e-05
158	0x377d5580	1.5099882e-05
159	0xb8df9518	-0.000106612395
160	0x3924cc5a	0.00015716386
161	0x3988bc64	0.00026080303
162	0xb9139104	-0.00014073035
163	0x39191f48	0.0001460287
164	0x3873ac11	5.8095964e-05
165	0xb8ce2bff	-9.8310404e-05
166	0xb902e0a3	-0.0001248145
167	0x39132a85	0.00014034852
168	0x38bd2896	9.019782e-05
169	0xb8e8ac1a	-0.000110946785
170	0x394abd6a	0.00019334783
171	0xba5870a9	-0.0008256534
172	0xba0d8bd2	-0.0005399558
173	0xba4804f2	-0.00076301314
174	0xba3b05f6	-0.0007134372
175	0xba37888e	-0.0007001244
176	0xba582a9f	-0.0008246097
177	0xba193716	-0.0005844695
178	0xba491c74	-0.00076717813
179	0xba68f862	-0.00088871096
180	0xb98660a4	-0.00025630475
181	0x3918df84	0.00014579116
182	0x3905e37e	0.00012768616
183	0xb7c901fc	-2.3961991e-05
184	0x382c397a	4.1061525e-05
185	0xb7ec21b4	-2.8149087e-05
186	0xb87f0312	-6.0799597e-05
187	0xb8e90c4f	-0.000111125984
188	0xb854c3f4	-5.0727234e-05
189	0xb9e55d07	-0.00043747594
190	0x3991c504	0.00027803343
191	0x39027ca0	0.00012444193
192	0x39551edc	0.00020324759
193	0x38ad661a	8.268301e-05
194	0xb88ac676	-6.617319e-05
195	0xb882a3f6	-6.229423e-05
196	0xb92874df	-0.00016065266
197	0xb8f1eba0	-0.00011535664
198	0x3abf4573	0.0014592841
199	0x3abef4b6	0.0014568779
200	0x3ab29b59	0.001362662
201	0x3ac80d53	0.001526276
202	0x3ac501e8	0.0015030475
203	0x3add1b21	0.0016869047
204	0x3acd911c	0.0015683505
205	0x3aba8d07	0.0014232703
206	0x3abadee0	0.0014257096
207	0xb8d4bd3a	-0.00010144194
208	0x38144904	3.535395e-05
209	0x38c27a36	9.2734044e-05
210	0xb888aeca	-6.517542e-05
211	0xb95f84ca	-0.00021316405
212	0x3915cb3a	0.00014285455
213	0x3894bceb	7.092379e-05
214	0xb8e444f4	-0.00010884731
215	0x3882bc33	6.233938e-05
216	0x39efbfaa	0.00045728433
217	0xb9bc6873	-0.00035935975
218	0xb81a42f2	-3.677881e-05
219	0x38d6b0ac	0.00010237223
220	0xb95cbe8b	-0.00021051818
221	0xb927d0c6	-0.00016004135
222	0xb901a02d	-0.00012362069
223	0x39740493	0.00023271357
224	0x38cc7139	9.7485674e-05
225	0xb8cda518	-9.805913e-05
226	0x39598bfe	0.00020746884
227	0x378e73d8	1.6981663e-05
228	0xb9c08d00	-0.00036726147
229	0x39a868d1	0.0003212155
230	0x38e8f16c	0.000111075904
231	0x37730a4c	1.4486326e-05
232	0x396100d9	0.00021457988
233	0xb84fefa0	-4.9575814e-05
234	0x390da394	0.00013507745
235	0x393ce488	0.00018014212
236	0x39e38fa0	0.00043403823
237	0x38865e9e	6.407242e-05
238	0x38cd0793	9.7765726e-05
239	0x39d9858f	0.00041488974
240	0x39236495	0.00015582361
241	0x3a01f672	0.00049576827
242	0x3a3892a0	0.0007040892
243	0x37bedae0	2.2751687e-05
244	0x38844d1d	6.308614e-05
245	0x39c24c26	0.00037059298
246	0x370b6958	8.309573e-06
247	0xb8855ee0	-6.359606e-05
248	0xb8e25d4e	-0.00010793899
249	0x38ffa320	0.00012189732
250	0xb9ce44ed	-0.00039342736
251	0xb8ae639c	-8.31552e-05
252	0x380154bb	3.0834908e-05
253	0x39d5733c	0.00040712382
254	0xb8c291f4	-9.277827e-05
255	0xb8635104	-5.419647e-05

features.6.bias f4 [64]
0	0xbb72d90b	-0.0037055637
1	0x3d68712c	0.056748554
2	0xbca9895e	-0.020695385
3	0xbd1a6382	-0.037692554
4	0xbc359948	-0.011083908
5	0xbcb02ae9	-0.021504836
6	0xbbaa9574	-0.0052058045
7	0x3a0a2484	0.00052697235
8	0xba80acb5	-0.0009817096
9	0xbd44b9a3	-0.0480286
10	0xbc3536f0	-0.011060461
11	0x3ddb5ef9	0.10711474
12	0x3db79d84	0.089655906
13	0xbb3915c1	-0.0028241726
14	0xbd2df54e	-0.04247027
15	0xbd374587	-0.04474404
16	0xba59e4e2	-0.0008311999
17	0x3d0238cd	0.03179245
18	0xbb55ea6c	-0.0032640947
19	0x3cf751ef	0.030190436
20	0x3cc964a0	0.024584115
21	0x3cd27c00	0.025693893
22	0x3cc3eb1b	0.023915818
23	0x39d2e332	0.00040223595
24	0xbd08fcde	-0.033444278
25	0x3c9a6491	0.018846782
26	0xbc80daef	-0.015729396
27	0xbc20fe66	-0.009826278
28	0x3df104ed	0.11768518
29	0xbd8c0be1	-0.06838203
30	0xbcb859b3	-0.02250371
31	0xbd5248ef	-0.051339086
32	0xbd31a974	-0.043374494
33	0x3d0beba8	0.034160286
34	0xbd321145	-0.0434735
35	0xbd4a0c0f	-0.049327906
36	0xbb5d41b2	-0.0033761081
37	0xbbbaa3ec	-0.0056958105
38	0x3c91acea	0.017782647
39	0xbc079825	-0.00827602
40	0xbd7d6256	-0.06186136
41	0xbc85f4e8	-0.016352132
42	0xbc767388	-0.015042193
43	0xbd21a429	-0.039463196
44	0xbad401ee	-0.0016174891
45	0x3d6c3f39	0.05767748
46	0xbbea7af2	-0.0071557695
47	0xbd4ba113	-0.04971416
48	0xbca069ff	-0.019581793
49	0x3cea3ee5	0.028594444
50	0x3cdab7d1	0.026698979
51	0x3d77dc87	0.060513046
52	0xbb74c53e	-0.003734901
53	0xbd6a8090	-0.057251513
54	0x3c94698e	0.018116739
55	0xbb04a223	-0.0020238243
56	0x3d7d4361	0.061831836
57	0xbbfd39d1	-0.0077278395
58	0xbb98af00	-0.0046595335
59	0xbba120e2	-0.00491725
60	0xbc82a77a	-0.015949
61	0xbccf5800	-0.025310516
62	0x3ce426e5	0.027850578
63	0xbd178c85	-0.036999244

features.8.weight f4 [64, 64, 3, 3]
0	0x38d18d8b	9.992261e-05
1	0xb8febc8b	-0.00012146783
2	0x37c3a6d6	2.33235e-05
3	0x38c24fc9	9.265502e-05
4	0xb868a0d4	-5.5462893e-05
5	0x398e0d03	0.00027094045
6	0x39a6b39b	0.00031795804
7	0x375b54a8	1.3073128e-05
8	0xb816d856	-3.5964265e-05
9	0xbb642288	-0.0034810621
10	0xbb63bcae	-0.0034749913
11	0xbb0b81f4	-0.0021287175
12	0xbb60f508	-0.0034325738
13	0xbb8de867	-0.004330683
14	0xbb6322f0	-0.0034658276
15	0xbb1ed508	-0.0024235863
16	0xbb3ff3c6	-0.0029289587
17	0xbb135bcb	-0.0022485133
18	0xb8228bad	-3.8753893e-05
19	0xb8355160	-4.322955e-05
20	0xb94a92f6	-0.00019318968
21	0x37d972d0	2.592188e-05
22	0x396281d1	0.000216014
23	0xb9893e2c	-0.00026176998
24	0xb94753c5	-0.00019009325
25	0x393f9626	0.00018271114
26	0xb87e9434	-6.0696344e-05
27	0xb9444240	-0.00018716697
28	0xb907cf0e	-0.00012951737
29	0x38322262	4.247053e-05
30	0x38e0291d	0.0001068881
31	0x390539d6	0.00012705414
32	0x397dcca6	0.00024204198
33	0xb963df16	-0.00021731513
34	0xb90c7117	-0.0001339357
35	0xb8613b42	-5.369937e-05
36	0xba5952b0	-0.00082902145
37	0xba5e96c2	-0.00084910926
38	0xba39abb5	-0.0007082776
39	0xba29c608	-0.00064763473
40	0xba44e9ac	-0.00075116265
41	0xba488052	-0.0007648516
42	0xba2912e7	-0.0006449655
43	0xba1b3baa	-0.00059216714
44	0xba5327e9	-0.00080549583
45	0x38be1023	9.062912e-05
46	0xb98ffc47	-0.00027463047
47	0x384354ca	4.657059e-05
48	0x39a35468	0.0003115267
49	0xb8e6b914	-0.00011001728
50	0x3668a900	3.4669065e-06
51	0x37d2c24b	2.5124426e-05
52	0x3893d247	7.0486734e-05
53	0x390e7ede	0.00013589437
54	0x397dbdda	0.00024198685
55	0x38a2db20	7.765577e-05
56	0xb8f1f378	-0.00011537125
57	0x3802ecf0	3.121508e-05
58	0x38cf3d27	9.88192e-05
59	0xb905785c	-0.00012728706
60	0x38578072	5.137962e-05
61	0xb99beb8a	-0.00029739394
62	0x387ac6b6	5.978971e-05
63	0xbad12d2d	-0.0015958898
64	0xba9ee654	-0.0012123086
65	0x3ac78346	0.0015221618
66	0xbb14a757	-0.002268275
67	0x3af453d8	0.001864071
68	0xbaf82848	-0.0018932903
69	0xba5c039a	-0.00083928707
70	0x3b6db342	0.0036270176
71	0xbabec17e	-0.0014553515
72	0xbabdb7bd	-0.0014474314
73	0x3a904391	0.0011006464
74	0xb93cfa68	-0.00018022361
75	0x3a605832	0.0008558064
76	0xbaa7bc00	-0.0012797117
77	0xba4f09b3	-0.00078978686
78	0x3aa46838	0.0012543267
79	0xbae75ec0	-0.0017652139
80	0xbb01ea3d	-0.0019823455
81	0x38a51510	7.871736e-05
82	0x38cebe22	9.8582605e-05
83	0x399c1f1f	0.00029777826
84	0x388e57e0	6.787456e-05
85	0xb92ddc0f	-0.00016580544
86	0x387445d7	5.8239177e-05
87	0xb8b58685	-8.655809e-05
88	0x39773996	0.00023577208
89	0x352c0100	6.407645e-07
90	0x39120fbc	0.00013929507
91	0xb8ae1d94	-8.302476e-05
92	0x390535aa	0.0001270386
93	0x37858d34	1.5920588e-05
94	0x3834638f	4.3008065e-05
95	0x39043375	0.0001260767
96	0xb983e9fa	-0.00025160593
97	0x39029fe2	0.00012457327
98	0x38ebf41f	0.00011251144
99	0x3c72bc4b	0.0148154
100	0x3c5626d8	0.0130707845
101	0x3c617c87	0.0137626
102	0x3c3780db	0.011200155
103	0x3c007250	0.007839754
104	0x3c246489	0.010033735
105	0x3c5dafd6	0.013530692
106	0x3c2cd821	0.010549576
107	0x3c557eaf	0.013030692
108	0x3c2370bf	0.009975611
109	0x3c054506	0.008134132
110	0x3c0c2e8d	0.00855602
111	0x3be139ec	0.00687336
112	0x3b398f8f	0.0028314327
113	0x3bb26a9b	0.0054448373
114	0x3c202854	0.00977524
115	0x3bce314a	0.006292497
116	0x3c0de4b7	0.008660487
117	0x399b20d5	0.00029588366
118	0x380e2962	3.389398e-05
119	0xb7c81af0	-2.3854402e-05
120	0x38bb77c3	8.939162e-05
121	0x399c567b	0.00029819072
122	0xb8645c76	-5.4445547e-05
123	0x398c575b	0.00026767966
124	0x38930170	7.009774e-05
125	0xb93c52c6	-0.00017959913
126	0xb9062f32	-0.00012796817
127	0x380b2e18	3.318311e-05
128	0xb91daaf6	-0.00015036375
129	0x3916b8d6	0.00014373971
130	0x38f22440	0.00011546211
131	0xb992d57d	-0.0002800635
132	0xb8c983c5	-9.608971e-05
133	0x388c07d1	6.677176e-05
134	0xb828d4bc	-4.0252446e-05
135	0xba15fae8	-0.0005721287
136	0xba1a31b9	-0.0005882043
137	0xba215cf0	-0.00061555114
138	0xba140b49	-0.00056474336
139	0xba193d07	-0.00058455806
140	0xba2257d9	-0.00061929
141	0xba061573	-0.00051148905
142	0xb941fb8e	-0.00018499626
143	0xb90e497c	-0.0001356955
144	0x38bc5d8a	8.9819616e-05
145	0x38f4847e	0.00011659505
146	0x39018b81	0.00012354368
147	0xb85c8a1c	-5.258071e-05
148	0x37d6cb20	2.5605375e-05
149	0x398840c6	0.000259882
150	0x39a43303	0.00031318524
151	0xb6202240	-2.3861794e-06
152	0xb9743669	-0.00023289923
153	0xbcb48531	-0.022036167
154	0xbcbb4aa7	-0.022862745
155	0xbcb89a33	-0.022534465
156	0xbcb51109	-0.02210285
157	0xbcc3bb84	-0.023893125
158	0xbcc5bf96	-0.024139207
159	0xbcb6cb88	-0.022313848
160	0xbcc34f1a	-0.02384143
161	0xbcc99008	-0.024604812
162	0x3913f23d	0.00014109253
163	0xb983fa80	-0.00025172904
164	0x351b1700	5.777547e-07
165	0x3910be08	0.00013803702
166	0xb9139ecf	-0.00014078173
167	0xb8d5f924	-0.000102030375
168	0x3801ffe9	3.099433e-05
169	0xb885ebdc	-6.3858664e-05
170	0xb92711dc	-0.00015933014
171	0xbcdb3578	-0.026758894
172	0xbce6151a	-0.028086234
173	0xbce02364	-0.027360626
174	0xbcecf51a	-0.028925467
175	0xbcfba5b8	-0.03071867
176	0xbce9516f	-0.028481213
177	0xbce07ba5	-0.027402708
178	0xbce9bb5f	-0.028531728
179	0xbcd8d1da	-0.026467253
180	0xbc478fec	-0.01218031
181	0xbc523b7d	-0.012831566
182	0xbc3c6757	-0.0114992475
183	0xbc60a4b2	-0.013711141
184	0xbc6f314d	-0.014599157
185	0xbc576fba	-0.013149196
186	0xbc434a5a	-0.011919582
187	0xbc4e0e83	-0.012576702
188	0xbc2e2c8a	-0.010630736
189	0xbcedfbe8	-0.029050782
190	0xbcf711be	-0.030159827
191	0xbcef098e	-0.02917936
192	0xbcfd4f62	-0.030921642
193	0xbd062470	-0.032749593
194	0xbcfb59ac	-0.030682407
195	0xbceecb80	-0.02914977
196	0xbcf9507d	-0.030433888
197	0xbce83cc7	-0.028349293
198	0xbc6ad9fd	-0.014334199
199	0xbc754d8c	-0.014972102
200	0xbc64d31b	-0.013966347
201	0xbc72d010	-0.014820114
202	0xbc80cb10	-0.015721828
203	0xbc6d0319	-0.014466071
204	0xbc55e770	-0.013055667
205	0xbc5dae04	-0.013530258
206	0xbc45dbb1	-0.012076304
207	0x38c62742	9.448688e-05
208	0x3825f450	3.95666e-05
209	0xba1aad5c	-0.00059004663
210	0xb9c5b6a9	-0.0003771086
211	0xb9925cc2	-0.000279164
212	0x390bfe28	0.00013350754
213	0x38cb0688	9.681011e-05
214	0xb9e9c7a4	-0.00044589967
215	0x3905b8d3	0.00012752721
216	0xb9b2bdea	-0.00034092303
217	0xb9c0e457	-0.0003679122
218	0x38d88416	0.000103242855
219	0xb97479e5	-0.00023315063
220	0x3a02bd30	0.00049872976
221	0xb937356a	-0.00017472138
222	0xb9c19f8b	-0.00036930697
223	0xb8780a08	-5.913715e-05
224	0x3947b79c	0.00019046519
225	0xb8f4e660	-0.00011677737
226	0xba6db69c	-0.00090680434
227	0xb92d1870	-0.0001650767
228	0xba8383b4	-0.0010033757
229	0xbad07e4e	-0.0015906782
230	0xba396b00	-0.0007073134
231	0x3a1ac830	0.0005904464
232	0x39103db0	0.0001375589
233	0x3ab872f6	0.0014072347
234	0x3ce84aca	0.028355975
235	0x3cd7b85e	0.02633303
236	0x3cdbc6b2	0.026828144
237	0x3cdcce94	0.026953973
238	0x3ccfbde4	0.025359102
239	0x3cd11fe2	0.025527898
240	0x3ce0e1d1	0.027451428
241	0x3cd10fbb	0.025520196
242	0x3cd08f42	0.025458936
243	0xb9d97937	-0.00041479777
244	0xba0dcb94	-0.00054090586
245	0xb9914e06	-0.00027714687
246	0xb9f3d270	-0.0004650536
247	0xba2ecdb7	-0.0006668227
248	0xba07f76f	-0.0005186712
249	0xb9400ca1	-0.00018315252
250	0xba0df701	-0.00054155296
251	0xba2f3529	-0.00066836417
252	0x3c996667	0.018725587
253	0x3c886589	0.016649978
254	0x3c939516	0.018015426
255	0x3c7874e3	0.015164587

features.8.bias f4 [64]
0	0x3e35fb72	0.177717
1	0x3dabc9c8	0.08388096
2	0x3e1d0379	0.15333356
3	0x3e32182e	0.17392036
4	0x3d468bc0	0.04847312
5	0x3bd3249a	0.006443572
6	0x3c893979	0.016751038
7	0xbbb9adb8	-0.005666461
8	0x3e28839e	0.16456458
9	0x3e10bd1e	0.14134642
10	0x3d857b24	0.06517628
11	0x3d4f32dc	0.050585613
12	0xbbfd56b3	-0.0077312826
13	0xbc42a59a	-0.011880303
14	0x3b77aacf	0.003779102
15	0xbc670364	-0.0140999295
16	0x3ca6daac	0.020367943
17	0x3e103c35	0.14085467
18	0x3dd8a6a5	0.1057866
19	0x3decb659	0.115582176
20	0xba9eca71	-0.0012114776
21	0xbc3fe64d	-0.011712623
22	0xbbac16c6	-0.0052517382
23	0xbc613d72	-0.01374756
24	0xbbba74b4	-0.0056901816
25	0xbbc2bee8	-0.005943168
26	0xbccc2f58	-0.024924919
27	0x3d657b5c	0.056025848
28	0x3dc23109	0.09482009
29	0x3d42adab	0.047528904
30	0x3b78f826	0.0037989705
31	0x3dbc4f18	0.091947734
32	0x3d970b50	0.073752046
33	0x3d761db4	0.06008692
34	0x3db08b75	0.08620349
35	0x3d736708	0.05942443
36	0x3e0d9b5f	0.138288
37	0xbb558cf0	-0.0032585226
38	0x3a9cef93	0.0011973254
39	0x3db715e3	0.089397214
40	0x3dcedffc	0.101013154
41	0xbac7b91b	-0.0015237661
42	0xba89c74b	-0.0010511664
43	0x3da13d90	0.0787307
44	0xbb02429d	-0.001987613
45	0xbc8211f4	-0.015877701
46	0xba10eba9	-0.000552828
47	0x3b56daf7	0.0032784322
48	0x3c48f855	0.012266238
49	0x3d8dfb30	0.06932676
50	0xbb863ad2	-0.0040963674
51	0x3b4c2656	0.003115078
52	0xbb8a71d5	-0.0042249956
53	0x3e45ebb3	0.19328193
54	0xba8c47a3	-0.0010702502
55	0x3d1bb275	0.038011987
56	0xbb1e24f5	-0.0024130915
57	0x3e071b41	0.1319399
58	0xbc93e679	-0.018054234
59	0x3d80f292	0.062962666
60	0x3be34511	0.0069357236
61	0x3dc1db6b	0.09465679
62	0x3d731536	0.0593464
63	0x3e1aab02	0.15104297

features.12.weight f4 [64, 64, 1, 1]
0	0xbd511eb9	-0.05105469
1	0x3a0af1d9	0.00053003203
2	0xbd0d16d0	-0.034445584
3	0xbd7e3348	-0.062060624
4	0x3baae3fa	0.005215165
5	0x39d43ea6	0.00040482468
6	0x3933e356	0.0001715546
7	0x39c74cbe	0.00038013415
8	0xbd1d17ba	-0.038352706
9	0xbd41c19d	-0.047303785
10	0x3d51548e	0.05110603
11	0x3aafec3b	0.0013421843
12	0x3b02f89d	0.001998461
13	0x39891159	0.000261436
14	0x3a5a5800	0.0008329153
15	0xba1058be	-0.00055063877
16	0xbc6e27d9	-0.014535868
17	0x3aa6ea99	0.001273471
18	0xb9c6d4dc	-0.00037924096
19	0x3c108476	0.008820644
20	0x3a49f184	0.000770353
21	0xb85bf538	-5.2442047e-05
22	0xba0457c9	-0.00050484814
23	0x3a83cbaf	0.0010055209
24	0x39dfb7f4	0.0004267093
25	0x3c472fea	0.01215742
26	0x38c91e0c	9.5900235e-05
27	0xbd943505	-0.07236675
28	0xbd7698c5	-0.060204286
29	0xbce1874b	-0.027530333
30	0x3a72097d	0.0009232981
31	0xbc9b4cb2	-0.01895747
32	0xbc7a7fa7	-0.015289224
33	0xbd4e1fbb	-0.05032323
34	0xbcfbf36b	-0.03075572
35	0xb8aae1da	-8.1483e-05
36	0xbcbc7ed8	-0.023009703
37	0x3daa0bda	0.08303042
38	0x3d5b4f57	0.05354246
39	0x3d92dcbf	0.0717101
40	0xbd895479	-0.06705565
41	0x39aebf04	0.00033330184
42	0xb939cb36	-0.00017718677
43	0xbaffc9ee	-0.0019515136
44	0xba14090d	-0.00056471006
45	0xba0c2843	-0.00053465756
46	0xbd1c70ef	-0.03819364
47	0xba24d6a4	-0.00062880875
48	0x3a65295a	0.00087418186
49	0x3d6e9866	0.058250807
50	0x388a4798	6.593688e-05
51	0xb899c868	-7.332937e-05
52	0x398932f4	0.0002616864
53	0xbbb38345	-0.005478295
54	0xba6dec56	-0.00090760493
55	0xbda62880	-0.081131935
56	0xba4d4f7a	-0.00078319723
57	0xbd089825	-0.03334822
58	0xbb206739	-0.0024475588
59	0x3c6cbb6f	0.0144489845
60	0x3a292908	0.00064529525
61	0x3d8deed0	0.069303155
62	0x3a3ba683	0.0007158296
63	0xbc3cc148	-0.011520691
64	0x3923d8d2	0.00015625663
65	0x3a5fb4c5	0.00085337117
66	0x3a1de920	0.0006023813
67	0x39ff90fd	0.00048745415
68	0xbd1133ae	-0.035449676
69	0xb8922a4e	-6.9697024e-05
70	0x39d91ebd	0.00041412367
71	0xb9256158	-0.0001577189
72	0x39c5773a	0.000376636
73	0x3af63ab2	0.0018785803
74	0xbd3010df	-0.04298484
75	0xbb338cb6	-0.0027397103
76	0x388d1a2d	6.7282795e-05
77	0xba105b4f	-0.000550677
78	0xba3aae10	-0.0007121274
79	0xba24c6c9	-0.0006285725
80	0xbad35762	-0.0016124065
81	0x38f778db	0.00011800389
82	0xba177198	-0.00057771197
83	0x387241d1	5.7758592e-05
84	0x3885c8c4	6.37933e-05
85	0xb9bb6acc	-0.0003574699
86	0x3a29f340	0.00064830855
87	0x385d77ac	5.280196e-05
88	0x39cca564	0.00039033138
89	0xbaf2466c	-0.0018484122
90	0x39b26c46	0.00034031476
91	0x3c90d037	0.01767741
92	0xbcc6df94	-0.024276532
93	0xbaa7c702	-0.0012800398
94	0x39a82529	0.00032071144
95	0xbc98c5f5	-0.01864908
96	0x3822dd98	3.8830185e-05
97	0xbd405f51	-0.0469659
98	0x3a82cd4c	0.0009979396
99	0xb9c841bd	-0.00038195951
100	0x39b6f10d	0.00034893342
101	0x3b9c2837	0.004765536
102	0x3cef3b45	0.029203067
103	0xbd438914	-0.04773815
104	0xbd4c983b	-0.049949866
105	0x39c77cfd	0.0003804936
106	0xb9ba6e97	-0.0003555908
107	0xb9306766	-0.00016823187
108	0xb9e40dde	-0.0004349788
109	0xb90a9d0c	-0.0001321921
110	0x3b9c3ad5	0.0047677555
111	0xba024ea0	-0.00049708225
112	0x394c3678	0.00019475247
113	0x3cbf83a1	0.023378195
114	0xb8786e24	-5.9230384e-05
115	0x3a4ea1a3	0.0007882362
116	0xb9342cd8	-0.00017182843
117	0x399f0c9c	0.00030336238
118	0xbaada5df	-0.0013248286
119	0x3c91ed07	0.017813219
120	0x399cc884	0.00029904034
121	0xb8b1cee0	-8.478551e-05
122	0xb98fe37f	-0.00027444583
123	0x3655d340	3.1862437e-06
124	0xb9d172f8	-0.00039949245
125	0x3bc4fc0f	0.006011493
126	0xb9314612	-0.00016906139
127	0xb99e5186	-0.00030196848
128	0x3bdf2e13	0.0068109124
129	0xb905a591	-0.00012745547
130	0x3ad438c7	0.0016191237
131	0xbb07fcce	-0.0020750049
132	0xbc18412f	-0.009292885
133	0x3a0a5e6d	0.0005278353
134	0x3aaae387	0.0013037779
135	0xb9c214a4	-0.00037017942
136	0x3b9745b4	0.0046164636
137	0xba21c92c	-0.00061716395
138	0x3c60de98	0.0137249455
139	0xbc35bbde	-0.011092154
140	0x3a01e2b3	0.000495474
141	0x398fa8d1	0.00027400863
142	0xba4c6a99	-0.0007797867
143	0xba60e87b	-0.0008579564
144	0xbaa706b5	-0.0012743088
145	0xba1d0caa	-0.0005990962
146	0xba879b97	-0.0010346052
147	0x3c052aaf	0.008127852
148	0x3a0e696d	0.000543258
149	0x37dc03f8	2.6227892e-05
150	0xba1c8130	-0.0005970178
151	0x3938fafe	0.0001764111
152	0xb8048092	-3.1590993e-05
153	0xbc862306	-0.016374122
154	0x39a46d26	0.0003136184
155	0xbcee7447	-0.02910818
156	0xbd174134	-0.036927417
157	0xbacefa66	-0.0015791177
158	0xb751f830	-1.2515156e-05
159	0xbc5f8b51	-0.013644055
160	0x3bd1c227	0.0064013186
161	0xbcd38216	-0.025818866
162	0xb9f91e9e	-0.00047515793
163	0x39349598	0.00017221866
164	0x3b7a06cb	0.0038151022
165	0xbcf5eede	-0.030021127
166	0xbc523726	-0.012830531
167	0x3cac5b39	0.021039592
168	0xbc5eb50d	-0.013592971
169	0xb8c834d6	-9.5465846e-05
170	0x3a94f769	0.0011365238
171	0xbac6b576	-0.0015160281
172	0xb9fef2b8	-0.00048627495
173	0x3a6e5ed9	0.0009093113
174	0x3a6fce86	0.0009147901
175	0xba1286f7	-0.00055895693
176	0xba14266a	-0.0005651476
177	0xbd52df06	-0.051482223
178	0x3a27cdd8	0.00064012175
179	0x3a2864c2	0.00064237055
180	0x39c6b66f	0.00037901427
181	0x3c1cbc35	0.009566356
182	0x3993f4f2	0.00028220523
183	0xbb76eab5	-0.0037676517
184	0xba1ed72e	-0.0006059286
185	0x3bece13e	0.0072289994
186	0xb95acca8	-0.0002086634
187	0x3c079146	0.008274382
188	0xb9745a3f	-0.00023303273
189	0xbb826507	-0.0039793286
190	0x3ab2e254	0.0013647773
191	0x3c0089ee	0.007845385
192	0xbd9b504e	-0.07583676
193	0xbd3fc584	-0.046819225
194	0xbd86630c	-0.065618604
195	0xbd70bd9f	-0.058774587
196	0xbc4650d9	-0.0121042365
197	0xbd0a9c63	-0.03384055
198	0xbc7352e5	-0.014851307
199	0xba87acbc	-0.0010351161
200	0xbd593a45	-0.053034086
201	0xbd342fcf	-0.043990906
202	0xbc6d2753	-0.014474708
203	0xbc74468a	-0.014909396
204	0xbc3232e8	-0.010876395
205	0xbd0dca20	-0.03461659
206	0xbb242980	-0.002504915
207	0x399e8621	0.00030236042
208	0xbc1252ef	-0.008930906
209	0xbd9b45b5	-0.07581655
210	0xbd4c630f	-0.049899157
211	0xbd807111	-0.06271566
212	0x3a4a6f77	0.0007722298
213	0xba67f1e1	-0.00088479934
214	0xba209613	-0.00061258784
215	0xb8bdf7b6	-9.058362e-05
216	0xb9920103	-0.00027848044
217	0x3a968db5	0.0011486324
218	0x3c1c473b	0.009538467
219	0x3d17d809	0.03707126
220	0xbdc202a3	-0.09473159
221	0xbca180f6	-0.019714814
222	0xbaada07b	-0.001324668
223	0xbda2e507	-0.0795384
224	0xbd7198c3	-0.058983576
225	0x3c1525ab	0.009103219
226	0xbd0c5bee	-0.03426736
227	0xbc33c910	-0.01097323
228	0xbd6e8435	-0.05823155
229	0x3b5fcf3f	0.0034150628
230	0x3a9722f2	0.00115308
231	0x3c0ab903	0.008466962
232	0x3d286986	0.04111626
233	0x39d66846	0.0004089495
234	0xbce7dd04	-0.02830363
235	0xbb7bb2ba	-0.003840609
236	0x38d9689a	0.0001036685
237	0x39a8390e	0.00032085966
238	0xbcb50697	-0.022097869
239	0xbb7817e2	-0.0037856032
240	0xbb649b61	-0.0034882652
241	0x3d196de4	0.037458315
242	0xb98fa657	-0.00027399018
243	0xbaa29ff2	-0.0012407287
244	0xbba68a86	-0.0050824312
245	0xbd1bd302	-0.03804303
246	0x39a799e9	0.00031967394
247	0xbc68785d	-0.014188853
248	0xba58b36a	-0.0008266481
249	0xbcbbc12e	-0.022919264
250	0x39794031	0.00023770404
251	0xbd4b4e93	-0.04963548
252	0xbcb0c75e	-0.02157944
253	0xbd3da494	-0.046299532
254	0xbd8967ba	-0.067092374
255	0xbd35bff4	-0.044372514

features.12.bias f4 [64]
0	0xbc400c6e	-0.0117217135
1	0xbd8944fc	-0.06702611
2	0xbd03e084	-0.032196537
3	0xbbd9be5c	-0.006645007
4	0xbde7fd47	-0.11327606
5	0xbbc65f69	-0.0060538542
6	0xbad3cfdc	-0.0016159969
7	0x3c54cf02	0.012988808
8	0xbd414231	-0.047182266
9	0xbd76fb8c	-0.060298488
10	0x3b1be08f	0.002378497
11	0x3c8a020a	0.016846675
12	0xbd387212	-0.04503066
13	0xbcbe466e	-0.023226943
14	0xbafd8707	-0.001934261
15	0xbd01aaa9	-0.031656895
16	0xbc25418d	-0.010086429
17	0x3caa0489	0.020754116
18	0xbd03554f	-0.03206378
19	0xbc5c1321	-0.013432295
20	0xbc49565f	-0.012288659
21	0xbd527d2b	-0.0513889
22	0xbc5dbdca	-0.013534019
23	0x3c017525	0.007901465
24	0xbd6b4f3f	-0.05744862
25	0xbc8ce4fe	-0.017199036
26	0xbdfc9fcf	-0.123351686
27	0xbc792635	-0.015206863
28	0xbc9cdfa8	-0.019149616
29	0x3aba22b0	0.0014201012
30	0xbd5135d3	-0.05107672
31	0xbc9b0411	-0.018922837
32	0xbd37a8df	-0.044838782
33	0x3b7f0b5f	0.003891669
34	0xbd7d37c8	-0.061820775
35	0xbcc84f94	-0.024452008
36	0xbd06a94f	-0.03287631
37	0xbd728efb	-0.059218388
38	0xbd96d4cf	-0.07364809
39	0xbcf7d5a4	-0.030253239
40	0xbd27afa0	-0.040938973
41	0xbc8790fb	-0.016548624
42	0xbcb5bf59	-0.022185968
43	0xbdbff5e8	-0.09373075
44	0xbb780722	-0.0037846048
45	0xbddff14b	-0.10934695
46	0xbc5fae48	-0.013652392
47	0xbd37c8e4	-0.04486932
48	0xbd13455f	-0.03595483
49	0xbd3a7a05	-0.045526523
50	0x3ba2028e	0.004944152
51	0x3c769fe4	0.015052769
52	0xbbdc2cb7	-0.0067191976
53	0xbc8f2aa3	-0.017476385
54	0x3c1fe6c7	0.009759611
55	0xbbbb3e7d	-0.0057142363
56	0xbd2c5025	-0.04206862
57	0x3c137464	0.008999918
58	0xbaa226d8	-0.0012371195
59	0xbc9d7f9b	-0.019225886
60	0x3cc25bfc	0.023725502
61	0xbc8bc20e	-0.017060306
62	0xbb42fe14	-0.0029753493
63	0xbd19f578	-0.037587613

classifier.weight f4 [22, 64]
0	0xbd423f78	-0.04742381
1	0xbd0b6e44	-0.034040704
2	0x3d0a8420	0.03381741
3	0x3da36b53	0.07979455
4	0xbc23447d	-0.009965059
5	0x3de06a5f	0.10957789
6	0x3ded9bb6	0.11601965
7	0x3d91fb5f	0.07128023
8	0xbd3c7391	-0.04600865
9	0xbd938d92	-0.07204737
10	0xbca7e1c5	-0.020493397
11	0x3bdeed75	0.0068032094
12	0xbd3d6288	-0.046236545
13	0x3c869fd2	0.01643363
14	0x3bc6eaa1	0.0060704504
15	0x3d8c2fec	0.06845078
16	0xbcdfe256	-0.027329605
17	0x3da6297c	0.08113381
18	0xbdea1f97	-0.114318065
19	0xbda1a09e	-0.078919634
20	0xbbcab03f	-0.006185561
21	0xbd315e82	-0.04330302
22	0xbce919ed	-0.028454745
23	0x3dae897f	0.08522319
24	0xbdc41218	-0.095737636
25	0xbdbc0c4a	-0.091820315
26	0xbde9d7e3	-0.1141813
27	0x3ca6d2e8	0.02036424
28	0x3dbfd14b	0.09366091
29	0x3d80e161	0.062929876
30	0xbd28106f	-0.041031297
31	0xbd0e7046	-0.03477504
32	0xbd0b4055	-0.0339969
33	0x3b806957	0.0039188075
34	0xbd7a075f	-0.061042186
35	0xbc1c0c00	-0.009524345
36	0xbd39ce21	-0.045362595
37	0xbdb65836	-0.08903544
38	0xbdbffe94	-0.09374729
39	0xba61e117	-0.000861661
40	0xbc1181b9	-0.008881026
41	0x3db57d4f	0.08861791
42	0xbd542f62	-0.051803
43	0xbde8b795	-0.113631405
44	0x3b38064c	0.0028079925
45	0xbe1bc77d	-0.15212817
46	0x3d460cb1	0.048351947
47	0x3da3e52b	0.08002695
48	0xbce52446	-0.027971398
49	0x3d8976c4	0.06712106
50	0x3d6aa622	0.057287343
51	0x3d0df448	0.034656793
52	0xbdc9a12d	-0.09845195
53	0xbc0a8388	-0.008454211
54	0x3d2f2f84	0.042769924
55	0xbdad9cd9	-0.08477182
56	0xbd7d4ce2	-0.0618409
57	0x3da00712	0.078138486
58	0xbc4d569b	-0.012532855
59	0xbdaf8639	-0.08570523
60	0x3da41311	0.08011449
61	0x3df08c5d	0.11745522
62	0x3d580d06	0.052746795
63	0xbd5ac4e1	-0.053410415
64	0x3d80be23	0.06286266
65	0x3cbaf324	0.022821017
66	0x3c16cbfc	0.009203907
67	0x3db69c25	0.08916501
68	0x3dd19fd2	0.102355614
69	0xbcaeec8c	-0.021353029
70	0xbbba6237	-0.0056879777
71	0xbca1ad04	-0.01973582
72	0x3b472e60	0.0030392632
73	0x3dd7f026	0.105438516
74	0x3c8802e2	0.016602937
75	0x3e0bf21b	0.13666575
76	0x3d5e8117	0.05432233
77	0x3d68e3ca	0.05685786
78	0x3bfaa129	0.0076486063
79	0x3d735c3f	0.059414145
80	0x3ceb2368	0.028703406
81	0x3d4ae97b	0.04953907
82	0x3bdb239f	0.006687596
83	0xbd2689f5	-0.04065891
84	0x3d911a14	0.07085052
85	0x3c8bdb01	0.017072203
86	0x3d2d036c	0.04223959
87	0x3ab2d61f	0.0013644135
88	0xbd8b5800	-0.06803894
89	0xbd2a33d5	-0.041553337
90	0xbdec5340	-0.11539316
91	0x3db7d13d	0.08975456
92	0x3d152adc	0.036417827
93	0x3cc336be	0.023829814
94	0x3d2a665e	0.04160153
95	0x3ca85823	0.02054984
96	0x3dd6ac93	0.10482135
97	0x3b7c752d	0.003852199
98	0xbbd86fb8	-0.006605115
99	0x3ccb2383	0.024797207
100	0x3d2fb45a	0.042896606
101	0xbd0e6c11	-0.03477103
102	0x3da496fc	0.080366105
103	0xbb4d8778	-0.0031361263
104	0xbc360ec3	-0.011111918
105	0x3d2fff2e	0.042967968
106	0x3dc130cf	0.094331376
107	0xbc094802	-0.008378984
108	0x3cf6ff1c	0.030150943
109	0xbe1be081	-0.1522236
110	0xbc3fdc0c	-0.011710178
111	0x3e041f58	0.12902582
112	0x3d44d9ae	0.048059158
113	0xbc12fa36	-0.008970788
114	0xbd110948	-0.035409242
115	0xbd7d6ad7	-0.06186947
116	0x3e0991ee	0.13434574
117	0x3bf9d3fe	0.0076241484
118	0x3960a999	0.00021425485
119	0xbc0f9984	-0.008764628
120	0xba8f44f4	-0.0010930584
121	0xbc6a5281	-0.014301897
122	0xbd2b2d62	-0.041791327
123	0xbe289a22	-0.16465047
124	0x3c90f09e	0.01769286
125	0x3d214374	0.03937097
126	0x3d8091da	0.06277819
127	0xbd86d959	-0.065844245
128	0xbd15f83e	-0.036613695
129	0xbc321ae0	-0.010870665
130	0x3c1205d1	0.00891252
131	0x3d1ff380	0.03905058
132	0x3cccd7f8	0.025005326
133	0xbbcc6f4f	-0.006238855
134	0xbd9c5dde	-0.07635091
135	0xbcf2abdd	-0.029622966
136	0xb97f9bb8	-0.00024376705
137	0x3dc477b4	0.09593144
138	0x3dc035c9	0.09385259
139	0xbcc6c9a3	-0.02426607
140	0x3c057c9d	0.008147386
141	0x3d0d71d6	0.03453239
142	0x3dcff94a	0.1015497
143	0xbbe506dd	-0.0069893436
144	0x3c52d2f9	0.012867683
145	0x3c97bdab	0.018523058
146	0xbd2f9c43	-0.042873632
147	0xbd10f31d	-0.0353881
148	0xbd89a3f8	-0.06720728
149	0xbcbff3fa	-0.023431767
150	0xbd23af98	-0.03996238
151	0xbd7db094	-0.061935976
152	0xbdfb0246	-0.12256293
153	0xbe0feee1	-0.14055969
154	0xbd0a0263	-0.033693682
155	0xbb0049b8	-0.001957519
156	0x3dd0603f	0.101746075
157	0x3c8c91dc	0.017159395
158	0x3d8439c8	0.064563334
159	0xbd0f35ee	-0.03496354
160	0xbca00883	-0.019535309
161	0x3d502126	0.050812863
162	0x3b45f831	0.0030207748
163	0x3c8ec655	0.017428556
164	0x3db91355	0.090368904
165	0x3cfe066d	0.031008923
166	0x3d8c1e29	0.0684169
167	0x3a0d1103	0.0005381258
168	0xbc644e67	-0.013934708
169	0x3ba58d7c	0.0050522666
170	0x3dcc9efc	0.09991261
171	0xbcf199e6	-0.02949233
172	0x3cd736e0	0.026271284
173	0xbde03f67	-0.10949593
174	0x3c9d4ee8	0.019202664
175	0xbcf4bd26	-0.02987535
176	0xbd04e4bc	-0.0324447
177	0xbc31b00f	-0.010845198
178	0x3dc82e14	0.09774414
179	0x3cb4b335	0.022058109
180	0xbd453c07	-0.04815295
181	0x3d0de3d4	0.034641102
182	0x3d182efd	0.037154187
183	0xbc975a4c	-0.018475674
184	0x3d29c728	0.041449696
185	0x3e0fc2a4	0.14039093
186	0xbc95b2db	-0.018273761
187	0x3d88c552	0.06678261
188	0x3dec6761	0.115431555
189	0xbd1421b4	-0.036164954
190	0xbd1ccb9c	-0.038280115
191	0xbded2bf4	-0.11580649
192	0x3c5f78f0	0.013639674
193	0x3c1c7ffd	0.009551999
194	0x3b6051a1	0.0034228342
195	0xbdd10c6c	-0.102074474
196	0xbd33de7d	-0.043913353
197	0xbcae6944	-0.021290429
198	0xbca420b4	-0.020035125
199	0x3d5cfe1c	0.053953275
200	0xb93108bb	-0.00016883288
201	0x3d258e31	0.040418807
202	0x3d01bd6f	0.0316748
203	0x3e03164c	0.12801474
204	0x3bfa9c34	0.0076480154
205	0x3daaac73	0.08333673
206	0xbc5e6c54	-0.013575632
207	0xbdb4518a	-0.08804615
208	0x3c83b56e	0.016077723
209	0xbd01b0c1	-0.031662706
210	0x3d10cd89	0.035352264
211	0xbdb40869	-0.087906666
212	0xbd4047b5	-0.046943385
213	0xbd17a8fa	-0.037026383
214	0x3da48033	0.080322646
215	0x3dd1c309	0.10242278
216	0xbddbdf98	-0.107360065
217	0xbe5a9637	-0.21346365
218	0xbdd6ef14	-0.10494819
219	0xba9f0c99	-0.0012134492
220	0x3c3920f5	0.0112993615
221	0x3b818178	0.0039522015
222	0x3d592b4c	0.053019807
223	0xbcfb0f7f	-0.030647038
224	0x3d47abd2	0.048747845
225	0xbda9620c	-0.08270654
226	0x3c5cae6f	0.013469323
227	0x3d1b46b4	0.037909225
228	0x39bf4c27	0.00036487097
229	0x3c93e4df	0.01805347
230	0x3cea6ea1	0.028617205
231	0x3a231c46	0.00062221696
232	0x3b50bdf4	0.0031851502
233	0xbb75bb9a	-0.0037495852
234	0xbc855a86	-0.016278517
235	0xbd261f83	-0.040557396
236	0x3d35801b	0.044311624
237	0xbe6bf95e	-0.23044345
238	0x3cc5d20a	0.024148006
239	0xbd022f22	-0.03178323
240	0x3d71debd	0.05905031
241	0xbb2da711	-0.0026497284
242	0x3dacfba0	0.08446431
243	0xbd8a2d25	-0.06746892
244	0xbbaa48e4	-0.0051966775
245	0x3d9c8453	0.07642426
246	0xbdbf7ad8	-0.093496025
247	0xbdefe21e	-0.1171305
248	0xbd42a652	-0.047521897
249	0xbd50174d	-0.05080347
250	0x3c8b663f	0.017016528
251	0x3c1ef1b3	0.00970118
252	0xba1a2c36	-0.0005881222
253	0x3d709f97	0.058745947
254	0x3d087e35	0.033323485
255	0xbd693865	-0.056938548
