Models/thesis_LwF_CL_1_0.pth (torch, 289300 bytes, 13 tensors)

active_units i1 [22]
0	0x00	0
1	0x00	0
2	0x00	0
3	0x00	0
4	0x00	0
5	0x00	0
6	0x00	0
7	0x00	0
8	0x00	0
9	0x00	0
10	0x00	0
11	0x00	0
12	0x00	0
13	0x00	0
14	0x00	0
15	0x00	0
16	0x00	0
17	0x00	0
18	0x00	0
19	0x00	0
20	0x00	0
21	0x00	0

features.0.weight f4 [32, 3, 3, 3]
0	0x3dbbca7d	0.09169481
1	0xbd402e38	-0.046919078
2	0xbd11f8f1	-0.0356378
3	0xbd8f5ac4	-0.06999734
4	0x3d916b83	0.07100584
5	0xbcfe1a0b	-0.031018278
6	0xbe03086e	-0.12796184
7	0xbd92f8ec	-0.07176384
8	0xbd028f2e	-0.031874828
9	0xbdee09d5	-0.11622969
10	0xbdcb3ba4	-0.09923485
11	0xbdba13ea	-0.090858296
12	0x3cc3c0c9	0.023895638
13	0xbd358020	-0.044311643
14	0xbda5e2c3	-0.08099892
15	0xbe37b87c	-0.17941469
16	0x3d1c96f3	0.038229894
17	0x3da9b6d9	0.082868285
18	0xbe1aa775	-0.15102942
19	0xbdc9b92c	-0.09849772
20	0xbd8eedee	-0.06978975
21	0xbc910ea4	-0.017707177
22	0x3d36ef30	0.0446617
23	0x3d8bf268	0.06833345
24	0xbd0f9ba8	-0.035060555
25	0xbdd52a75	-0.10408489
26	0xbd126107	-0.035737064
27	0x3c037454	0.00802334
28	0x3ba5556c	0.0050455835
29	0x3b261573	0.0025342375
30	0xbc77b26c	-0.015118223
31	0xbab84ba4	-0.0014060629
32	0x3c054d66	0.008136129
33	0xbafe1c75	-0.0019387143
34	0x3c239ffe	0.009986876
35	0xbc05a1a4	-0.008156214
36	0xbb12fe42	-0.0022429381
37	0xbba7d5d6	-0.005121927
38	0x3b26cf9c	0.0025453335
39	0x3b09997e	0.002099603
40	0xba4393da	-0.0007460691
41	0xbbd9947f	-0.0066400166
42	0x3bf4b1d8	0.0074674897
43	0x3b3effff	0.0029144285
44	0x3bbd43bb	0.0057758964
45	0x3b69a2ac	0.0035649939
46	0xbca389cf	-0.019963173
47	0xbb75040a	-0.003738644
48	0x3c27179c	0.0101985
49	0xbb91eed8	-0.004453521
50	0x3ab368a4	0.0013687802
51	0xbae5f45a	-0.0017544136
52	0x3be0bdf6	0.0068585826
53	0x3be5d718	0.0070141666
54	0xbca451e4	-0.02005858
55	0xbde7315d	-0.11288712
56	0x3d824a5a	0.06361838
57	0x3d3041a5	0.043031354
58	0xbd1673aa	-0.0367314
59	0xbd9570fe	-0.07296942
60	0xbd0422ae	-0.032259636
61	0x3d75e120	0.06002915
62	0xbd60de9e	-0.054899804
63	0xbd45d9b3	-0.048303317
64	0xbbf1f4e5	-0.00738393
65	0xbd652d13	-0.05595119
66	0xbd34287d	-0.043983925
67	0x3be7cf7e	0.0070742955
68	0xbd1207a9	-0.035651837
69	0xbd30b37e	-0.043139927
70	0xbd40ac90	-0.04703957
71	0xbbd63e0f	-0.0065381597
72	0xbbc33b85	-0.005958023
73	0xbd1f6e25	-0.0389234
74	0x3bd03313	0.006353745
75	0x3d8d929c	0.06912729
76	0xbdc57733	-0.09641876
77	0xbdb2d463	-0.08731916
78	0xbd2f52aa	-0.042803444
79	0xbdde6c81	-0.10860539
80	0xbcee6c5c	-0.029104404
81	0x3df210af	0.118195884
82	0xbd27cae7	-0.040964987
83	0xbcb4568b	-0.022013923
84	0xbe42ec4a	-0.1903545
85	0xbe4e9b10	-0.20176339
86	0xbd137501	-0.036000255
87	0xbdabe2a4	-0.08392838
88	0xbdf946a2	-0.12171675
89	0x3c702855	0.014658053
90	0xbdf63bc4	-0.12023118
91	0xbd538bf4	-0.05164714
92	0xbd714f2e	-0.058913402
93	0xbddf522d	-0.10904346
94	0xbe207169	-0.15668263
95	0xbd961b85	-0.07329468
96	0xbdff3a77	-0.12462323
97	0x3d38b4ef	0.045094427
98	0xbdf203f5	-0.11817161
99	0x3bc0e31d	0.005886449
100	0xbdaad0d7	-0.08340614
101	0x3d78c45b	0.060734134
102	0x3d916f8f	0.07101356
103	0x3dc1d782	0.09464933
104	0xbd5ff9e4	-0.054681674
105	0x3dd64dda	0.10464068
106	0xbb4a28cd	-0.0030847073
107	0x3d93ae6e	0.07211004
108	0xbc454cfe	-0.012042282
109	0xbc3376e7	-0.0109536415
110	0xbbda7870	-0.0066671893
111	0xbbc32233	-0.0059550046
112	0xbb32c3e0	-0.0027277395
113	0x3bc120bc	0.005893795
114	0xbc21acd0	-0.009867862
115	0xbbbf894c	-0.0058452245
116	0xbcce02ce	-0.025147822
117	0x3bc37b3e	0.0059656193
118	0xbacad9d8	-0.00154763
119	0x3af6add2	0.0018820113
120	0x3acff031	0.0015864429
121	0xbba44c06	-0.0050139455
122	0x3ad18412	0.0015984795
123	0x3c34e85c	0.011041727
124	0xbc09cf35	-0.008411218
125	0x3c0d85dd	0.0086378725
126	0xbc04f677	-0.008115402
127	0xbc0d13f0	-0.0086107105
128	0xbc61fe3f	-0.013793527
129	0xbc509cda	-0.012732709
130	0xbc3379e4	-0.010954354
131	0xbc108d29	-0.008822718
132	0xbc7608bb	-0.01501673
133	0xbbb46081	-0.005504668
134	0xbc05d90a	-0.008169422
135	0xbc783db5	-0.015151431
136	0xbc936a1c	-0.017994933
137	0xbccde974	-0.025135733
138	0xbc6bf653	-0.01440199
139	0xbc9af4a0	-0.018915474
140	0xbc8285ca	-0.015932936
141	0xbc9e57a7	-0.019328905
142	0xbcaac502	-0.020845894
143	0xbca525d1	-0.020159634
144	0x3a275111	0.0006382624
145	0x3a894f0f	0.0010475832
146	0xbc8c087b	-0.017093888
147	0xbb2c6ddc	-0.0026310598
148	0xbbc94d08	-0.006143216
149	0x3b60c675	0.0034297977
150	0xbb63e91e	-0.00347764
151	0x3c1d99ec	0.009619217
152	0x3bfdf563	0.0077501996
153	0xbc99ccc8	-0.018774405
154	0xbc096288	-0.008385308
155	0xbc0a4cad	-0.0084411325
156	0xbc9e9168	-0.019356444
157	0xbd051583	-0.03249122
158	0xbcc3d3c1	-0.023904683
159	0xbd0fd403	-0.0351143
160	0xbd3e71f4	-0.046495393
161	0xbd033a16	-0.032037817
162	0x3d77600a	0.060394324
163	0x3def19fe	0.116748795
164	0xbdc0f2e6	-0.09421329
165	0xbdc8cac7	-0.09804302
166	0xbcb2d8f9	-0.021831976
167	0xbe4b2632	-0.19838789
168	0x3da0a079	0.07843108
169	0x3c9f4232	0.019440744
170	0xbe000bb0	-0.12504458
171	0x3ddee5d7	0.10883682
172	0x3d959bb3	0.07305088
173	0xbdcd8b11	-0.100362904
174	0xbd4e8295	-0.0504175
175	0x3da0d60a	0.07853325
176	0x3cca92be	0.024728175
177	0x3d527b92	0.051387377
178	0xbd62abcd	-0.055339623
179	0x3d638410	0.055545866
180	0x3d11995a	0.035546638
181	0x3df556f6	0.11979477
182	0xbde72682	-0.11286642
183	0x3d8a47e5	0.06751994
184	0x3cb51429	0.02210434
185	0x3dea9efe	0.114561066
186	0xbddd824c	-0.10815868
187	0xbc7c45b1	-0.015397475
188	0xbc64a76b	-0.013955931
189	0x3a967802	0.0011479857
190	0x3b92f0ba	0.0044842632
191	0xbc35b302	-0.011090042
192	0xbc957e8e	-0.018248823
193	0x3b8d90fe	0.004320263
194	0x3babf24f	0.0052473913
195	0xbb3ab5fe	-0.0028489823
196	0xb9f5c438	-0.00046876236
197	0xbc0e436c	-0.008683067
198	0xba4173fa	-0.00073796476
199	0x3c5edd80	0.013602614
200	0x3b763952	0.0037570787
201	0xbb17dfe2	-0.0023174216
202	0x3b3307f4	0.0027317973
203	0x3bcca264	0.0062449444
204	0x3bf034a1	0.0073304926
205	0xbb05b5bf	-0.0020402519
206	0xbb74273a	-0.0037254826
207	0xb9daae64	-0.0004171013
208	0xba9a8811	-0.0011789819
209	0xba9ccec0	-0.0011963472
210	0xbbd70e4f	-0.006562985
211	0xbb36d850	-0.0027899928
212	0xbc2b1408	-0.010441788
213	0x3b6d30fe	0.0036192532
214	0xbbe97727	-0.0071248
215	0xba9c8aca	-0.0011943218
216	0x3ded0a75	0.1157426
217	0xbd66d81e	-0.05635845
218	0x3dcff6a5	0.101544656
219	0xbd87e6c0	-0.06635809
220	0xbe0a9207	-0.13532268
221	0x3dd97c50	0.10619414
222	0xbbd601cc	-0.006530976
223	0x3da29137	0.07937854
224	0x3d022128	0.0317699
225	0xbd49ae22	-0.04923833
226	0x3d3a9c9b	0.045559507
227	0xbddd03ea	-0.10791762
228	0x3dae5a77	0.085133485
229	0x3d5a834b	0.053347867
230	0xbd9b5334	-0.07584229
231	0xbe17401a	-0.14770547
232	0xbae8594e	-0.001772681
233	0xbe19b832	-0.15011671
234	0x3d748140	0.059693575
235	0xbe100729	-0.14065231
236	0x3e084b3b	0.13309948
237	0xbd13a7d5	-0.03604873
238	0x3da70507	0.08155256
239	0xbce873f7	-0.028375609
240	0x3c42c7ae	0.011888428
241	0x3b3e249c	0.002901352
242	0x3dae760e	0.08518611
243	0xbe03a69b	-0.12856524
244	0x3dbb22e0	0.09137511
245	0xbbc3dae7	-0.005977023
246	0xbd59ebe0	-0.053203464
247	0xbdcf9fad	-0.101378776
248	0xbd12dba7	-0.035854008
249	0xbe133525	-0.14375742
250	0x3cef0bdc	0.02918046
251	0xbddf61a8	-0.10907298
252	0xbcae4422	-0.021272723
253	0xbe083325	-0.1330076
254	0xbe20f4a7	-0.15718327
255	0xbe166b21	-0.14689304

features.0.bias f4 [32]
0	0xbd83a3fe	-0.064277634
1	0xbc1c0bbd	-0.009524283
2	0x3d896779	0.06709189
3	0x3cbbef5a	0.02294128
4	0xbcca965e	-0.024729904
5	0xbce9f84b	-0.028560778
6	0xbdfaea3c	-0.12251708
7	0xbcbb1450	-0.022836834
8	0xbe329a66	-0.17441711
9	0x3da2b329	0.07944328
10	0x3d9b5d73	0.075861834
11	0xbd4059ff	-0.046960827
12	0x3dccf384	0.100073844
13	0xbd389d62	-0.045071967
14	0x3cad1169	0.021126466
15	0xbc920f04	-0.017829426
16	0xbcb3137e	-0.02185988
17	0xbc9b1cf1	-0.018934699
18	0x3d331378	0.04371974
19	0xbc2d3cec	-0.010573607
20	0xbd804a00	-0.062641144
21	0xbc382c94	-0.011241097
22	0xbb86e1b3	-0.004116261
23	0xbd3782ce	-0.04480248
24	0xbd835a60	-0.06413722
25	0x3cf62bac	0.030050121
26	0x3da3cec2	0.0799842
27	0xbde224cd	-0.110421754
28	0xbe1765c4	-0.14784914
29	0xbe080a26	-0.13285121
30	0x3cf9526d	0.030434811
31	0xbe30ddbd	-0.17272086

features.2.weight f4 [32, 32, 3, 3]
0	0xbca7a5e8	-0.020464852
1	0xbd521f3e	-0.051299326
2	0xbd04afe4	-0.032394305
3	0xbd252556	-0.04031881
4	0xbc88c50b	-0.01669552
5	0xbc9ca88f	-0.019123344
6	0xbd4b70a9	-0.049667988
7	0xbcf84d20	-0.030310214
8	0xbd7891cb	-0.060685914
9	0x3b13d613	0.0022558018
10	0x3b59ccd8	0.0033233669
11	0x3723e2c0	9.768351e-06
12	0x3b1bb1f8	0.00237572
13	0xbac5eb3a	-0.001510001
14	0x3a809b76	0.0009811956
15	0xbb21820c	-0.0024644164
16	0x3ade0237	0.0016937916
17	0x3b1b277e	0.0023674662
18	0xbc0df58b	-0.008664499
19	0xbbf1d7d1	-0.0073804636
20	0xbc071d22	-0.008246692
21	0xbc0f0b22	-0.008730682
22	0xbbe95d2c	-0.0071217027
23	0xbc04c5d0	-0.008103803
24	0xbbfadbf8	-0.007655617
25	0xbbf02210	-0.0073282793
26	0xbbfb3db4	-0.0076672677
27	0x3c7c3ee3	0.015395853
28	0xbc97f8c9	-0.018551247
29	0x391b1bfa	0.00014792374
30	0x3c15e0b7	0.0091478145
31	0xbccec6f8	-0.02524136
32	0x3c5405bc	0.01294082
33	0xbbba135b	-0.005678577
34	0xbc8e35eb	-0.017359694
35	0x3ca2fefa	0.019896973
36	0xbabde1d8	-0.0014486862
37	0x39f12f30	0.0004600226
38	0xbb28e8a6	-0.0025773435
39	0xbadeac94	-0.0016988688
40	0x3af74362	0.0018864686
41	0x3a4ee4b3	0.0007892355
42	0xbb0895e4	-0.0020841295
43	0x3ac45ab0	0.001498064
44	0xb8b3a59c	-8.566232e-05
45	0x3c040e5b	0.008060063
46	0x3bb86289	0.0056269807
47	0x3b1b1d3e	0.0023668553
48	0x3baa7ce4	0.0052028764
49	0x39f17538	0.00046054437
50	0x3b879878	0.0041380487
51	0xba7924e8	-0.00095040957
52	0x3b9e0e73	0.0048235
53	0x3bc44dca	0.0059907185
54	0x3ceb262e	0.028704729
55	0xbc4a51f9	-0.012348645
56	0xbd818b14	-0.06325355
57	0xbd652b49	-0.055949483
58	0x3c960b92	0.018316064
59	0xbc1a758f	-0.009427442
60	0xbc43aeea	-0.011943558
61	0xbce7be37	-0.028288944
62	0xbcbd7b9a	-0.023130227
63	0x3a29bb60	0.00064747594
64	0xba5b549f	-0.00083667965
65	0x39e2082f	0.00043112176
66	0xba3055d0	-0.0006726654
67	0x3988d60c	0.0002609942
68	0x3acd396b	0.0015657371
69	0xbabeeb46	-0.0014565967
70	0xbaab0c80	-0.001304999
71	0x3acb3ef8	0.0015506437
72	0xbd5e6807	-0.054298427
73	0x3c83ad16	0.016073745
74	0x3bd8e268	0.0066187866
75	0xbc75a350	-0.01499255
76	0xbb203e7c	-0.0024451306
77	0x3c3bfcf7	0.011473886
78	0x3c3e9ba3	0.011633786
79	0x3c310ed0	0.010806754
80	0xb92f6ee2	-0.00016730608
81	0x3b181154	0.0023203688
82	0x3ca33c13	0.019926107
83	0xbc83bd14	-0.01608137
84	0xbd58e363	-0.052951228
85	0xbbb9fd44	-0.0056759436
86	0x3b63ec8a	0.003477844
87	0xbcac6e3e	-0.021048661
88	0xbc4db778	-0.012555949
89	0x3c30f7a1	0.010801227
90	0xbb90fb0d	-0.004424459
91	0xbd0b739a	-0.034045793
92	0xbd4e46a0	-0.050360322
93	0xbce9f084	-0.02855707
94	0x3c5360f3	0.012901532
95	0xbc39eb09	-0.011347541
96	0xbc708b73	-0.014681685
97	0xbc55eb63	-0.013056609
98	0xbd4c548b	-0.049885314
99	0x3bc915de	0.00613664
100	0xbb5d59e0	-0.0033775494
101	0x3bd296ac	0.006426653
102	0xbc97c880	-0.018528223
103	0xbad8e48b	-0.0016547603
104	0xbc66ac2c	-0.014079135
105	0xbc07939a	-0.008274937
106	0xbc6bf3eb	-0.014401416
107	0x3c8987da	0.016788412
108	0xbbfa421c	-0.0076372754
109	0xb9acc054	-0.00032949692
110	0xbb822ca2	-0.003972606
111	0x3cb864a3	0.022508925
112	0xbb0a84f6	-0.002113638
113	0xbb9f85da	-0.0048682513
114	0xbcd78420	-0.02630812
115	0x3b31d7ac	0.0027136607
116	0xbbfba1dd	-0.0076792077
117	0xbd0bf657	-0.034170475
118	0xbc2e8ea7	-0.010654128
119	0xbc9f6eec	-0.019462071
120	0xbcb62a8e	-0.022237089
121	0xbd41a9a6	-0.04728093
122	0xbd83904a	-0.06424005
123	0xbc8db8ec	-0.017300092
124	0xbceca0fb	-0.028885355
125	0xbd853634	-0.06504479
126	0x3b868864	0.0041056145
127	0x3b77ebe5	0.0037829813
128	0x3b27342e	0.002551328
129	0x3b48bdcc	0.0030630706
130	0x3b391865	0.00282433
131	0x3b125707	0.0022329704
132	0x3b87be19	0.0041425345
133	0x390f48a4	0.00013664603
134	0x3b813a70	0.003943734
135	0x38eb04dc	0.00011206578
136	0xbca05402	-0.019571308
137	0xbd288742	-0.041144617
138	0xbc3c48fc	-0.01149201
139	0xbd32d095	-0.04365595
140	0xbd42fa48	-0.047601968
141	0xbca0c8c3	-0.01962698
142	0xbadfa934	-0.0017063976
143	0xbd58bebf	-0.052916285
144	0x38bbf968	8.9633104e-05
145	0x3a9b731e	0.0011859869
146	0xbaa17f50	-0.0012321267
147	0x3b470736	0.0030369288
148	0x3b9ca81c	0.0047807824
149	0xb84000a0	-4.577695e-05
150	0xbaf6480e	-0.0018789785
151	0x3bc611c0	0.0060445964
152	0x39dd6d28	0.00042233733
153	0xbb462abd	-0.0030237876
154	0x3ad24651	0.0016042684
155	0xba802ce7	-0.0009779007
156	0xba9a6f92	-0.0011782518
157	0x3a1c7d84	0.0005969631
158	0x3a99bf31	0.0011729953
159	0xba8b0b09	-0.0010608147
160	0x3a6231fc	0.0008628664
161	0x3a4294fd	0.00074227137
162	0x3cbca38e	0.023027208
163	0x3c878836	0.016544443
164	0xbd284653	-0.04108269
165	0xb9700cdc	-0.00022892974
166	0x3b815022	0.00394632
167	0xbd1058f1	-0.03524107
168	0xbbd4022b	-0.006469985
169	0x3bc5a1bb	0.0060312427
170	0xbc60d72a	-0.013723174
171	0xba996b4e	-0.0011704953
172	0xb9d2af83	-0.00040185088
173	0xba86d44d	-0.0010286659
174	0x3a959ad7	0.0011413944
175	0x3b4dec76	0.003142146
176	0xba3e1153	-0.00072505063
177	0xbab6a0e1	-0.0013933444
178	0x3a4e5663	0.0007871149
179	0x3b01b3ac	0.001979093
180	0xbcced83e	-0.025249597
181	0xbc8f0923	-0.017460411
182	0xbc919b90	-0.017774373
183	0xbcc26558	-0.023729965
184	0xbcda77f8	-0.026668534
185	0xbcc70e46	-0.024298798
186	0xbcc735e9	-0.024317699
187	0xbcd4055b	-0.02588146
188	0xbcafad91	-0.021445068
189	0xbd5cf339	-0.053942893
190	0xbba6302c	-0.0050716605
191	0x3b0ec379	0.0021783991
192	0xbcea7022	-0.028617922
193	0xbd0e54ae	-0.034748726
194	0xbd17d738	-0.037070483
195	0xbbf21517	-0.007387768
196	0xbcea66a0	-0.028613389
197	0xbc43b587	-0.011945135
198	0x3c2a5dbf	0.010398327
199	0xbb488bb5	-0.003060085
200	0xbd00cdd8	-0.031446308
201	0xbc5e03f7	-0.01355075
202	0xbc9f75d1	-0.019465359
203	0xbd4762d1	-0.048678223
204	0xbce67116	-0.028130095
205	0xbc4e0781	-0.012575031
206	0xbd40685b	-0.04697452
207	0xbab2f92a	-0.0013654579
208	0x3b964c35	0.0045867213
209	0x3b74b928	0.0037341807
210	0x3afdcb34	0.0019362927
211	0x3b8fc3c6	0.0043873517
212	0x3b9cba50	0.0047829524
213	0x37318880	1.05818035e-05
214	0x3bc2b74f	0.0059422622
215	0x3bd500c4	0.0065003354
216	0xbced7b23	-0.02898938
217	0xbd416fd3	-0.047225785
218	0xbd01c02c	-0.03167741
219	0xbd209c33	-0.039211463
220	0xbd23ce65	-0.039991755
221	0xbd6596eb	-0.05605213
222	0xbd1143a4	-0.035464898
223	0xbd6093e6	-0.054828547
224	0xbd0a6fd6	-0.03379806
225	0xbd110f97	-0.03541526
226	0xbd004319	-0.03131399
227	0xbce77212	-0.028252635
228	0xbcd2dc49	-0.025739806
229	0xbcb33974	-0.021877982
230	0xbd5be2c9	-0.053683076
231	0xbcf05202	-0.02933598
232	0xbcdf0381	-0.02722335
233	0xbd6b46dc	-0.057440624
234	0xbd8467e6	-0.064651296
235	0xbd03c0d9	-0.032166336
236	0xbcbeacdd	-0.023275787
237	0xbca8e758	-0.020618126
238	0x3d0d0f15	0.03443821
239	0xbd8df7f6	-0.069320604
240	0xbd8373d9	-0.064185806
241	0xbd3324a6	-0.043736123
242	0xbbc9b35d	-0.006155415
243	0xbd3bdeb4	-0.045866683
244	0xbcbefd0f	-0.023314027
245	0xbc63c73d	-0.013902483
246	0xbcc82449	-0.024431365
247	0xbd44f172	-0.048081823
248	0xbcc17e3c	-0.023619764
249	0xbcb8094d	-0.022465372
250	0xbcda816a	-0.026673038
251	0xbd6b5c4f	-0.05746108
252	0xbcccc13a	-0.024994481
253	0xbcd0e478	-0.025499567
254	0xbd07b255	-0.033129055
255	0xbcc3e879	-0.023914563

features.2.bias f4 [32]
0	0xbd7af110	-0.06126505
1	0xbb62970f	-0.0034574901
2	0xbbc78367	-0.0060886624
3	0xbcf4632b	-0.029832443
4	0xbc13f131	-0.0090296725
5	0xbd0642a0	-0.032778382
6	0xba0ea08e	-0.00054407946
7	0xbd191759	-0.03737578
8	0x3dccf9a6	0.10008554
9	0x3a2ee31e	0.00066714163
10	0x3d27358f	0.04082256
11	0x3b146557	0.002264341
12	0xbc167f71	-0.009185658
13	0xbc3ca646	-0.011514252
14	0xba7f3b31	-0.0009736298
15	0xbaf857f5	-0.0018947112
16	0x3dab0937	0.08351367
17	0xbc8b8de2	-0.017035428
18	0x39d233a6	0.00040092802
19	0xbd2b09e0	-0.041757464
20	0xbcf87afa	-0.030332077
21	0xbc2c4d0d	-0.010516417
22	0x3b4050c9	0.0029345027
23	0xbc985844	-0.018596776
24	0xbc5b179a	-0.013372326
25	0xbbdf7353	-0.0068191676
26	0x3afc716c	0.0019259877
27	0xbd26b0a6	-0.04069581
28	0xbd166fb4	-0.036727622
29	0x3b7c15f9	0.0038465245
30	0xbc5ee3d4	-0.013604123
31	0xbb63f161	-0.0034781324

features.6.weight f4 [64, 32, 3, 3]
0	0x3af2c466	0.0018521666
1	0xbb0d4eac	-0.0021561785
2	0x3a837654	0.0010029771
3	0x3a7854b4	0.0009473071
4	0x3ab600e1	0.001388576
5	0xbb31906a	-0.0027094134
6	0xb9828a7c	-0.0002489871
7	0x3aa45ed9	0.0012540474
8	0x3b20dc8c	0.0024545519
9	0x39db45bc	0.0004182289
10	0x3a22ada0	0.0006205682
11	0xba04875b	-0.000505557
12	0x3ab6b49b	0.0013939323
13	0xbb2a3d22	-0.002597638
14	0xbb3cd742	-0.0028814827
15	0xb99fd0d0	-0.0003048242
16	0x38aa1240	8.109631e-05
17	0x39fdc8df	0.0004840558
18	0xbac9d6af	-0.0015399064
19	0xbb0bf1de	-0.002135388
20	0xbb4ca57d	-0.0031226568
21	0xb9e81bb2	-0.00044271123
22	0xbb300493	-0.0026858195
23	0x3b3c3499	0.0028717874
24	0xbadfe4fc	-0.0017081792
25	0x3a8ee9e1	0.0010903442
26	0xba2219cb	-0.0006183653
27	0x39337e30	0.00017117779
28	0x39f0be69	0.00045918234
29	0xb918a104	-0.00014555833
30	0x3aa9d2c6	0.0012956492
31	0x3a2fd2a2	0.0006707107
32	0x39625d24	0.00021587737
33	0x3b1b58f8	0.0023704153
34	0x3b21c31a	0.002468294
35	0xba6e7b50	-0.00090973545
36	0xb9faf5ac	-0.00047866756
37	0xbb6ec4b3	-0.003643316
38	0xbb899376	-0.004198487
39	0xb9241b40	-0.0001565041
40	0x3a972352	0.0011530912
41	0xbad9cc14	-0.0016616606
42	0xbaab7b7f	-0.0013083069
43	0xbb54aa44	-0.003245012
44	0x3b1868fc	0.0023255935
45	0x3a023a4d	0.0004967794
46	0xba311cb4	-0.0006756291
47	0x3b0b0d50	0.0021217652
48	0xba955fa0	-0.0011396296
49	0x396c1d8c	0.00022517721
50	0xba962696	-0.0011455591
51	0xba47beb7	-0.0007619666
52	0xbb0673e7	-0.002051586
53	0x3ad1ef44	0.0016016741
54	0xba432880	-0.00074446946
55	0xbaa5ead3	-0.0012658484
56	0x3a2a0efe	0.00064872194
57	0x3aeee9af	0.0018227602
58	0x39ebfea2	0.0004501241
59	0xbb5b04f6	-0.0033419705
60	0xbac40867	-0.0014956117
61	0xba6944fa	-0.0008898523
62	0xbb693231	-0.0035582895
63	0xbb390f1e	-0.002823777
64	0x3a98e462	0.0011664743
65	0x3b3ec444	0.0029108683
66	0x3b9ee119	0.004848611
67	0x3b9e2b71	0.004826956
68	0xba37267f	-0.00069866324
69	0x3b41112b	0.0029459696
70	0x3b5fd972	0.0034156707
71	0x3b3fcd79	0.0029266758
72	0x3b9a172f	0.0047024707
73	0xbb5210ae	-0.00320534
74	0x3ae17048	0.00171996
75	0x3b0a8638	0.002113713
76	0xbb36c433	-0.002788794
77	0xba6d76fc	-0.00090585626
78	0x3a38bb74	0.00070469757
79	0xbb25d7a6	-0.0025305538
80	0x37f345c0	2.9000337e-05
81	0xbae6e085	-0.001761452
82	0xbb1bceb3	-0.0023774325
83	0x3b9ba9e4	0.004750477
84	0x3951f498	0.00020022911
85	0xbb1c35ae	-0.0023835707
86	0x3a2308a4	0.0006219244
87	0x3b0843ad	0.002079229
88	0xbb4a472a	-0.003086517
89	0xbbbfc8c0	-0.0058527887
90	0xbb3f50b4	-0.002919239
91	0xb8c8aa28	-9.568437e-05
92	0x3b90b4c7	0.0044160816
93	0xbacb1b0a	-0.0015495729
94	0xbb53c8da	-0.0032315762
95	0xbb826dd4	-0.0039803777
96	0x39305828	0.00016817509
97	0xbb2c26cc	-0.0026268242
98	0xbb008ded	-0.0019615844
99	0x3a19c730	0.0005866168
100	0x3b478ec1	0.0030450078
101	0x39c4a6be	0.00037508266
102	0x3a4ebd09	0.0007886445
103	0xba94966b	-0.0011336332
104	0xbad0586d	-0.0015895494
105	0x3b4a223d	0.0030843162
106	0x3b2fa8fd	0.0026803606
107	0x3990486c	0.0002751978
108	0xba80bf4e	-0.0009822638
109	0xb9134830	-0.00014045904
110	0x38a7a910	7.994671e-05
111	0xbac278a4	-0.0014836979
112	0xbaf335ee	-0.0018555501
113	0x3a07749c	0.00051672175
114	0x3b52c553	0.0032161071
115	0x3ab7f0f0	0.0014033597
116	0xbb4d2a45	-0.0031305712
117	0x39b5799c	0.00034613616
118	0xba5a5c6e	-0.0008329813
119	0x3a91eefc	0.0011133845
120	0x3aff2fb2	0.001946917
121	0xba90aee2	-0.0011038447
122	0x3a9b3330	0.0011840817
123	0x3aa01ae4	0.0012215045
124	0x3b3baa4b	0.0028635438
125	0x3a24692a	0.0006271774
126	0x3ada8664	0.0016672132
127	0xbb452aa5	-0.0030085233
128	0xbb53a6ac	-0.003229539
129	0x3a828e25	0.0009960575
130	0x3b03a4dd	0.002008728
131	0x3b898903	0.0041972413
132	0xb97d5d14	-0.00024162635
133	0x396f968c	0.00022848899
134	0x3aaf584e	0.0013377757
135	0x3b1e4e41	0.002415553
136	0xba7c8588	-0.0009632935
137	0x3b03540a	0.0020039105
138	0xba622dc0	-0.0008628033
139	0xbaeefe82	-0.0018233808
140	0x3aa79aed	0.001278726
141	0x3b3852f6	0.002812562
142	0x3b015429	0.0019734001
143	0xbb24a6ce	-0.0025123837
144	0x3af9888c	0.0019037887
145	0x3ad03318	0.0015884368
146	0xbaccc08a	-0.0015621346
147	0xbb90d236	-0.0044195903
148	0x3b9cc557	0.004784267
149	0xbb325e0c	-0.00272167
150	0x3a2850fe	0.000642076
151	0xbb990e7b	-0.0046709157
152	0x3b4e5fb9	0.003149016
153	0xb9fa7746	-0.00047772581
154	0x3af56334	0.0018721581
155	0xbb262c8b	-0.002535614
156	0xba99b160	-0.0011725836
157	0xba8d1344	-0.0010763188
158	0xb951234c	-0.00019944942
159	0xbab56b50	-0.0013841186
160	0xbaae6324	-0.0013304693
161	0x3b32435e	0.0027200799
162	0xb9c96050	-0.00038409466
163	0x3b14e170	0.002271738
164	0xba8cefd2	-0.0010752624
165	0x3a08e752	0.00052224577
166	0x3a35b7ff	0.00069320196
167	0x3b010e9f	0.0019692553
168	0x39fcb0dd	0.0004819696
169	0xba5acf2d	-0.00083469116
170	0x3a041f46	0.00050400605
171	0xb84912a0	-4.793948e-05
172	0xba7b9cbf	-0.0009598247
173	0xbba9ce78	-0.0051820837
174	0xbb23b42c	-0.0024979217
175	0xbb4c4962	-0.003117167
176	0xbbc6c38c	-0.0060657915
177	0xbb35f9b0	-0.0027767234
178	0x3b6a0b14	0.003571217
179	0xbb4af822	-0.0030970653
180	0xb8b8c080	-8.8096596e-05
181	0xbb1f2919	-0.002428597
182	0xbb2fa013	-0.0026798293
183	0xbb4cc2a5	-0.0031243947
184	0x37a94080	2.0176405e-05
185	0x3b1fdf08	0.0024394412
186	0xbb408d68	-0.002938116
187	0xbb0ea0ee	-0.0021763402
188	0x3b90186c	0.0043974426
189	0xba4ac1a0	-0.0007734541
190	0xbb27cd20	-0.0025604442
191	0x39dfff43	0.0004272406
192	0x3a06c404	0.0005140903
193	0xba781640	-0.0009463765
194	0xbae637b2	-0.0017564206
195	0x3ab0076e	0.0013429949
196	0xba0a2843	-0.00052702817
197	0xbacd8253	-0.0015679098
198	0xba681725	-0.00088535465
199	0xb809ca00	-3.2851472e-05
200	0xb8ebe5f4	-0.00011248505
201	0x3ad07d85	0.0015906548
202	0x39a27096	0.0003098293
203	0xba4dc915	-0.0007850093
204	0xbb61ec45	-0.0034473103
205	0x3ac99615	0.0015379811
206	0x38eb203c	0.00011211677
207	0xb96fce00	-0.00022869557
208	0xbbb25128	-0.0054418035
209	0xbb366cd6	-0.0027835867
210	0xbb425797	-0.0029654258
211	0xbb5a7c2c	-0.0033338172
212	0xbb1a4899	-0.0023541807
213	0x398dd42c	0.00027051696
214	0xbb27731d	-0.002555079
215	0xbb2c0c98	-0.0026252624
216	0x39ff33e4	0.00048676052
217	0x383fe9d0	4.5755703e-05
218	0xbaa9e2ee	-0.0012961307
219	0xbad195e6	-0.0015990108
220	0xbb4c8eed	-0.003121312
221	0xbaf99fa6	-0.0019044771
222	0xba2e6f15	-0.0006654126
223	0xba4f9cae	-0.00079197704
224	0xbb3c925e	-0.0028773765
225	0xba955d6c	-0.001139564
226	0xbb2d394a	-0.0026431852
227	0x3adc4fbe	0.0016808433
228	0x3aa33d30	0.0012454148
229	0xbb28b544	-0.0025742808
230	0xbae70ca8	-0.0017627673
231	0x3b3292d8	0.002724817
232	0x3a87516e	0.001032395
233	0x3b151158	0.0022745933
234	0xba91e5cf	-0.001113111
235	0x3a11a237	0.0005555483
236	0xbb0a061c	-0.002106077
237	0x3afd0cf6	0.0019306231
238	0xbb3239c8	-0.0027195085
239	0x3b1b902c	0.0023737056
240	0x3b0067a4	0.0019593025
241	0xbaeaaca8	-0.0017904239
242	0x3983ef34	0.00025164487
243	0x3b093d16	0.002094095
244	0xbb5c3570	-0.0033601187
245	0x39a6bc08	0.00031802082
246	0xbb0ceb14	-0.0021502422
247	0x3a749fd8	0.000933168
248	0x397cf286	0.0002412294
249	0x38974570	7.213175e-05
250	0x3a0af4bb	0.000530075
251	0xb9fa446c	-0.00047734694
252	0x3a1200ba	0.0005569566
253	0xba489960	-0.0007652249
254	0xb9f7e89c	-0.0004728482
255	0xba6e8d02	-0.00090999913

features.6.bias f4 [64]
0	0x3b45c81e	0.0030179094
1	0xbd22150d	-0.039570857
2	0x3d660e86	0.056166194
3	0xbb24e8c8	-0.0025163162
4	0xbce7a860	-0.02827853
5	0x3ba6da55	0.005091945
6	0x3d9a91e5	0.075473584
7	0x3bf037d1	0.0073308726
8	0xbd0729df	-0.032998916
9	0xbd0d0b7d	-0.034434784
10	0xbbc0cb66	-0.005883622
11	0x3d44a513	0.04800899
12	0x3bb877c1	0.00562951
13	0x3d476fbe	0.04869055
14	0xbcf0a822	-0.029377047
15	0xbcad47dc	-0.02115243
16	0x3d4c62ce	0.049898915
17	0x3b64a8d6	0.0034890673
18	0xbd236b2f	-0.03989714
19	0xbd02465d	-0.031805385
20	0xbcb232f8	-0.02175282
21	0x3ba71fc4	0.0051002223
22	0xbd39e404	-0.04538347
23	0xbc418d67	-0.011813498
24	0x3c90e451	0.017686995
25	0xbcab560a	-0.02091505
26	0x3d95e943	0.07319882
27	0xbc138f96	-0.0090064015
28	0xba9868dd	-0.0011627931
29	0xbd5206a1	-0.051275853
30	0x3d6b4ba5	0.057445187
31	0x3cd6d4a5	0.026224444
32	0x3dcf7c51	0.10131133
33	0x3c00b660	0.007855982
34	0xbd26f090	-0.040756762
35	0xbc7b0299	-0.015320444
36	0xbce5626e	-0.028001036
37	0xbcbfbc5b	-0.023405245
38	0xbd01c5a7	-0.031682637
39	0xbcbb7519	-0.022882985
40	0xbd34e0d5	-0.04415973
41	0xbc21a0ce	-0.009864999
42	0x3aa4aa15	0.0012562895
43	0x3c6f18b4	0.014593292
44	0xbca93d6d	-0.020659173
45	0xbd35b312	-0.044360228
46	0x3d81b58c	0.063334554
47	0xbc36f1b2	-0.011166023
48	0xbd91e16f	-0.07123076
49	0x3cdc2cb2	0.026876781
50	0xbc3f270c	-0.011667024
51	0xbd1d3f79	-0.03839061
52	0xbcd98cc4	-0.02655638
53	0x3c69d1d5	0.014271219
54	0x3cc282fc	0.023744099
55	0xbd50a2f0	-0.05093664
56	0x3d1bbfb2	0.03802461
57	0x3d26f5dc	0.040761814
58	0xbccd0bcd	-0.025030041
59	0xbaf5ced7	-0.001875366
60	0xbd0a3906	-0.033745788
61	0xbd49e6be	-0.04929232
62	0xbc9d2a6b	-0.019185266
63	0xbd24e4d5	-0.040257294

features.8.weight f4 [64, 64, 3, 3]
0	0xba54ea57	-0.00081220776
1	0xb9bf0394	-0.00036433025
2	0x3a5ac3de	0.00083452265
3	0xba160d03	-0.0005723985
4	0x36fe1540	7.5722637e-06
5	0xb96ae090	-0.00022399635
6	0x39bb09d4	0.00035674742
7	0xba554966	-0.00081362424
8	0xba325eba	-0.00068042765
9	0x3a0b3fd9	0.0005311943
10	0x3a86019c	0.0010223868
11	0xbb07e5b0	-0.002073627
12	0x3aa6bdae	0.0012721324
13	0x3a80ba63	0.0009821173
14	0xbb3a9115	-0.0028467823
15	0x3b4cb187	0.0031233744
16	0xb9d50db6	-0.0004063674
17	0x3a1ba336	0.0005937101
18	0xbcc012d5	-0.02344648
19	0xbd20ea87	-0.039286163
20	0xbc0bd319	-0.008534216
21	0x3a656f9a	0.00087522867
22	0xbbfd0921	-0.0077220355
23	0xbb0ae363	-0.0021192662
24	0xbcbb2507	-0.022844804
25	0xbc31db10	-0.010855451
26	0xbcbab619	-0.022791909
27	0x3a3baa3e	0.0007158852
28	0x3ae3671c	0.0017349455
29	0x3b499081	0.0030756297
30	0xb9e60b7b	-0.00043877572
31	0x3abd9418	0.0014463691
32	0x3894b100	7.090159e-05
33	0x3a3f4388	0.0007296135
34	0xba0babe0	-0.00053280406
35	0x3a096f4d	0.00052427204
36	0xb9a89fe8	-0.00032162596
37	0xbaae1b23	-0.0013283234
38	0xba35cada	-0.0006934829
39	0x3b59bd3d	0.0033224367
40	0x3ac2991b	0.0014846654
41	0xb96db75c	-0.00022670388
42	0x3b30b54b	0.0026963528
43	0xb9d9eae8	-0.00041564484
44	0x3622f700	2.4283654e-06
45	0xba8d660a	-0.0010787856
46	0xba8c52d8	-0.0010705842
47	0x3a2c5658	0.00065741455
48	0xbb7b3e1a	-0.0038336576
49	0x3aa7ca48	0.0012801373
50	0x3a80ff48	0.0009841705
51	0xbb09a5a5	-0.0021003273
52	0xba4ff95c	-0.0007933581
53	0xbab014f6	-0.0013433981
54	0xbcc2de5b	-0.023787668
55	0xbd0c34cb	-0.034230035
56	0xbcf0b30f	-0.029382257
57	0xbcb9e301	-0.022691252
58	0xbcea7c32	-0.028623674
59	0xbcc90514	-0.024538554
60	0x39e56c6d	0.00043759067
61	0xbba48bb9	-0.005021539
62	0xbd1c399b	-0.038140874
63	0x3a3000ed	0.0006714005
64	0x39265b5a	0.00015865025
65	0xbaa887a1	-0.0012857803
66	0xbb07c604	-0.0020717392
67	0xb9dd231a	-0.00042178557
68	0x3985090e	0.00025374483
69	0xb9eefa5e	-0.00045581436
70	0x3a232426	0.0006223343
71	0xb9045a74	-0.00012622197
72	0xbcccb00f	-0.024986295
73	0xbd00b712	-0.03142459
74	0xbd00a00e	-0.03140264
75	0xbced412f	-0.028961746
76	0xbd1bf2d7	-0.038073387
77	0xbca5e2c2	-0.020249728
78	0xbcb15dc6	-0.02165116
79	0xbc6f988d	-0.014623773
80	0xbd065d3a	-0.03280375
81	0xbc6dd708	-0.0145165995
82	0xbc243f9a	-0.010024929
83	0xbc91d236	-0.017800432
84	0xbcd9250b	-0.026506921
85	0xbce0b751	-0.027431162
86	0xbcd237f2	-0.025661442
87	0xbcdf3fe5	-0.027252147
88	0xbc949e9d	-0.018142039
89	0xbc8a83a1	-0.016908469
90	0xbcb5c192	-0.022187028
91	0xbc8fbde1	-0.017546596
92	0xbd058553	-0.03259785
93	0xbc9ef64b	-0.019404551
94	0xbc8ef197	-0.017449183
95	0xbca84397	-0.020540042
96	0xbd2e7790	-0.042594492
97	0xbc7d49cb	-0.015459488
98	0xbd2d005c	-0.04223667
99	0xbd1d357d	-0.03838109
100	0xbd2aa9e6	-0.041665934
101	0xbd46368f	-0.048391875
102	0xbd03ca93	-0.03217561
103	0xbd2e0adf	-0.042490836
104	0xbd123201	-0.03569222
105	0xbd2a9e75	-0.041655023
106	0xbd31efc9	-0.043441568
107	0xbd2b6c3d	-0.04185127
108	0xbccbc2e6	-0.024873208
109	0xbcfe4efc	-0.031043522
110	0xbd019918	-0.031640142
111	0xbcf31dc3	-0.029677277
112	0xbce27ef0	-0.02764842
113	0xbcd93f8d	-0.026519561
114	0xbd087726	-0.033316754
115	0xbd02e93f	-0.031960722
116	0xbcf704eb	-0.030153712
117	0x3939f8c8	0.00017735653
118	0x37a13750	1.9218453e-05
119	0x377e86c0	1.5170954e-05
120	0x3a38fd88	0.0007056822
121	0x3ac15e92	0.0014752916
122	0x39dc39cc	0.00042004732
123	0xb99eed0d	-0.00030312725
124	0x39351a6c	0.00017271348
125	0xb9fc7b2e	-0.00048156962
126	0x39301130	0.00016791071
127	0xbafb8655	-0.0019189814
128	0xbb7c5f18	-0.0038508829
129	0xb9d7f518	-0.00041190605
130	0xba6c26e2	-0.00090084795
131	0xbb4dbf1e	-0.0031394432
132	0xba52cbd6	-0.0008041238
133	0xba992f3e	-0.0011687053
134	0xbb849e25	-0.0040471726
135	0xbd05a2ae	-0.032625847
136	0xbceda963	-0.029011434
137	0xbd054b04	-0.032542244
138	0xbd073156	-0.033006035
139	0xbce4bf73	-0.027923321
140	0xbcfe2a03	-0.031025892
141	0xbd087997	-0.033319082
142	0xbcfcbc15	-0.030851403
143	0xbcd7539b	-0.026284983
144	0xbcf127a5	-0.02943785
145	0xbcd0ad6d	-0.02547332
146	0xbc8a3e9e	-0.016875561
147	0xbccb54c0	-0.024820685
148	0xbd15d0a7	-0.03657594
149	0xbcbfbfed	-0.023406947
150	0xbd0cf2df	-0.034411307
151	0xbd2b7545	-0.041859884
152	0xbca8a914	-0.020588435
153	0x3a16569a	0.00057349505
154	0x3a8f8fd5	0.00109529
155	0x38083700	3.247615e-05
156	0x3a491ced	0.0007671852
157	0xbacd6bcd	-0.0015672386
158	0xba0a0e2b	-0.00052663934
159	0x3b14dc2c	0.002271424
160	0xbb7ccbd5	-0.0038573642
161	0xb8e33ba0	-0.000108353095
162	0xbcf33d9f	-0.02969247
163	0xbce5054b	-0.027956625
164	0xbcc82eee	-0.02443644
165	0xbd036634	-0.03207989
166	0xbce95f0f	-0.02848771
167	0xbcefc4dc	-0.029268675
168	0xbcfa3bf9	-0.030546175
169	0xbce6228b	-0.028092643
170	0xbcd8d59a	-0.02646904
171	0xbd02a67a	-0.031897046
172	0xbd14cdfe	-0.036329262
173	0xbccadeef	-0.024764506
174	0xbcf41c00	-0.029798508
175	0xbd09ed0b	-0.033673327
176	0xbd0d9380	-0.034564495
177	0xbd074a79	-0.033030007
178	0xbcdae237	-0.026719196
179	0xbd08c21d	-0.033388246
180	0x3b390ac6	0.0028235181
181	0x3ab4201e	0.0013742482
182	0xbb5e0b3c	-0.0033881208
183	0xba0740e0	-0.00051595084
184	0xb996abac	-0.00028738135
185	0xb9961e51	-0.00028632817
186	0x3b49cf3d	0.003079369
187	0x3ac3e87c	0.0014946605
188	0x3af6eb2e	0.00188384
189	0x3a4432e4	0.000748439
190	0x3b0feeee	0.0021962482
191	0xba83b857	-0.0010049444
192	0xba71571a	-0.00092063996
193	0xba27e962	-0.0006405321
194	0x3ab9d9c5	0.001417928
195	0x3af258f6	0.0018489647
196	0x39d16749	0.0003994054
197	0xbb02d624	-0.0019964064
198	0xba47c87e	-0.0007621123
199	0x3a700474	0.0009155937
200	0xba90745d	-0.0011021007
201	0xb95e0b4c	-0.00021175778
202	0x3811d190	3.4765864e-05
203	0x3a1de30e	0.00060229085
204	0xb887f0a8	-6.482127e-05
205	0x3a9cb389	0.0011955361
206	0x3a6c3389	0.0009010365
207	0xbcd5a84b	-0.026081225
208	0xbcc91f6b	-0.024551114
209	0xbce06ab6	-0.027394634
210	0xbce6e6d7	-0.028186245
211	0xbd029765	-0.031882662
212	0xbced220b	-0.028946897
213	0xbcda244f	-0.026628641
214	0xbce9a2a9	-0.028519945
215	0xbcc2e5d1	-0.023791226
216	0xbcae859e	-0.021303948
217	0xbc1cc3de	-0.009568183
218	0xbbf2de4e	-0.0074117547
219	0xbce74241	-0.028229835
220	0xbba7cebe	-0.005121081
221	0xbd03f92d	-0.032220054
222	0xbc441bcd	-0.011969519
223	0xbca895e6	-0.02057929
224	0xbd173029	-0.036911163
225	0xbcfe7d2e	-0.03106555
226	0xbd20f024	-0.039291516
227	0xbd196847	-0.037452962
228	0xbcd6528b	-0.026162406
229	0xbcb3c8cc	-0.021946333
230	0xbcb87d83	-0.022520786
231	0xbd225ef9	-0.039641354
232	0xbd177e4d	-0.036985684
233	0xbcd78293	-0.02630738
234	0xbba67b29	-0.0050806
235	0xbc8d9c38	-0.017286405
236	0xba91648a	-0.0011092585
237	0xbc41e4e0	-0.011834353
238	0xbc02e21a	-0.007988477
239	0xbce4a9c0	-0.027912974
240	0xbcf3bcf8	-0.029753193
241	0xbc82e2bf	-0.015977262
242	0xbc7eb592	-0.015546219
243	0x3a946d57	0.001132409
244	0x3a3f0c65	0.00072879187
245	0x3906e398	0.00012864021
246	0xbb1febe6	-0.002440208
247	0x3a9e516b	0.0012078708
248	0xba10b556	-0.0005520185
249	0x3accd157	0.0015626353
250	0xba608cb8	-0.00085658906
251	0x3aced99f	0.0015781409
252	0xb9a54ac9	-0.00031526972
253	0xbab41c0c	-0.0013741269
254	0x3a569afe	0.0008186548
255	0x3a8b830d	0.0010643915

features.8.bias f4 [64]
0	0x3cb23bb4	0.021756984
1	0xbcd976a7	-0.026545836
2	0xbd12f96c	-0.0358824
3	0xbceb1e6a	-0.028701026
4	0xbd1a3f97	-0.0376583
5	0x3d456ef8	0.04820153
6	0x3d23427f	0.039858337
7	0x3d3f5449	0.04671124
8	0x3c1024ec	0.008797865
9	0xbcb64aa6	-0.022252392
10	0xbd162565	-0.036656756
11	0xbd9e8f66	-0.07742195
12	0xbd05538f	-0.03255039
13	0xbbc4c39b	-0.0060047633
14	0xbbafc4a5	-0.005364018
15	0xbcbddaa7	-0.02317555
16	0xbd43cb30	-0.047801197
17	0x3d6988a5	0.05701508
18	0xbcaebe4e	-0.021330979
19	0x3c9670ef	0.018364398
20	0xbcc4baeb	-0.02401491
21	0xbcf31f5c	-0.02967804
22	0xbd5f0a26	-0.054453038
23	0xbd01e8dd	-0.031716216
24	0xbcc633eb	-0.024194678
25	0xbc36b2f0	-0.01115106
26	0xbd722fa7	-0.059127476
27	0xbd9d72cb	-0.07687911
28	0xbc97b02e	-0.018516626
29	0xbd2c5e8a	-0.042082347
30	0xbca4ca48	-0.020115986
31	0xbc9bd9d4	-0.019024767
32	0xbcbe3f92	-0.023223672
33	0xbd1df5a1	-0.038564328
34	0x3cfde4c3	0.030992871
35	0xbb9ba264	-0.004749583
36	0xbd5390ec	-0.05165188
37	0xbd464d03	-0.048413288
38	0xbcd1ea0a	-0.025624294
39	0xbbd02525	-0.006352084
40	0xbc08014c	-0.00830109
41	0x3c2875c0	0.01028198
42	0xbbd385ec	-0.0064551737
43	0x3b2dd548	0.002652483
44	0xbdd80431	-0.105476744
45	0xbd28f526	-0.041249417
46	0xbcb60b0f	-0.02222207
47	0x3c5d6072	0.013511764
48	0xbc8cc90b	-0.017185709
49	0xbd1bd99c	-0.038049325
50	0xbd1d3e17	-0.03838929
51	0x3c1ecc31	0.009692238
52	0xbc8dcef8	-0.017310604
53	0x3be9b437	0.007132079
54	0x3bb1ba99	0.0054238555
55	0xbc94fdab	-0.018187365
56	0xbd673572	-0.056447454
57	0xbced96de	-0.029002603
58	0xbcd56803	-0.026050573
59	0xbcf3d846	-0.029766213
60	0xbcea0610	-0.028567344
61	0xbc925fe4	-0.01786799
62	0x3d216f22	0.039412625
63	0x3d982dfc	0.07430646

features.12.weight f4 [64, 64, 1, 1]
0	0xbcf1b269	-0.029504018
1	0x3a59d034	0.0008308918
2	0x3abe9b10	0.0014542062
3	0xbada5acd	-0.0016659141
4	0xba59be7e	-0.00083062786
5	0xbd54e02f	-0.05197161
6	0xbd706ac1	-0.05869556
7	0xbceba3a7	-0.028764559
8	0x3bda0070	0.006652884
9	0xba429c3c	-0.00074237934
10	0xbbaac840	-0.00521186
11	0x3c15e00a	0.009147653
12	0xba65d9b8	-0.00087680994
13	0xbc851b9b	-0.016248515
14	0xbc0c7f4f	-0.008575275
15	0x3b39ed40	0.0028370172
16	0xbb3405dd	-0.0027469315
17	0x3d0067cf	0.031349
18	0xbc1ad2f6	-0.009449711
19	0xbc5acd86	-0.013354665
20	0xbba794b4	-0.0051141623
21	0xbc882d0d	-0.016623044
22	0xbba0f32a	-0.0049118
23	0xbd81a604	-0.06330493
24	0x3c6613fc	0.014042851
25	0x3b3f8d36	0.0029228455
26	0x3a0d1e57	0.0005383244
27	0x389c94f4	7.466404e-05
28	0x3c1bcdb8	0.009509496
29	0xbc1b9f3e	-0.0094984155
30	0xba550954	-0.0008126695
31	0x3a4b670b	0.000775919
32	0xbd97da46	-0.07414679
33	0xbaa06757	-0.0012237829
34	0xbd67f6d2	-0.05663187
35	0x3b05eaba	0.0020434097
36	0x3a98d381	0.0011659713
37	0x3ad1b9b8	0.0016000783
38	0xbbd63c10	-0.0065379217
39	0xbb039d49	-0.0020082763
40	0x3ba8eb98	0.005155038
41	0xbd37b1a1	-0.044847135
42	0x3ba4fa3f	0.0050347145
43	0x39022970	0.00012413203
44	0x3aaea1c4	0.0013323356
45	0x38ef8004	0.00011420253
46	0x3a877cbc	0.0010336856
47	0x3d026d19	0.031842325
48	0x3b89ea74	0.004208857
49	0x3bd25342	0.0064186165
50	0x39912528	0.0002768424
51	0xbcf385e9	-0.02972694
52	0x3a0bac66	0.00053281186
53	0xbc19df1d	-0.009391573
54	0xbd7d813b	-0.061890822
55	0x3a3e6d77	0.00072642363
56	0xbbaa97d4	-0.0052060876
57	0xba827cee	-0.0009955445
58	0xbb90d4cd	-0.004419899
59	0x3a116dee	0.0005547692
60	0xba43cd3f	-0.0007469244
61	0xbb43a168	-0.0029850844
62	0xbd822b67	-0.063559346
63	0xbd90b8b0	-0.07066476
64	0x3cd1f958	0.025631592
65	0x3c03cef2	0.008044945
66	0xbcb5ef6f	-0.022208897
67	0xbb31e399	-0.0027143715
68	0x3bdf1dd5	0.006808976
69	0xbb5bf4c8	-0.003356265
70	0xbbbfe957	-0.0058566737
71	0xbd395e7d	-0.045256127
72	0xbc3ca354	-0.01151355
73	0xba5e85ec	-0.0008488584
74	0xba3f30bc	-0.0007293334
75	0xbd38e7ba	-0.045142867
76	0x3adb39ac	0.0016725562
77	0xbd0f2485	-0.034946937
78	0x3a9a3eb5	0.0011767956
79	0x3bba8092	0.0056915963
80	0xbb2ed1e2	-0.0026675393
81	0xbd0caa9a	-0.034342386
82	0x3b58be56	0.0033072433
83	0xbd6472cc	-0.05577354
84	0xbc109972	-0.008825647
85	0xbd14d49b	-0.03633557
86	0x3baebaa9	0.00533231
87	0xbd30a0f1	-0.043122236
88	0xbd1c2e83	-0.038130295
89	0x3b57e6c1	0.0032943937
90	0xbd46a56c	-0.048497602
91	0xbc10909c	-0.00882354
92	0xbb031afd	-0.00200051
93	0xbc198515	-0.009370108
94	0xbb392495	-0.0028250564
95	0xbae5de86	-0.0017537631
96	0xbd24192a	-0.04006306
97	0xbad1db9d	-0.0016010884
98	0xbc8da080	-0.017288446
99	0x3b14c01b	0.0022697512
100	0xbb80c2f1	-0.003929489
101	0xbcc990fb	-0.024605265
102	0xbbe19334	-0.006884003
103	0x3b11a0d8	0.0022221114
104	0x3c12a25d	0.008949843
105	0xbd3ee1cc	-0.046602055
106	0xbbb1c75a	-0.005425376
107	0xbc1c7a57	-0.0095506525
108	0xbae95fd2	-0.0017805046
109	0xba2ec704	-0.0006667229
110	0xbb805c85	-0.003917279
111	0xbd1110a5	-0.035416264
112	0xbbb07357	-0.0053848433
113	0x3b486399	0.0030576943
114	0x3bcf1209	0.0063192886
115	0xbcdf87f9	-0.027286517
116	0x3c14ed06	0.009089714
117	0xb9cb16fc	-0.00038736302
118	0xbcbcd9ce	-0.023053076
119	0xba7ff417	-0.000976385
120	0xb6095000	-2.0461157e-06
121	0xbaa8dc1c	-0.001288298
122	0xb9125db4	-0.00013958552
123	0x3abced32	0.0014413951
124	0xbc4b9c2f	-0.012427374
125	0x3b184ffe	0.0023241038
126	0xbd6d4c1a	-0.057933904
127	0x3d47b89f	0.048760053
128	0xbde1ec96	-0.11031453
129	0x3ba5f1f0	0.0050642416
130	0xba056165	-0.000508806
131	0x39148960	0.00014165556
132	0xbbd4cd55	-0.006494204
133	0x3d23e7ef	0.04001611
134	0x3cf39625	0.02973468
135	0xbd86a07a	-0.06573577
136	0xbcb4b541	-0.022059085
137	0xbc196400	-0.009362221
138	0x3ad89134	0.0016522766
139	0x3b8c90d3	0.0042897253
140	0x3baa22fd	0.005192159
141	0xbcc8830f	-0.024476556
142	0xbc196326	-0.009362018
143	0x3ba12c5b	0.0049186177
144	0x3b0ee413	0.0021803423
145	0x3d232525	0.039830346
146	0x3c14097d	0.009035465
147	0xbd787d4a	-0.06066636
148	0xbc5a3570	-0.013318405
149	0xbc861b6e	-0.016370501
150	0xbb9aff5b	-0.004730148
151	0xbd373628	-0.04472938
152	0xbc65019f	-0.013977437
153	0xba1e8443	-0.000604693
154	0x3a04f1af	0.0005071414
155	0x3c1d8f36	0.009616664
156	0x3b51a749	0.003199058
157	0xbc1bcd0f	-0.009509339
158	0xbad6ceaa	-0.0016388495
159	0x3c1c553a	0.009541804
160	0xbc278009	-0.010223397
161	0xbb3d7661	-0.002890967
162	0xbcaef6fb	-0.021358004
163	0xbba1e470	-0.004940562
164	0xbc18b0f7	-0.009319535
165	0x3b9b7019	0.0047435877
166	0xbc15aa2a	-0.009134809
167	0xbc180600	-0.009278774
168	0xbbeee66d	-0.0072906525
169	0xbdca0cba	-0.09865709
170	0xbba2f548	-0.0049730875
171	0xbb5dd5c6	-0.0033849343
172	0xbbb79e64	-0.0056035984
173	0x3b3bcd9d	0.002865649
174	0xbac3c388	-0.0014935592
175	0xbdd2adc4	-0.102870494
176	0x39bfaa30	0.00036557158
177	0x3aac7531	0.0013157484
178	0x3bae4970	0.005318813
179	0xbdd80e87	-0.10549646
180	0xbb5123c3	-0.0031912185
181	0xbb87e9e9	-0.0041477573
182	0xbddfd222	-0.109287515
183	0xb9eeac36	-0.00045523205
184	0xb9c2d55a	-0.00037161523
185	0x3b459d16	0.0030153445
186	0xb9c55501	-0.000376381
187	0xbc1d247a	-0.009591216
188	0x3a583dd8	0.00082489615
189	0xbc1d86dc	-0.0096146725
190	0xbd0fc503	-0.035099994
191	0xbdd09810	-0.101852536
192	0xbd756657	-0.059912052
193	0x3bc394bd	0.0059686587
194	0xbb53a89e	-0.0032296549
195	0xbaa37e63	-0.0012473579
196	0xba57b1ba	-0.00082280824
197	0xbd6ccde9	-0.05781356
198	0xbd81b5fc	-0.06333539
199	0xbd555557	-0.05208334
200	0x3a227577	0.0006197313
201	0x3bacad9a	0.0052697184
202	0xba535fc2	-0.000806328
203	0xbc208070	-0.009796247
204	0xb8fe1790	-0.00012116053
205	0xbb370433	-0.0027926087
206	0x3b62f58c	0.003463122
207	0x3b8b9b1e	0.004260435
208	0xba6bf120	-0.0009000469
209	0xbb99d8f4	-0.0046950523
210	0xbb6ebb0c	-0.0036427407
211	0xbc1d54dd	-0.0096027525
212	0x3be6bdf3	0.0070416867
213	0xbb9ca106	-0.0047799377
214	0xbbbb724a	-0.0057204114
215	0xbc6c9718	-0.01444032
216	0xbd394b19	-0.045237634
217	0xba89c5e1	-0.0010511243
218	0x3b854e7d	0.0040681944
219	0xbb6b1986	-0.0035873367
220	0x3a35622b	0.000691923
221	0xbbf0141c	-0.007326616
222	0x3abed0c1	0.0014558063
223	0x374d7280	1.2245611e-05
224	0xbd9edb2b	-0.07756647
225	0x3b625c43	0.0034539856
226	0xbcb06159	-0.021530794
227	0xb886f53a	-6.435295e-05
228	0x3b3f78f3	0.0029216378
229	0x3a351913	0.00069083384
230	0xbb1e9cc3	-0.0024202324
231	0xbafe1e2d	-0.0019387655
232	0x3a306a46	0.0006729703
233	0xbd787847	-0.06066158
234	0xbacf0e52	-0.0015797114
235	0x36bdac80	5.6527206e-06
236	0x3ba941f6	0.005165334
237	0x3a372f90	0.00069879834
238	0xbc1ca383	-0.009560469
239	0xbd85573f	-0.065107815
240	0x3afe8a40	0.0019419864
241	0x3c1144b3	0.008866477
242	0xbb51285c	-0.0031914925
243	0x3ccef627	0.025263859
244	0x3a1ae172	0.0005908228
245	0x3b1620c7	0.002290772
246	0xbd7d8d9e	-0.061902635
247	0x3994fe8c	0.00028418412
248	0xbb7adee8	-0.0038279835
249	0x3a79f6fe	0.0009535401
250	0x3b8f1d23	0.004367487
251	0x3bab4414	0.0052266214
252	0xba2b1be5	-0.0006527289
253	0xbc1d5f29	-0.0096052075
254	0xbd7d1169	-0.06178418
255	0xbd80925b	-0.06277915

features.12.bias f4 [64]
0	0xbc9e0088	-0.019287363
1	0x3ba56848	0.0050478317
2	0xbd6a7120	-0.05723679
3	0xbd60bf1f	-0.054869767
4	0xbcb56a70	-0.02214548
5	0xbd8031d2	-0.062595025
6	0xbc84afc0	-0.016197085
7	0xbe096938	-0.13419044
8	0xbc989ac5	-0.018628487
9	0xbe09f8dc	-0.13473839
10	0xbc419269	-0.011814692
11	0xbd4c37d8	-0.049857944
12	0xbdef8147	-0.116945796
13	0xbc7a6559	-0.015282952
14	0xbd0ae7ee	-0.03391259
15	0xbd25598f	-0.040368613
16	0xbd8d77c3	-0.06907608
17	0xbd8c9056	-0.068634674
18	0x3bc73814	0.006079683
19	0xbd21dfa0	-0.039519906
20	0x3a731920	0.0009273458
21	0xbd024e92	-0.03181321
22	0xbd0a2d12	-0.03373439
23	0xbd212b9f	-0.03934824
24	0xbd5a18ab	-0.05324618
25	0xbd398b1c	-0.04529868
26	0xbdf7470c	-0.12074098
27	0xbd4ac779	-0.04950664
28	0xbd5a9e4a	-0.053373612
29	0xbcb72841	-0.022358062
30	0xbcfa7dcd	-0.030577565
31	0xbd1d9b08	-0.038477927
32	0xbddf5b7c	-0.10906121
33	0xbde97fba	-0.11401315
34	0xbdc85d9b	-0.09783479
35	0xbcd4f5fd	-0.025996203
36	0xbe054bb4	-0.1301716
37	0xbd51ea95	-0.051249105
38	0xbc06b4d1	-0.008221821
39	0xbd71b85e	-0.059013717
40	0xbda4834b	-0.08032855
41	0xbd3f48b1	-0.046700183
42	0xbd6a1be4	-0.057155505
43	0xbd1c732a	-0.038195767
44	0xbd4da5aa	-0.050206818
45	0xbcd77ac5	-0.026303658
46	0xbbed9e26	-0.007251519
47	0xbd98228b	-0.074284635
48	0xbca87b5a	-0.020566631
49	0x3d08ab10	0.033366263
50	0xbd399778	-0.045310467
51	0xbccba45a	-0.024858642
52	0xbc17ae1a	-0.009257818
53	0xbc376ae7	-0.011194921
54	0xbd1a0514	-0.0376025
55	0xbd3f9d44	-0.04678084
56	0xbcfe3e75	-0.031035641
57	0xbd79d5d0	-0.060994923
58	0xbd65cddc	-0.056104526
59	0xbca43e9e	-0.02004939
60	0xbd4bc22c	-0.049745724
61	0xbcde0ef2	-0.027106736
62	0xbd7be780	-0.061500072
63	0x3e109272	0.14118364

classifier.weight f4 [22, 64]
0	0xbda63e2a	-0.081173256
1	0x3d8c20cd	0.06842194
2	0x3d861f50	0.06548941
3	0x3b403cc1	0.0029333087
4	0x3d80b86d	0.062851764
5	0xbd9cda99	-0.07658882
6	0x3d0fc373	0.035098504
7	0xbdb393ab	-0.087684
8	0x3d4d5bf8	0.050136536
9	0xbd08f17c	-0.033433422
10	0xbd0fbed3	-0.035094094
11	0xbc859a15	-0.016308824
12	0xbdd7c7a7	-0.105361275
13	0xbda5a4ee	-0.080880985
14	0x3d427447	0.047474172
15	0xbd6d920f	-0.05800062
16	0xbda5410c	-0.08069047
17	0xbd00eb33	-0.031474303
18	0x3c5b138e	0.013371361
19	0xbc1186cb	-0.008882235
20	0x3ddcb8a5	0.10777406
21	0xbd4cce93	-0.050001692
22	0x3d178d9d	0.037000287
23	0x39bd043d	0.00036052047
24	0xbd03b455	-0.0321544
25	0xbda91440	-0.082558155
26	0x3c35a0f3	0.011085737
27	0x3cf0338d	0.029321456
28	0x3d8a81d5	0.06763045
29	0xbc9d6c66	-0.019216727
30	0x3d276093	0.040863585
31	0xbcf5abc9	-0.02998914
32	0xbdbf16b4	-0.09330502
33	0xbdb7c5d5	-0.0897328
34	0x3d41dc17	0.047329035
35	0x3d820ddb	0.06350299
36	0xbd8777e4	-0.06614664
37	0x3c53ea72	0.012934314
38	0x3d6462a5	0.055758137
39	0xbcf431ba	-0.029808868
40	0xbe01e122	-0.12683538
41	0xbda8856b	-0.082285725
42	0xbd12d5cb	-0.03584842
43	0xbce46bbd	-0.027883405
44	0x3bb415c4	0.0054957587
45	0x3d4f8cf3	0.05067153
46	0xbcec0a25	-0.028813431
47	0xbd71e4ea	-0.0590562
48	0xbdceddde	-0.101009116
49	0xbda2bd58	-0.07946271
50	0x3ced4dcf	0.028967766
51	0x3d4cbf2f	0.049987014
52	0x3dc39350	0.09549582
53	0xbb213eb4	-0.0024604024
54	0x3d5b8240	0.053591013
55	0x3d46d085	0.048538703
56	0x3dde130d	0.108434774
57	0xbcc84073	-0.024444794
58	0xbd5be880	-0.053688526
59	0x3c6db046	0.014507359
60	0xbd509ace	-0.050928883
61	0xbdb42764	-0.08796576
62	0xbcacc23e	-0.021088716
63	0x3d08fde3	0.03344525
64	0xbd516727	-0.051123764
65	0xbd338dc5	-0.043836374
66	0x3d8190b4	0.06326428
67	0xbdbac44b	-0.09119471
68	0x3d9d387a	0.07676788
69	0x3c4a1d14	0.012336034
70	0xbd356f3a	-0.044295527
71	0xbcc8a519	-0.024492787
72	0xbcea5247	-0.028603686
73	0xbd6be614	-0.057592466
74	0xbc881f9a	-0.016616631
75	0xbd8b28ab	-0.06794866
76	0x3c8fe771	0.017566415
77	0x3bef4207	0.0073015722
78	0xbd6bffc2	-0.057616957
79	0x3d3c86d9	0.04602704
80	0xbb9c5fe3	-0.004772173
81	0xbd7028b8	-0.058632582
82	0x3d8ddf68	0.06927377
83	0x3bcb5f34	0.0062064175
84	0xbd109e7e	-0.0353074
85	0x3d768d54	0.060193375
86	0xbca6aa8b	-0.020344993
87	0xbd50d422	-0.050983556
88	0xbcff556d	-0.031168664
89	0xbbb252dc	-0.0054420065
90	0xbdb6c504	-0.089242965
91	0xbca27a6f	-0.019833772
92	0xbdbfc3f2	-0.093635455
93	0xbd29d47a	-0.0414624
94	0x3d8873d0	0.066627145
95	0x3cc43024	0.023948736
96	0xbd90fd90	-0.07079613
97	0xbda97b51	-0.08275474
98	0xbd53f117	-0.051743593
99	0xbb078b3a	-0.002068235
100	0xbd1edd62	-0.038785346
101	0xbd350ef5	-0.044203717
102	0x3da796cf	0.08183061
103	0xbd144872	-0.0362019
104	0xbd0bd6c7	-0.034140375
105	0xbdbdd8b1	-0.09269846
106	0xbdedfc32	-0.11620368
107	0xbd2e553f	-0.042561766
108	0x3bb6e386	0.005581322
109	0x3ba1fbe3	0.0049433573
110	0x39f8f41f	0.0004748413
111	0xbd67ca01	-0.05658913
112	0x3ddc93b8	0.107703626
113	0x3da016e0	0.07816863
114	0xbdacbe0b	-0.08434685
115	0x3c3ff915	0.011717101
116	0xbd97ac73	-0.07405939
117	0x3c30057b	0.010743494
118	0xbdc1b313	-0.09457984
119	0xbb877760	-0.0041341037
120	0xbd97c877	-0.074112825
121	0xbd97888e	-0.073990926
122	0xbdabc4ba	-0.08387132
123	0x3d3813a0	0.04494059
124	0x3d318dbf	0.04334807
125	0xbc2bb4c9	-0.010480114
126	0x3c15a47a	0.009133453
127	0x3c8291b8	0.015938625
128	0xbc5b8203	-0.013397696
129	0x3c6b2e4d	0.014354301
130	0x3d774eda	0.060377933
131	0xbd433752	-0.04766018
132	0x3e0a1d1e	0.1348767
133	0x3dbfa98e	0.09358512
134	0xbda31ec4	-0.079648525
135	0x3d997f7e	0.0749502
136	0xbd298f93	-0.04139669
137	0x3cc153e8	0.02359958
138	0x3d8a3d72	0.06750001
139	0x3ccc08e9	0.024906592
140	0xbd28159a	-0.041036226
141	0xbd0ae139	-0.033906195
142	0x3dae230b	0.08502778
143	0x3d27d4c4	0.040974393
144	0xbd9ae6d3	-0.075635575
145	0x3de62192	0.11236872
146	0xbd6a5461	-0.057209376
147	0xbb93e4ce	-0.0045133596
148	0x3cf7cbef	0.03024861
149	0x3ccd6484	0.025072344
150	0x3a8febfa	0.0010980361
151	0xbc6f1498	-0.014592312
152	0x3d618f2e	0.055068187
153	0x3d477ab8	0.048701018
154	0x3cb156c2	0.021647815
155	0x3d5110d0	0.051041424
156	0x3cfab286	0.030602705
157	0x3dc01b12	0.09380163
158	0x3e12475d	0.14285035
159	0x3d1d3506	0.038380645
160	0x3d3e2516	0.046422087
161	0xbcfb21aa	-0.0306557
162	0x3ca9e3f4	0.02073858
163	0x3ca67bc2	0.020322684
164	0x3cd6c284	0.0262158
165	0x3d52f674	0.051504567
166	0x3d85bbca	0.065299585
167	0x3c1d9ee4	0.009620402
168	0x3dad8dc4	0.08474305
169	0x3dad2593	0.08454432
170	0x3dc89d8d	0.097956754
171	0xbd19e4df	-0.037571784
172	0x3abed659	0.001455973
173	0x3d73c120	0.05951035
174	0x3df6b0ae	0.12045418
175	0xbd575486	-0.052570842
176	0x3db91e2a	0.090389565
177	0x3c084358	0.008316837
178	0x3d8a7b76	0.067618296
179	0x3d739fd2	0.05947859
180	0x3d9b98c8	0.075975
181	0x3a5f632e	0.0008521554
182	0x3dee00e5	0.11621264
183	0x3d3e18ea	0.04641048
184	0xbd680cb8	-0.056652755
185	0x3cb02130	0.0215002
186	0x3d977715	0.0739576
187	0x3e19f442	0.15034583
188	0x3d74aa4f	0.05973273
189	0x3da96258	0.08270711
190	0x3e1562dc	0.14588493
191	0x3b84bd29	0.00405087
192	0x3cc86ec7	0.024466885
193	0x3e029fa0	0.12756205
194	0xbd0dda19	-0.034631822
195	0xbc40e36d	-0.0117729725
196	0x3bd7648e	0.0065732663
197	0xbd1bf33d	-0.038073767
198	0xbd91c163	-0.07116964
199	0xbd85c432	-0.06531562
200	0xbd3cddf5	-0.046110112
201	0xbc496174	-0.012291301
202	0x3b44ad77	0.003001062
203	0xbcb18216	-0.021668475
204	0x3e0d9601	0.13826753
205	0x3d34e79e	0.0441662
206	0xbd0a5fe5	-0.03378286
207	0x3c5ea704	0.013589624
208	0xbdb0eee6	-0.08639316
209	0x3df9128e	0.12161742
210	0x3df1947a	0.11795898
211	0xbc7cf3f4	-0.015439022
212	0x3db9e935	0.09077684
213	0x3d5911ff	0.052995678
214	0x3ae4c9f1	0.0017455203
215	0x3c75c5ad	0.015000743
216	0x3d8079d0	0.06273234
217	0xbc154e29	-0.009112873
218	0x3d48a24a	0.048982896
219	0x3dc64c14	0.096824795
220	0xbc9fbfe2	-0.019500677
221	0x3ddcd4e1	0.10782791
222	0x3e0fafb4	0.14031869
223	0x3e12835e	0.14307925
224	0xbd1b2a5f	-0.037882205
225	0x3cc63aea	0.024198014
226	0x3d13a9d4	0.036050633
227	0xbd434dc3	-0.04768158
228	0xbbe3e1dd	-0.0069544152
229	0x3db89393	0.090125225
230	0x3e076a32	0.13224104
231	0xbcb27247	-0.021783007
232	0x3c51ec32	0.012812661
233	0x3dc84ebe	0.09780644
234	0x3c0b3d92	0.008498566
235	0x3ce3ed81	0.027823212
236	0x3b8c062e	0.0042731976
237	0x3dbab861	0.09117199
238	0x3de3828f	0.111088865
239	0xbd2a24ce	-0.041539006
240	0xbd88944c	-0.066689104
241	0x3d5b3341	0.053515676
242	0x3dae6103	0.08514597
243	0x3d896227	0.06708174
244	0x3dc58f81	0.09646512
245	0x3c076785	0.008264427
246	0x3d01cb77	0.03168818
247	0xbc3425a8	-0.010995306
248	0xbd793402	-0.060840614
249	0xbda65a44	-0.081226856
250	0x3d81df0b	0.0634137
251	0xbcfa7beb	-0.030576667
252	0xbda24710	-0.0792371
253	0x3dc7dd28	0.09758979
254	0x3d47fdd3	0.04882605
255	0x3dc2c2f3	0.0950984

classifier.bias f4 [22]
0	0x3dc9426a	0.098271206
1	0x3e354968	0.17703784
2	0x3cfcfb41	0.030881526
3	0xbd31c056	-0.043396316
4	0xbdb2dcfe	-0.08733557
5	0x3d3b9a01	0.045801166
6	0xbcec6c72	-0.028860305
7	0xbc9fe780	-0.019519567
8	0xbc322afd	-0.010874507
9	0xbbcda37c	-0.0062755924
10	0xbc7f1794	-0.015569586
11	0xbcd60bd4	-0.026128687
12	0xbd91c9b6	-0.071185514
13	0xbdb87570	-0.090067744
14	0xbe357de3	-0.17723803
15	0xbdae8012	-0.08520521
16	0xbeb70b61	-0.3575087
17	0xbe8fedf3	-0.28111228
18	0xbe8e501c	-0.27795494
19	0xbeb03f98	-0.34423518
20	0xbec40a2b	-0.38289008
21	0xbea295fb	-0.3175505
