Models/thesis_AGEM_CL_1_0.pth (torch, 289315 bytes, 12 tensors)

features.0.weight f4 [32, 3, 3, 3]
0	0x3e1d5997	0.15366207
1	0xbdc0e1a3	-0.09418037
2	0xbc854dc4	-0.016272433
3	0x3e279dc4	0.16368777
4	0xbe1293d8	-0.1431421
5	0x3e2571db	0.16156714
6	0xbd492412	-0.049106665
7	0xbd4c1e0d	-0.049833346
8	0x3dcda200	0.10040665
9	0x3dc098fd	0.0940418
10	0x3ce216ae	0.027598705
11	0x3ae6bef3	0.0017604515
12	0xbc9500c1	-0.018188836
13	0xbd9d99e9	-0.07695372
14	0xbe195e40	-0.1497736
15	0xbe40533f	-0.18781756
16	0x3e2d5549	0.16927065
17	0xbd9167a7	-0.07099848
18	0xbd081c9a	-0.0332304
19	0x3cbcd8c9	0.02305259
20	0xbc56c45c	-0.013108339
21	0xbd27f5b7	-0.041005816
22	0x39404eba	0.00018339875
23	0x3cc10e53	0.0235664
24	0x3c9211af	0.017830698
25	0x3e2297c1	0.15878202
26	0x3c66778d	0.014066589
27	0x3d937229	0.07199509
28	0x3cb7cc94	0.022436418
29	0x3dd44489	0.103646345
30	0x3d95e6ac	0.07319388
31	0x3c866a38	0.01640807
32	0xbe37479a	-0.17898408
33	0x3da8d251	0.0824324
34	0x3d106c64	0.03525962
35	0x3d8a9269	0.06766207
36	0xbe2469bd	-0.16055961
37	0x3e2b1c79	0.1671008
38	0x3ddaedff	0.106899254
39	0x3e30778f	0.17233108
40	0xba0b46ee	-0.00053129985
41	0x3dc5049a	0.09620018
42	0xbda3286c	-0.07966694
43	0x3d311a7c	0.043238148
44	0xbe42be1b	-0.19017832
45	0xbcb854cb	-0.02250137
46	0xbd482e99	-0.048872564
47	0xbe4424f9	-0.19154729
48	0xbda73db0	-0.08166063
49	0xbd43feea	-0.047850527
50	0x3ddf8253	0.10913529
51	0x3c095387	0.008381731
52	0xbe3c2d9b	-0.18376772
53	0xbcd21a80	-0.025647402
54	0x3e2195c0	0.15779781
55	0x3e33eff5	0.17572005
56	0x3e17d07c	0.14825624
57	0xbdacaaa6	-0.08430986
58	0xbd8b8c6f	-0.06813895
59	0xbe0f0106	-0.13965234
60	0xbe0d2176	-0.13782296
61	0x3df4011f	0.11914276
62	0xbd42dbfb	-0.04757307
63	0xbdd02dd5	-0.10164992
64	0x3d428593	0.047490668
65	0x3e064799	0.1311325
66	0x3df4fdd4	0.119624764
67	0x3dd7e929	0.10542519
68	0x3dca6a25	0.09883527
69	0xbdc2241e	-0.09479545
70	0xbddd36ee	-0.10801493
71	0xbe416dc7	-0.18889533
72	0xbcc01c49	-0.023450987
73	0x3dc93584	0.098246604
74	0x3e1ba08d	0.15197964
75	0x3e246cde	0.16057155
76	0x3e106af6	0.14103302
77	0xbd3722bc	-0.04471086
78	0xbd5532b3	-0.052050304
79	0x3e401836	0.18759236
80	0x3da3c3f7	0.07996362
81	0x3dd38bd9	0.10329408
82	0xbd6dbe62	-0.05804289
83	0x3dce86ad	0.10084281
84	0x3dfc1173	0.12308016
85	0x3b1e285b	0.002413294
86	0xbd9e82ce	-0.07739793
87	0xbdafcea3	-0.08584335
88	0x3d9ac112	0.075563565
89	0xbd4ed58f	-0.050496634
90	0x3e0aa1e1	0.13538314
91	0xbe2ab95e	-0.16672274
92	0xbd92bd6d	-0.07165036
93	0xbdb8f74d	-0.09031544
94	0xbd929120	-0.07156587
95	0x3db01173	0.08597078
96	0xbe1b20ac	-0.15149182
97	0xbcb7b842	-0.022426728
98	0xbe316940	-0.17325306
99	0x3e3b87e8	0.18313563
100	0xbe3ee30e	-0.18641302
101	0x3cfc9258	0.0308315
102	0x3d52c5d2	0.051458187
103	0xbe3c6cf1	-0.18400933
104	0x3e191c9b	0.14952318
105	0x3e248d39	0.16069497
106	0xbd67d103	-0.056595813
107	0xbb628626	-0.0034564822
108	0xbd3948d3	-0.045235466
109	0x3dc9e9db	0.098590575
110	0xbd281a36	-0.04104062
111	0xbe2c94c1	-0.1685362
112	0x3e228267	0.15870057
113	0xbd5f791f	-0.05455887
114	0x3e0fd768	0.14047015
115	0xbe169b7d	-0.14707752
116	0x3e44824a	0.19190326
117	0x3b26d913	0.0025458976
118	0x3da7b1d1	0.08188213
119	0xbdeced41	-0.1156869
120	0x3ce1a5ce	0.027544882
121	0xbe087d91	-0.1332915
122	0xbd440de2	-0.047864802
123	0xbe0d1e6b	-0.13781135
124	0xbd28d9e0	-0.041223407
125	0xbc96d8db	-0.018413952
126	0x3de4c890	0.11171067
127	0x3e0bba16	0.13645205
128	0x3e094b10	0.1340754
129	0x3d996f22	0.074919
130	0x3d82f9d3	0.063953064
131	0x3d05f6f1	0.032706205
132	0xbca57bb1	-0.020200582
133	0x3e1b9a7d	0.15195651
134	0x3db50200	0.08838272
135	0xbe0e6da0	-0.13909006
136	0x3cfab75d	0.030605013
137	0xbdc9afa5	-0.09847955
138	0x3e367ab5	0.17820247
139	0x3cc0710b	0.023491403
140	0x3d16e943	0.03684355
141	0x3ac55c21	0.0015057364
142	0xbe3aa01d	-0.18225141
143	0xbd790f8c	-0.060805842
144	0xbe2f57c7	-0.17123328
145	0x3b1fd9d4	0.002439131
146	0xbe1c6e98	-0.15276563
147	0x3e41adf4	0.18914014
148	0x3e11e692	0.14248112
149	0xbe309782	-0.17245296
150	0xbe1e25d8	-0.15444124
151	0xbe01fff1	-0.1269529
152	0xbdd33afd	-0.103139855
153	0xbdba71ba	-0.09103723
154	0xbe4358e4	-0.19076878
155	0x3d80511d	0.06265471
156	0x3e3e1eb6	0.18566403
157	0x3de3a3b8	0.11115211
158	0x3d00e804	0.031471267
159	0xbde2ab9f	-0.110678904
160	0xbe186709	-0.14883055
161	0xbdaf53b3	-0.08560886
162	0x3dfae6ec	0.12251076
163	0xbe227eea	-0.15868726
164	0x3d5c3b6b	0.053767603
165	0xbd8d5fc5	-0.06903032
166	0x3e28eedc	0.16497368
167	0xbe3a68e8	-0.18204081
168	0xbda7aa00	-0.08186722
169	0xbdad692f	-0.08467328
170	0xbddc3973	-0.10753145
171	0x39f1fd1f	0.00046155692
172	0xbe4173f4	-0.18891889
173	0x3d4e2ad9	0.05033383
174	0xbdc1fdcf	-0.09472238
175	0xbda19c71	-0.07891167
176	0x3df081fa	0.11743541
177	0xbdb4af86	-0.08822541
178	0x3dcc90fb	0.0998859
179	0x3e233334	0.15937501
180	0xbd80b574	-0.062846094
181	0xbe1348c0	-0.1438322
182	0xbd7270d3	-0.05918963
183	0xbc325946	-0.010885542
184	0xbde9b873	-0.11412134
185	0x3e43b144	0.1911059
186	0x3dc47155	0.09591929
187	0x3e1a2117	0.15051685
188	0xbd31ad95	-0.04337843
189	0xbe1ac78f	-0.15115188
190	0xbcbc7152	-0.023003254
191	0xbe19e4ff	-0.15028761
192	0xbe250e4c	-0.16118735
193	0x3e165bcf	0.1468346
194	0xbe151a20	-0.14560747
195	0x3e0ace79	0.13555326
196	0xbe40bb0f	-0.18821357
197	0x3daff089	0.085908
198	0x3db9a09c	0.09063837
199	0xbc8c39f3	-0.017117476
200	0xbe2e32be	-0.17011544
201	0x3de89bd7	0.11357849
202	0xbdad3eed	-0.08459268
203	0x3e1e4abd	0.15458198
204	0x3b917f05	0.0044401907
205	0x3e11da48	0.14243424
206	0xbd569ee7	-0.052397635
207	0xbe0b1d11	-0.13585307
208	0x3dd4708b	0.10373028
209	0x3d12a63f	0.035803076
210	0x3d0e8d20	0.034802556
211	0xbdfd98ac	-0.123826355
212	0xbe103567	-0.14082871
213	0x3dc37f5b	0.095457755
214	0xbe0d5ef2	-0.1380575
215	0x3d882d49	0.066492625
216	0xbe11b27b	-0.14228241
217	0xbdd2a29f	-0.10284924
218	0xbe0de87c	-0.13858217
219	0x3b6059d5	0.0034233232
220	0x3d89c671	0.06727303
221	0xbe032864	-0.12808377
222	0x3ddf2330	0.10895383
223	0x3da70757	0.08155697
224	0xbd0e28fd	-0.03470706
225	0x3e3061f1	0.17224862
226	0x3cbc0cec	0.02295538
227	0xbdda3e84	-0.10656455
228	0xbdd96b4c	-0.106161684
229	0x3cb67ce3	0.022276348
230	0x3d0dab06	0.03458693
231	0xbdbbfaf9	-0.091787286
232	0xbde5ee4d	-0.11227093
233	0x3ccef722	0.025264326
234	0xbd68e865	-0.056862254
235	0xbda6f153	-0.08151498
236	0x3dc67428	0.09690124
237	0xbc658783	-0.014009359
238	0x3d433cc3	0.04766537
239	0x3c69d60d	0.014272225
240	0x3d8473da	0.064674094
241	0xbe0149cc	-0.12625808
242	0xbe27f207	-0.1640092
243	0x3e1b9839	0.15194787
244	0xbdd9e515	-0.10639397
245	0x3e1f9db1	0.15587498
246	0xbc641310	-0.0139205605
247	0x3c7238c0	0.014784038
248	0xbdd96f10	-0.106168866
249	0xbdc8d576	-0.098063394
250	0x3cd4fdf0	0.025999993
251	0xbdc11fec	-0.09429917
252	0xbd2e8294	-0.042604998
253	0xbd72d2ac	-0.059282944
254	0x3ddc43e6	0.10755138
255	0x3c283dc0	0.010268629

features.0.bias f4 [32]
0	0xbc70a368	-0.014687397
1	0x3d94affc	0.07260129
2	0x3e2409c7	0.16019355
3	0x3db2e649	0.0873533
4	0x3df27e0e	0.11840449
5	0x3cfb1cad	0.030653322
6	0xbdccedab	-0.10006269
7	0x3d783ca3	0.060604703
8	0x3dc2f63d	0.095196225
9	0xbe2c7d31	-0.16844632
10	0x3d648065	0.05578651
11	0x3d397ba8	0.045283943
12	0xbd69ece4	-0.057110682
13	0x3d8b260b	0.067943655
14	0xbda492d1	-0.080358155
15	0x3ddb82a6	0.107182786
16	0xbda7fd39	-0.08202595
17	0x3d9cbd69	0.076533146
18	0xbdb371f2	-0.08761968
19	0x3e2b9928	0.16757643
20	0xbe1327be	-0.14370629
21	0xbe2ab913	-0.16672163
22	0x3e2e623b	0.1702966
23	0xbe2b0178	-0.16699779
24	0xbe43998a	-0.19101539
25	0x3e3b1459	0.18269481
26	0x3b9b2485	0.004734578
27	0x3d842577	0.06452458
28	0xbdd6a1a6	-0.10480051
29	0xbdae889a	-0.085221484
30	0xbd276125	-0.04086413
31	0xbe263c12	-0.16233853

features.2.weight f4 [32, 32, 3, 3]
0	0xbcb2e28c	-0.021836542
1	0xbcf4d4df	-0.029886661
2	0xbc1d6018	-0.00960543
3	0xbd182f36	-0.0371544
4	0x3c4e8cbc	0.012606796
5	0xbcbac158	-0.022797272
6	0xbcf15336	-0.029458623
7	0xbd043d30	-0.032284915
8	0xbd53ad47	-0.051678922
9	0xbd0954ae	-0.033528022
10	0xbc069cb4	-0.008216072
11	0x3c98f386	0.018670809
12	0xbb274900	-0.002552569
13	0xbd026b0e	-0.031840377
14	0xbca7023f	-0.020386813
15	0x3d512aeb	0.05106632
16	0x3c5b0cfa	0.013369793
17	0xbae9bb74	-0.0017832355
18	0xbc8aefeb	-0.016960105
19	0xbcfd2d21	-0.030905308
20	0xbce7c1bc	-0.028290622
21	0x3d1eeefb	0.03880213
22	0xbc9ea6ba	-0.01936661
23	0xbbca051a	-0.006165159
24	0x3ca1bc88	0.019743219
25	0xbc490f1c	-0.012271669
26	0x3d140e06	0.036146186
27	0x3d44ec7f	0.048077103
28	0x3b716710	0.0036835112
29	0x3ccabf76	0.024749499
30	0x3cffddca	0.031233687
31	0x3c873f7a	0.01650976
32	0x3c057cd4	0.008147437
33	0xbcdd158c	-0.026987813
34	0x3cb9f756	0.022700947
35	0x3cfeb69e	0.031092938
36	0x3c3e5c1a	0.011618638
37	0x3cf06fbd	0.029350156
38	0xbd11fdba	-0.035642363
39	0x3cf0d3dd	0.0293979
40	0x3cb1ecce	0.021719363
41	0xbc638124	-0.01388577
42	0x3c0f21bb	0.008736069
43	0xbd54e74e	-0.0519784
44	0xbd70f0fa	-0.058823563
45	0xbd48fd7e	-0.049069874
46	0xbc79f540	-0.015256226
47	0x3c2010fc	0.009769674
48	0xbce47a39	-0.027890312
49	0x3c84d3ba	0.01621424
50	0xbb64e190	-0.0034924485
51	0x3c8d6a8a	0.017262716
52	0xbd31ed40	-0.04343915
53	0x3d04c1eb	0.032411497
54	0x3cd6726e	0.026177611
55	0x3d3f2e0d	0.046674777
56	0x3d25b129	0.040452156
57	0x3bed4b38	0.007241633
58	0x3d1fe0b7	0.039032664
59	0xbd0adf52	-0.03390438
60	0x3d2cab7d	0.04215573
61	0xbd3f882f	-0.046760734
62	0xbcd91564	-0.026499458
63	0x3d195c3b	0.037441473
64	0x3d0ede67	0.03488007
65	0xbd7031e3	-0.058641326
66	0x3cf37b5e	0.029721912
67	0x3cd29692	0.025706563
68	0xbd3ed9a0	-0.046594262
69	0x3d4bc0b9	0.04974434
70	0xbcafb2cc	-0.021447562
71	0xbad683c0	-0.0016366169
72	0x3cd9b002	0.026573185
73	0x3ceb9cb6	0.028761249
74	0x3d371e6f	0.044706758
75	0x3c0e6a3c	0.00869232
76	0x3d10508d	0.03523307
77	0xbcc02bf0	-0.023458451
78	0xbd2ab0aa	-0.041672386
79	0xbd4fb77c	-0.050712094
80	0x3c944d2e	0.018103208
81	0x3d584e19	0.052808855
82	0x3cae0baa	0.021245796
83	0x3bb7b468	0.005606223
84	0x3c61e90c	0.013788473
85	0x3d5acc93	0.053417753
86	0xbd6b74d7	-0.057484474
87	0x3d219ae3	0.039454352
88	0xbcda06b2	-0.02661452
89	0x3d6f2737	0.058387008
90	0x3cd9db85	0.026593933
91	0xbd1ab44b	-0.037769597
92	0xbd5ee9b9	-0.054422114
93	0xbcef4289	-0.029206531
94	0x3cf5966d	0.029978955
95	0xbd17be5d	-0.03704678
96	0x3d55e11a	0.052216627
97	0x3ba04913	0.0048915236
98	0x3c04cc79	0.008105391
99	0xbcb8d6fc	-0.02256345
100	0x3d48d19b	0.04902802
101	0xbb524020	-0.0032081679
102	0xbcc6af08	-0.024253383
103	0xbd4616a0	-0.04836142
104	0x3d5bfbcb	0.053706925
105	0x3ce05df6	0.027388554
106	0x3aacb8c0	0.0013177618
107	0xbcf72e75	-0.03017352
108	0xbcf5f86b	-0.030025681
109	0xbd29bf9a	-0.04144249
110	0x3b891056	0.0041828556
111	0xbc65b219	-0.014019513
112	0x3d13911c	0.03602706
113	0x3d6a8a22	0.05726064
114	0xbd690482	-0.056889065
115	0xbcff2893	-0.031147277
116	0x3d3434c6	0.04399564
117	0xbd5905cf	-0.052984055
118	0x3d2dbf75	0.042418916
119	0xbd311d14	-0.04324062
120	0x3ce76999	0.028248595
121	0xbc4e6e66	-0.012599563
122	0xbc2202d2	-0.009888368
123	0xbcfb438a	-0.030671854
124	0xbd69fcdb	-0.057125907
125	0x3b901fd1	0.004398324
126	0x3d66ff25	0.05639567
127	0x3cd45652	0.025920067
128	0x3cedca22	0.029027048
129	0xbd0c8132	-0.034302898
130	0xbd46b5b0	-0.048513114
131	0xbcce6ade	-0.025197443
132	0xbcc331da	-0.023827482
133	0x3ba1c528	0.004936833
134	0xbd193572	-0.037404485
135	0x3d03542a	0.032062687
136	0xbd4b3a81	-0.04961634
137	0x3d48f560	0.049062133
138	0xbc672e2a	-0.014110127
139	0xbbbabcae	-0.005698762
140	0x3d707da4	0.05871357
141	0xbd2257be	-0.03963446
142	0xbd6645a9	-0.056218777
143	0x3cc80dc6	0.02442063
144	0x3d076115	0.03305157
145	0x3c4de06c	0.012565713
146	0x3ce4466e	0.027865615
147	0x3d084f45	0.033278722
148	0x3cb0a6c6	0.021563899
149	0x3d4784fd	0.048710812
150	0xbb33e6b0	-0.0027450733
151	0x3d37108b	0.04469351
152	0xbd6c4824	-0.057685986
153	0x3b92c275	0.0044787475
154	0x3d1f3e1e	0.0388776
155	0xbd6cba02	-0.05779458
156	0x3d021c99	0.031765554
157	0x3b3a6145	0.0028439325
158	0x3c1d4931	0.00959997
159	0xbd25f5b2	-0.040517516
160	0xbd4b0094	-0.0495611
161	0x3c4452a3	0.011982593
162	0xbd24cc9b	-0.04023419
163	0x3cf546c2	0.029940967
164	0xbc1bb28c	-0.009503018
165	0xbcce3d22	-0.025175635
166	0x3c0b9b1a	0.008520866
167	0x3d3e9107	0.046525028
168	0x3d650947	0.05591705
169	0x3c32d063	0.010913941
170	0xbc95aef9	-0.01827191
171	0xbd222499	-0.039585683
172	0xbd675a9a	-0.05648289
173	0x3b920f17	0.0044573653
174	0xbd29f380	-0.041491985
175	0xbd0ab210	-0.03386122
176	0x3c7506bb	0.014955218
177	0x3bceeae7	0.0063146236
178	0xbd152f20	-0.036421895
179	0xbbfd0e22	-0.007722632
180	0xbcff5994	-0.031170644
181	0x3b981d18	0.00464214
182	0xbb1b6630	-0.0023712032
183	0xbcd2b2d8	-0.025720045
184	0xbbb8cc18	-0.0056395642
185	0x3d37070f	0.044684466
186	0xbd279752	-0.040915795
187	0xbd42fd5f	-0.047604915
188	0x3d4160e9	0.04721156
189	0xbd172ff2	-0.03691096
190	0x3cd5954a	0.026072163
191	0xbd59eca2	-0.053204186
192	0xbb075ad0	-0.0020653494
193	0xbbc384a8	-0.0059667416
194	0xbd3a2e48	-0.045454293
195	0xbca02676	-0.01954959
196	0x3b582da0	0.003298618
197	0xbbcfdf80	-0.006343782
198	0xbd545887	-0.05184224
199	0x3c63293b	0.013864811
200	0xbd357308	-0.044299155
201	0x3ca3e5c6	0.020007025
202	0xbd25681e	-0.040382497
203	0xbd138e42	-0.03602434
204	0x3b333330	0.0027343743
205	0x3c17881c	0.00924876
206	0x3ce88f0a	0.028388519
207	0xbb24e590	-0.0025161244
208	0x3cbbf006	0.0229416
209	0x3d5965c3	0.053075563
210	0x3d68f94f	0.056878384
211	0xbc22cdd0	-0.009936765
212	0x3c8befc2	0.017082099
213	0xbd6121bc	-0.054963812
214	0xbbc3df00	-0.0059775114
215	0xbd09c0ef	-0.03363126
216	0x3d1583eb	0.03650276
217	0x3b9811a8	0.0046407767
218	0xbd442fe5	-0.04789724
219	0x3ce4a646	0.027911317
220	0x3c654c84	0.0139952935
221	0xbd013b4e	-0.031550698
222	0xbd0196be	-0.0316379
223	0xbbdada10	-0.006678827
224	0x3d1a1659	0.03761897
225	0xbd5cb3e0	-0.05388248
226	0xbc631743	-0.0138605265
227	0xbd2584bf	-0.0404098
228	0x3d6b6caa	0.057476677
229	0x3c57d7d8	0.01317402
230	0xbd1682f2	-0.036745973
231	0xbd6b201b	-0.057403665
232	0x3d45a9d4	0.048257664
233	0x3d244ce4	0.04011239
234	0x3cf6dc56	0.030134361
235	0xbd67e5ee	-0.056615762
236	0x3c9f2146	0.019425046
237	0x3d3c109d	0.04591428
238	0x3c20e79c	0.009820845
239	0xbd014934	-0.031563953
240	0x3d5700e1	0.052491073
241	0xbcba43d2	-0.022737417
242	0xbc55aa48	-0.0130410865
243	0xbd3a974f	-0.045554455
244	0x3d089ddb	0.033353668
245	0xbcf00663	-0.02929992
246	0x3c3e4284	0.011612538
247	0xbd1a7d50	-0.037717164
248	0x3bbd2248	0.005771909
249	0xbcb4f24c	-0.022088192
250	0xbd30f8d2	-0.043206044
251	0xbd541c87	-0.05178502
252	0xbd2001b6	-0.03906413
253	0xbd3760e4	-0.044770136
254	0x3c78094c	0.015138935
255	0x3c3a7fe2	0.011383029

features.2.bias f4 [32]
0	0x3cd90cc7	0.02649535
1	0x3b4a8060	0.0030899271
2	0x3cac2993	0.021015918
3	0xbc2372bc	-0.009976085
4	0xbd5768a5	-0.05259003
5	0x3d2decac	0.042462036
6	0x3c34a45b	0.0110255135
7	0x3c9cdd92	0.019148622
8	0x3d711a1f	0.0588628
9	0x3c994c1a	0.018713046
10	0x3d22ad0f	0.039715823
11	0xbc9997a0	-0.018749058
12	0xbc8078f1	-0.01568267
13	0x3cf952ea	0.030435044
14	0xbcdcf325	-0.02697141
15	0x3cd9e6e8	0.026599362
16	0x3d167718	0.03673467
17	0x3d1f0f36	0.038832866
18	0x3cceceba	0.02524506
19	0xbd58a6f6	-0.0528936
20	0x3d206bdf	0.039165374
21	0x3cf76c3f	0.030202983
22	0x3cc6bf10	0.024261028
23	0x3ce9fd36	0.028563123
24	0x3d436634	0.04770489
25	0xbd2dab9a	-0.04239998
26	0xbc2014ac	-0.009770554
27	0x3cb76359	0.02238624
28	0x3d460855	0.04834779
29	0xbb42dd85	-0.0029734087
30	0x3d4c96bb	0.049948435
31	0xbca9325c	-0.020653896

features.6.weight f4 [64, 32, 3, 3]
0	0x3cd9936e	0.026559558
1	0x3c5c962c	0.013463538
2	0xbd6d7a3e	-0.057977907
3	0xbc127100	-0.008938074
4	0xbcd9c388	-0.026582494
5	0x3d2181b1	0.039430324
6	0x3d5c849b	0.0538374
7	0xbd64e6c7	-0.05588415
8	0x3c242784	0.010019187
9	0x3cda489c	0.026645951
10	0xbd10f958	-0.035394043
11	0x3d66b374	0.056323484
12	0xbce0662d	-0.027392471
13	0xbd5895be	-0.05287718
14	0x3d4e5da8	0.050382286
15	0xba618450	-0.0008602785
16	0xbd5d350c	-0.054005668
17	0xbd555bf2	-0.05208964
18	0x3c066861	0.008203597
19	0x3c86ad74	0.01644013
20	0xbcf1b1cb	-0.029503724
21	0x3d65214e	0.055939965
22	0xbd32125c	-0.04347454
23	0xbc9b2008	-0.018936172
24	0xbb76c9cc	-0.0037656901
25	0xbcdadba4	-0.026716061
26	0x3cc14032	0.023590181
27	0x3d049421	0.03236783
28	0xbb94c2c6	-0.0045398204
29	0xbd0e02dc	-0.034670696
30	0xbc3ae5b5	-0.0114073055
31	0x3c469537	0.0121205365
32	0x3d6481f3	0.05578799
33	0xbca01fde	-0.019546445
34	0x3d5f2368	0.054477125
35	0xbd05bf03	-0.032652866
36	0xbc6bbada	-0.014387811
37	0xbce7b10a	-0.028282661
38	0x3d4aacd2	0.04948122
39	0x3d6ce6c1	0.05783725
40	0x3d704ae4	0.05866517
41	0x3c1108e2	0.0088522155
42	0xbd14357d	-0.036183823
43	0xbd0cf9bd	-0.034417856
44	0x3c334f1c	0.010944154
45	0xbd001849	-0.03127316
46	0xbbf6f221	-0.0075361882
47	0xbc9f3289	-0.019433277
48	0x3c935cc5	0.017988572
49	0x3b684000	0.0035438538
50	0x3d0a833e	0.03381657
51	0x3c28460d	0.010270608
52	0xbcfb56ff	-0.030681131
53	0x3a7594dd	0.00093681907
54	0xbc371401	-0.011174203
55	0xbd0123e0	-0.031528354
56	0x3cdd6449	0.027025359
57	0xbd6e3e3a	-0.058164813
58	0xbd67f9af	-0.0566346
59	0x3c97c899	0.01852827
60	0xbd32a008	-0.04360965
61	0xbd1dec21	-0.03855527
62	0x3d713c7b	0.05889557
63	0x3d011369	0.03151265
64	0xbd69b69a	-0.057058908
65	0x3bf3de5f	0.00744228
66	0xbcdb348e	-0.026758458
67	0xbcbeca53	-0.023289835
68	0xbd08c5b4	-0.03339167
69	0x3c77d61d	0.015126732
70	0xbd6e2c24	-0.058147565
71	0x3d55eb18	0.052226156
72	0xbd2e5fbe	-0.042571776
73	0xbd29d817	-0.041465845
74	0xbd57d1ac	-0.052690193
75	0xbd2d1c55	-0.042263348
76	0x3cea6d0f	0.028616456
77	0x3d3e307c	0.046432957
78	0x3c260f3c	0.010135468
79	0x3d6d8896	0.057991587
80	0xbc43ecde	-0.011958329
81	0x3c046874	0.008081544
82	0xbd419839	-0.04726431
83	0x3d4bbda9	0.04974142
84	0xbca7f1d0	-0.020501047
85	0xbc9506fe	-0.01819181
86	0x3cb7514a	0.022377629
87	0x3cf4d0ba	0.029884685
88	0xbd3fb932	-0.046807475
89	0x3aff2240	0.0019465163
90	0x3cccde59	0.025008367
91	0x3c929a19	0.017895745
92	0xbc480c51	-0.012209968
93	0x3c02fc7b	0.007994766
94	0x3ce43851	0.027858885
95	0x3d033063	0.032028567
96	0x3b17b409	0.002314808
97	0xbc8c807a	-0.017151106
98	0x3773c2a1	1.4529244e-05
99	0xbd20594b	-0.039147656
100	0x3b904472	0.0044026906
101	0x3d01bf77	0.031676736
102	0xbd1aaa1e	-0.037759893
103	0xbd3cd041	-0.046097044
104	0xbd10e399	-0.035373304
105	0xbcbbbab4	-0.022916175
106	0x3ba0e3be	0.0049099615
107	0x3c5dcb53	0.013537246
108	0x3d00f23d	0.031481016
109	0x3bfa75da	0.0076434435
110	0x3cabd954	0.020977654
111	0x3b672658	0.0035270657
112	0xbcef9489	-0.029245632
113	0xbd547390	-0.05186802
114	0xbd1e62e6	-0.038668536
115	0xbd426083	-0.047455322
116	0xbc3054ec	-0.010762434
117	0xbc02f8ac	-0.007993858
118	0x3d595295	0.053057272
119	0xbcb33d1a	-0.021879721
120	0x3b895378	0.0041908585
121	0x3c856682	0.016284231
122	0x3c2b6e7c	0.010463353
123	0xbc3744d4	-0.0111858435
124	0x3cd3ac1e	0.025838908
125	0xbb6d3cb0	-0.0036199503
126	0x3d2d9949	0.042382512
127	0x3bd3dab2	0.0064652795
128	0xbce8980d	-0.028392816
129	0x3d633e9f	0.055479642
130	0x3be6b719	0.00704087
131	0x3caa8b7d	0.020818466
132	0xbd46e2da	-0.048556186
133	0x3d2afaa9	0.041742954
134	0xbd451458	-0.048115104
135	0xbbd99f70	-0.006641321
136	0xbb4c9b8f	-0.003122065
137	0xbd54e6ca	-0.05197791
138	0xbd466004	-0.04843141
139	0xbd6a7edd	-0.057249893
140	0x3c95c842	0.018283967
141	0xbd669a60	-0.056299567
142	0x3d42585e	0.047447555
143	0xbd3a8fb0	-0.045547187
144	0xbd055e26	-0.03256049
145	0x3cb65f3a	0.022262204
146	0x3d115d68	0.03548947
147	0xbc525d49	-0.012839624
148	0x3d08c560	0.033391356
149	0x3c96d260	0.018410861
150	0xbd089dde	-0.03335368
151	0x3cf3d062	0.02976245
152	0xbd47cdf8	-0.04878041
153	0xbd52614d	-0.051362325
154	0x3ae5e57a	0.0017539703
155	0xbc884beb	-0.016637763
156	0xbd1eb51c	-0.038746938
157	0xbbb751f9	-0.0055944887
158	0x3cbe7fd4	0.023254313
159	0xbcfde7da	-0.030994345
160	0xbd3ba68a	-0.04581312
161	0xbd1fb2a2	-0.038988717
162	0xbce08159	-0.027405428
163	0x3cce0c23	0.025152272
164	0xbc8a651f	-0.016893921
165	0x3c0af4b5	0.008481194
166	0x3bc9506d	0.0061436207
167	0xbbeb8497	-0.007187437
168	0xbcbc2100	-0.022964954
169	0xbb5b0661	-0.003342055
170	0x3cc9f801	0.02465439
171	0xbd0169dc	-0.031595096
172	0xbba8df24	-0.0051535536
173	0x3c9c3284	0.019067056
174	0xbd005b93	-0.031337332
175	0x3c4e6bd3	0.0125989495
176	0x3d199aeb	0.037501257
177	0xbcff13d9	-0.031137394
178	0xbbba0442	-0.005676777
179	0xbc20666f	-0.009790047
180	0x3bef9cfc	0.007312415
181	0xbd5f1fe6	-0.05447378
182	0xbcb86ac5	-0.02251185
183	0x3d067fb8	0.032836646
184	0x3cbc90fe	0.023018356
185	0x3d344cc0	0.044018507
186	0x3cf2457b	0.029574146
187	0xbd5019cb	-0.050805848
188	0xbc1876b6	-0.009305647
189	0xbce944b7	-0.028475149
190	0x3c13eec9	0.009029099
191	0xbcc9f17f	-0.024651287
192	0x3d3158af	0.043297466
193	0x3c9ec38f	0.019380359
194	0xbb0d5338	-0.0021564495
195	0x3caf2d4f	0.02138391
196	0x3d187edd	0.03723036
197	0xbd025b29	-0.03182522
198	0x3d051dab	0.032498997
199	0x3d056760	0.03256929
200	0xbd3b60f9	-0.045746777
201	0x3d22c7b0	0.039741218
202	0xba91873b	-0.0011102924
203	0xbcce8acf	-0.025212673
204	0xbcc6432b	-0.02420195
205	0x3bfbb978	0.0076820217
206	0x3c9f061a	0.01941209
207	0x3d2348ee	0.039864473
208	0x3ce854fc	0.028360836
209	0x3c8edc0d	0.017438913
210	0xbcc9607a	-0.024582136
211	0xbcef0e07	-0.029181493
212	0x3bda3b97	0.0066599357
213	0xbd3a46db	-0.04547773
214	0xbc8c1163	-0.017098134
215	0xbd063944	-0.032769457
216	0x3caaf8f6	0.020870667
217	0xbd3e94d0	-0.046528637
218	0xbd70d3da	-0.058795787
219	0xbd0c3c95	-0.034237463
220	0xbac0cb1a	-0.0014708966
221	0x3d4f3dbd	0.050595988
222	0x3b4dff84	0.0031432817
223	0xbd1ae667	-0.037817385
224	0xbd0f5076	-0.034988843
225	0xbd53a518	-0.051671118
226	0xbd544bd8	-0.051830143
227	0xbce51c54	-0.02796761
228	0x3d26bf65	0.04070987
229	0xbd0102ce	-0.031496815
230	0xbcf7a526	-0.030230116
231	0xbd41f4d5	-0.04735263
232	0xbc5b45b4	-0.013383318
233	0xbd704f3a	-0.058669306
234	0x3c3d4bfb	0.01155376
235	0x3c9adf0a	0.018905181
236	0x3d708dec	0.058729097
237	0x3c35016d	0.011047703
238	0xbd12e219	-0.035860155
239	0x3ca5d956	0.020245235
240	0xbd1e0a8b	-0.038584273
241	0x3c00318a	0.007824311
242	0x3bb36ae8	0.0054753907
243	0xbcb98ad3	-0.022649204
244	0xbd3fa3f2	-0.04678721
245	0x3d2a2d41	0.041547064
246	0x3d592fbf	0.05302405
247	0xbd1ae526	-0.03781619
248	0xbc271c7c	-0.010199662
249	0x3d3bff0a	0.04589752
250	0x3c99b063	0.018760866
251	0xbd10f68a	-0.035391368
252	0xbc69d4ea	-0.014271954
253	0xbd362bd7	-0.044475403
254	0x3c45c5f6	0.012071123
255	0x3d6cb5cd	0.057790566

features.6.bias f4 [64]
0	0xbd44feb7	-0.048094478
1	0x3cb532db	0.022118976
2	0xbd69fc9f	-0.057125684
3	0xbd3248d0	-0.04352647
4	0x3c39c085	0.011337404
5	0xbccdb4f6	-0.025110703
6	0xbbee5db0	-0.007274352
7	0x3c36b6e2	0.011152001
8	0x3cc5483e	0.0240823
9	0x3c2af522	0.010434421
10	0x3b8c6ab2	0.00428518
11	0x3d454d53	0.048169445
12	0x3a12b29e	0.0005596074
13	0xbd0d4ad6	-0.034495197
14	0x3d65a14d	0.05606203
15	0xbc5c2386	-0.013436204
16	0xbc00b90d	-0.00785662
17	0x3d05adc0	0.032636404
18	0x3b9f3db2	0.0048596496
19	0xbd21ab74	-0.03947015
20	0xbd5babce	-0.053630643
21	0xb90ce443	-0.00013436475
22	0xbb0f53f2	-0.0021870104
23	0x3caae630	0.020861715
24	0x3bfcf0eb	0.0077191493
25	0x3bc12686	0.005894485
26	0xbbbfdbe4	-0.0058550704
27	0xbbca9289	-0.006182019
28	0x3c9b74dd	0.018976623
29	0x3d5e09a2	0.054208405
30	0x3d6d6780	0.057960033
31	0xbce7397f	-0.028225658
32	0x3d3221c6	0.04348924
33	0xbd661dcf	-0.05618077
34	0xbcc2a1cb	-0.02375879
35	0xbc486496	-0.012231013
36	0xbd327037	-0.043564048
37	0x3c989b2e	0.018628683
38	0xbc2c8dcf	-0.010531857
39	0x3d070279	0.032961342
40	0x3cdeaa4a	0.02718081
41	0x3d06f46d	0.032947946
42	0xbceb1b7d	-0.02869963
43	0xbd44c5af	-0.04804009
44	0xbcafec3c	-0.02147495
45	0xbc5992b7	-0.013279608
46	0x3d0e0963	0.03467692
47	0xbb21271e	-0.0024589966
48	0xbce3a229	-0.027787285
49	0x3ce13e9b	0.027495673
50	0xbd3534c7	-0.044239786
51	0xbd1c6e4f	-0.038191136
52	0xbc4d46c1	-0.012529076
53	0xbce6ade8	-0.028159097
54	0x3d482a1a	0.048868276
55	0x3ab9c36e	0.0014172622
56	0x3d0cdc35	0.034389693
57	0x3d63c95f	0.055611964
58	0xbcbad0b2	-0.022804592
59	0x3c085568	0.008321144
60	0x3d3d3e9d	0.04620229
61	0xbcaaa824	-0.020832129
62	0xbd4d67c5	-0.05014779
63	0x3c814d40	0.015783906

features.8.weight f4 [64, 64, 3, 3]
0	0xbca29e19	-0.019850777
1	0xbc475cb1	-0.012168095
2	0xbcc1be9e	-0.023650464
3	0xbcaa8bdb	-0.020818641
4	0x3c9c3b99	0.019071387
5	0x3cad4e0b	0.021155378
6	0xbbb7e201	-0.0056116586
7	0xbcdc9299	-0.026925372
8	0xbd0396cd	-0.032126237
9	0xbb929735	-0.0044735917
10	0xbd1eebee	-0.03879922
11	0xbc1b3be6	-0.00947473
12	0x3cf8dc2b	0.030378422
13	0x3d0aaff6	0.033859216
14	0xbbbd2596	-0.005772303
15	0xbaa9ddf8	-0.0012959829
16	0x3b64fe47	0.00349416
17	0x3c564879	0.013078802
18	0x3ce6c446	0.028169762
19	0x3d1fd164	0.03901805
20	0x3c1ea9c1	0.009684027
21	0xbca144ae	-0.01968607
22	0x3c23e722	0.010003837
23	0x3bac5952	0.0052596712
24	0x3d1fe06f	0.039032396
25	0x3c5c217a	0.013435716
26	0x3d003987	0.031304862
27	0x3cb3f936	0.021969419
28	0xbc80231c	-0.015641741
29	0x3ca6e18e	0.020371225
30	0x3c2ab685	0.010419493
31	0xbc020e21	-0.007937939
32	0xbccbbff6	-0.024871808
33	0x3cdb2178	0.026749358
34	0xbca7f04b	-0.020500323
35	0xbd15c3af	-0.03656357
36	0xbc4e7be5	-0.012602781
37	0xbcd7f4bc	-0.026361816
38	0xbb7bf04a	-0.0038442784
39	0xbb4dbf77	-0.003139464
40	0x3b4f8162	0.0031662812
41	0x3d251a6f	0.040308412
42	0x3aca1eb5	0.0015420528
43	0xbc7dcb51	-0.015490369
44	0x3c1bf8ae	0.009519739
45	0xbc642d7a	-0.013926858
46	0xbd22c69a	-0.039740182
47	0xbca3c362	-0.019990627
48	0x3c1ed5a8	0.009694494
49	0xbcc63087	-0.024193062
50	0xbc912fe9	-0.01772304
51	0x3ce28d62	0.027655307
52	0x3cf26270	0.029587954
53	0xbcbf8a3a	-0.023381341
54	0x3c56ccb4	0.0131103285
55	0x3bb2e5f2	0.0054595405
56	0xbb95fd7b	-0.0045773364
57	0xbcc68f21	-0.024238171
58	0xbcc08b13	-0.023503816
59	0x3d1e1f7f	0.038604256
60	0x3d17bee4	0.03704728
61	0x3c2bfbe8	0.010497071
62	0xbd22c96f	-0.039742883
63	0x3d14e0ed	0.03634732
64	0x3afd83ad	0.0019341611
65	0x3cac9487	0.021066917
66	0xbc972d0c	-0.018454097
67	0xbd04d46a	-0.032429136
68	0xbb2e51bd	-0.0026599013
69	0x3c35c99d	0.011095432
70	0x3ce5236a	0.027970988
71	0xbc06ba8a	-0.008223185
72	0x3d061c5e	0.032741897
73	0x3d169dc1	0.03677154
74	0x3cf9d811	0.030498536
75	0x3d1e664c	0.038671777
76	0x3c1c8f07	0.009555585
77	0x3c797049	0.015224525
78	0xbd04e7e9	-0.03244773
79	0x3d27dc95	0.040981848
80	0x3d00ec7c	0.03147553
81	0xbc90276a	-0.01759692
82	0xbc409f21	-0.011756689
83	0x3d28b34c	0.041186616
84	0x3b700a2d	0.003662716
85	0x3cef768f	0.029231338
86	0x3c8539fa	0.016262997
87	0x3d1822c4	0.03714253
88	0x3d06616d	0.032807756
89	0x39195c8a	0.0001462569
90	0xbd1fb6f5	-0.03899284
91	0xba3b3aba	-0.0007142235
92	0xbc74ce59	-0.014941775
93	0x3cf1b221	0.029503884
94	0xbd203040	-0.039108515
95	0xbbfba957	-0.007680099
96	0xbcc4a112	-0.024002586
97	0xbd192b88	-0.03739503
98	0xbc9cc814	-0.019138373
99	0x3b011ca4	0.001970091
100	0xbcba44a6	-0.022737812
101	0xbca910b9	-0.020637857
102	0x3d121a9f	0.03566992
103	0x3a26962c	0.0006354775
104	0xbcbc9546	-0.023020398
105	0x3d04094c	0.03223543
106	0x3cc5cf42	0.02414668
107	0x3d0ab3b6	0.033862792
108	0x3b546c8f	0.0032413339
109	0xbd042552	-0.032262154
110	0x3c9c3a3e	0.01907074
111	0x3c5602a2	0.013062151
112	0x3d048c47	0.03236034
113	0xbc5138ce	-0.012769891
114	0xbc462879	-0.01209461
115	0xbbe11abc	-0.006869642
116	0x3caafbd1	0.020872029
117	0x3c1083cf	0.008820488
118	0x3d00ff5f	0.03149354
119	0x3c58d3fe	0.013234137
120	0xbd08e73d	-0.03342365
121	0x3cbb47be	0.022861358
122	0xbd0a7df4	-0.033811525
123	0x3c921aac	0.017834984
124	0x3c6b048a	0.014344344
125	0x3cda9f62	0.026687328
126	0x3c6a6d33	0.014308262
127	0x3cfed054	0.031105198
128	0xbc52a886	-0.012857562
129	0x3cf6166a	0.030039985
130	0xbd16c76c	-0.036811277
131	0x3c593853	0.013258058
132	0x3d249cac	0.040188476
133	0x3c22ba4b	0.009932111
134	0xbc7c0a96	-0.015383383
135	0xbc41a918	-0.0118201
136	0xbc2b720a	-0.010464201
137	0xbd012046	-0.03152492
138	0x3d189e7e	0.037260525
139	0xbcc47425	-0.023981163
140	0xbcc1109a	-0.023567487
141	0xbce24dad	-0.02762493
142	0xbcb6029f	-0.022218047
143	0xbd1135e0	-0.03545177
144	0xb9c0e43d	-0.00036791145
145	0x3cc1827f	0.023621796
146	0xbb9afc7d	-0.004729806
147	0xbd07e6d3	-0.033179116
148	0x3d09c390	0.03363377
149	0xbc8313df	-0.016000686
150	0x3b9a74f5	0.0047136494
151	0x3d1ee5f8	0.038793534
152	0xbbb68d78	-0.0055710636
153	0x3cd1fecb	0.02563419
154	0xbd19e6c5	-0.037573595
155	0xbb652be1	-0.003496878
156	0xbd020283	-0.031740677
157	0xbc9611e0	-0.01831907
158	0xbcdefa78	-0.027219042
159	0xbcf2b044	-0.029625066
160	0x3c97829e	0.0184949
161	0x3b61e47e	0.0034468467
162	0xbc349ef8	-0.011024229
163	0xbc3c241d	-0.011483219
164	0xbc55c6fe	-0.013047932
165	0x3c9e25c5	0.01930512
166	0xbd0175b3	-0.031606387
167	0xbd174319	-0.036929224
168	0x3d0a22e6	0.033724688
169	0x3bc9b08a	0.0061550783
170	0xbd22cfa2	-0.039748795
171	0xbcc7f2a0	-0.024407685
172	0xbbd0d6fa	-0.0063732835
173	0xbbd61505	-0.0065332674
174	0x3bef543d	0.007303743
175	0xbac1ca2c	-0.0014784983
176	0xbd27d33f	-0.040972944
177	0xbb446ed2	-0.002997328
178	0x3c1f73be	0.009732185
179	0x3c088381	0.008332134
180	0x3d0c765e	0.03429257
181	0xbbab9962	-0.0052367905
182	0xbd217bbd	-0.039424647
183	0x3c7b41a3	0.015335473
184	0x3c966931	0.018360706
185	0x3c53da52	0.01293047
186	0x3cd6b709	0.026210325
187	0x3c9b8fad	0.018989408
188	0x3cf20e91	0.029547961
189	0xbc8cfc9f	-0.017210303
190	0xbcb2382f	-0.021755306
191	0x3c13b2ba	0.00901478
192	0xbafec991	-0.0019438734
193	0xbcfcfc44	-0.030882008
194	0xbd1705b9	-0.036870692
195	0xbc8177f1	-0.015804263
196	0x3d20cfc9	0.03926066
197	0xbd101945	-0.03518035
198	0xbcc631ec	-0.024193726
199	0x3c45ec6b	0.012080292
200	0xbcc53f3a	-0.024078
201	0xbc0bb2b8	-0.008526497
202	0x3caeee7a	0.021353949
203	0x3c35bc07	0.0110921925
204	0x3c70fe83	0.014709118
205	0x3bd00a08	0.006348852
206	0x3d0149fb	0.031564694
207	0x3ba90ae5	0.0051587694
208	0xbc95fc01	-0.018308641
209	0xbd1f455d	-0.03888451
210	0xbc04761e	-0.008084802
211	0x3d14d364	0.03633441
212	0x3b9e3636	0.00482824
213	0xbcb530ec	-0.022118054
214	0x3bea77b2	0.007155382
215	0x3d226934	0.03965111
216	0xbcc354e9	-0.0238442
217	0x3bde0f85	0.0067767524
218	0x3cf22aee	0.029561486
219	0x3d188fa0	0.037246346
220	0xbd010c32	-0.03150577
221	0x3c5748d2	0.01313992
222	0xbd241b4e	-0.040065102
223	0xbcaed859	-0.021343397
224	0x3b0e2b25	0.0021693197
225	0xbcf86989	-0.03032376
226	0x3cdad259	0.02671163
227	0x3bab059c	0.0052191745
228	0xbcd2be42	-0.025725488
229	0xbc42a1c2	-0.011879386
230	0xbca83495	-0.020532886
231	0x39e42f59	0.00043522826
232	0xbcec863e	-0.028872605
233	0x3c94e826	0.018177103
234	0x3d16692e	0.0367214
235	0x3d0e4a47	0.034738805
236	0xbc573b55	-0.013136704
237	0x3ce4ab0c	0.027913593
238	0xbc031645	-0.008000915
239	0x3c27f9a9	0.010252395
240	0x3ce02da2	0.02736551
241	0x3cd2ee92	0.025748525
242	0xbc03c6ba	-0.008042986
243	0x3c2a6460	0.010399908
244	0xbd232f74	-0.039840177
245	0x3cebc5b7	0.028780801
246	0x3aca97dd	0.0015456636
247	0x3a4d136c	0.00078230235
248	0x3cbdeb2a	0.023183424
249	0x3b818bcb	0.003953432
250	0xbcc64c85	-0.02420641
251	0xbcdd2df3	-0.02699945
252	0xbc919916	-0.017773192
253	0xbd266973	-0.040627908
254	0x3cc3b592	0.02389029
255	0x3c555601	0.013020993

features.8.bias f4 [64]
0	0x3cba0352	0.022706661
1	0xbc9d655f	-0.019213377
2	0x3d0cdf38	0.034392565
3	0x3d1ad822	0.037803777
4	0xbc66b234	-0.014080573
5	0xbcfcae7d	-0.030844921
6	0x3acd325b	0.0015655266
7	0xbb92c183	-0.004478635
8	0xbd07b63f	-0.033132788
9	0xb9a87452	-0.00032130122
10	0xbc464e03	-0.01210356
11	0x3bdc9dd7	0.006732683
12	0x3ca9c275	0.020722607
13	0xbc500421	-0.012696297
14	0xbc21d71d	-0.009877947
15	0x3caf91fe	0.02143192
16	0xbd084a1a	-0.033273794
17	0x3b1c93c4	0.0023891786
18	0xbc309c64	-0.010779474
19	0x3cd0d3d1	0.025491627
20	0xbcb69c99	-0.022291468
21	0xbcb3f273	-0.021966195
22	0x3cdfc86d	0.02731725
23	0x3c064f87	0.008197672
24	0xbcd20ab0	-0.025639862
25	0xbd218ebc	-0.039442763
26	0x3cdd52cc	0.02701702
27	0x3c043470	0.008069143
28	0xbca1c64c	-0.019747876
29	0xbd142366	-0.03616657
30	0xbce83c10	-0.028348953
31	0x3d2437dd	0.040092338
32	0x3cf0894f	0.029362349
33	0xbb312630	-0.0027030818
34	0xbd087812	-0.033317633
35	0x3cc8021a	0.024415065
36	0xbca18696	-0.019717496
37	0xbcf9799e	-0.0304535
38	0xbc801a2a	-0.015637476
39	0xbc94c51e	-0.018160399
40	0xbce2ce78	-0.027686343
41	0x3b206238	0.0024472605
42	0x3cbae693	0.022815024
43	0xbc985882	-0.018596891
44	0xbad250e2	-0.0016045833
45	0x3c9a9dab	0.01887401
46	0x3b66ad4c	0.0035198508
47	0xbbeff76a	-0.007323195
48	0xbd111927	-0.035424378
49	0xbcd67991	-0.026181014
50	0xbbc61637	-0.0060451287
51	0xbd12117d	-0.03566121
52	0xba2013e3	-0.0006106479
53	0x3c8e9220	0.017403662
54	0xbbeaceb5	-0.0071657547
55	0xbcc2f924	-0.02380044
56	0xbcd7544b	-0.026285311
57	0x3b0cec14	0.0021503018
58	0xbd289f1d	-0.041167367
59	0x3d0aa7df	0.0338515
60	0xbd0eba46	-0.034845613
61	0xbbc9e953	-0.0061618476
62	0x3cee46ab	0.029086431
63	0x3c45fb1e	0.012083797

features.12.weight f4 [64, 64, 1, 1]
0	0x3dde19e4	0.10844782
1	0xbb9a8e63	-0.004716681
2	0xbba69016	-0.0050830944
3	0x3df074ae	0.11741005
4	0xbc5ec960	-0.013597816
5	0x3cc486fd	0.023990149
6	0x3d5e1759	0.054221485
7	0xbd00a178	-0.03140399
8	0xbdaaa953	-0.08333077
9	0xbd1f09e0	-0.038827777
10	0x3d31d5a5	0.043416638
11	0xbd8786bc	-0.066174954
12	0xbc950517	-0.018190904
13	0xbd9f3c58	-0.077751815
14	0xbcb6d8a4	-0.0223201
15	0xbd4584fc	-0.048222527
16	0x3dd8a238	0.10577816
17	0x3cfb4862	0.030674163
18	0xbda1a5fc	-0.07892987
19	0xbc931bd6	-0.01795761
20	0x3d7d8b9a	0.061900713
21	0x3d806c7c	0.06270692
22	0xbcbf5128	-0.023354128
23	0xbdb48b1b	-0.08815595
24	0xbc4495c9	-0.011998602
25	0xbcb7d506	-0.022440445
26	0xbd47eb3b	-0.048808318
27	0x3cab61f7	0.020920737
28	0xbad3c21a	-0.0016155869
29	0x3d8bf797	0.068343334
30	0xbdbd698c	-0.09248647
31	0xbd6e1a9b	-0.05813084
32	0x3d89b146	0.06723265
33	0xbd84d844	-0.06486562
34	0x3dbd93c7	0.09256702
35	0xbd87c4a5	-0.06629304
36	0xbdae4a87	-0.08510309
37	0x3dfeee32	0.12447776
38	0x3dda9f87	0.10674959
39	0x3cbd2738	0.02308999
40	0xbdc4fffa	-0.09619136
41	0xba972f19	-0.0011534422
42	0xbd953773	-0.07285967
43	0x3d020264	0.03174056
44	0xbce971aa	-0.028496582
45	0xbd14f00e	-0.036361746
46	0xbdcd723c	-0.10031554
47	0xbd6acce9	-0.057324324
48	0xbc822379	-0.015886055
49	0xbd928ef4	-0.071561724
50	0x3d1f8853	0.03894837
51	0xbd3dbf95	-0.046325285
52	0xbdc7692a	-0.09736855
53	0x3d6e10cb	0.058121484
54	0xbd9d5efa	-0.07684131
55	0xbdd6035a	-0.10449858
56	0x3d238250	0.039919198
57	0xbc1f1420	-0.009709388
58	0x3bbe2ef7	0.0058039385
59	0xbd375ff5	-0.044769246
60	0x3d3a7c70	0.04552883
61	0xbdb2334b	-0.087011896
62	0x3cd82ec4	0.026389487
63	0xbb5453a8	-0.0032398496
64	0x3d134852	0.035957642
65	0xbd7e308d	-0.06205802
66	0x3c4acb3e	0.012377558
67	0x3db1cb24	0.08681324
68	0xbc8d7af9	-0.017270552
69	0xbdfda6ca	-0.12385328
70	0xbd9c20e0	-0.07623458
71	0xbde08e99	-0.10964698
72	0x3cdca137	0.026932342
73	0xbdf017f0	-0.11723316
74	0x3cdc61af	0.026902048
75	0xbcea50a1	-0.0286029
76	0x3d9f8f61	0.07791019
77	0xbccb0bfe	-0.024785992
78	0xbdfa5d2d	-0.12224803
79	0x3d2bb385	0.04191925
80	0xbd2aa010	-0.041656554
81	0xbb14197a	-0.0022598193
82	0x3db26b96	0.08711927
83	0xbd2b259b	-0.04178391
84	0x3d9ce61d	0.07661078
85	0xbbbb3229	-0.0057127667
86	0x3d637f99	0.05554161
87	0x3c37e9af	0.011225148
88	0xbd947559	-0.07248945
89	0x3c32854e	0.01089604
90	0xbd37db32	-0.044886775
91	0xbdbad48c	-0.09122571
92	0x3d80fdbe	0.062983975
93	0x3bc04c3d	0.0058684633
94	0xbd90342c	-0.07041201
95	0x3da25160	0.07925677
96	0x3d29406e	0.04132121
97	0x3d429181	0.047502045
98	0xbda9895b	-0.082781516
99	0x3d5cee8a	0.053938426
100	0xbd8080ce	-0.062745675
101	0xbda12e2a	-0.07870133
102	0x3dbf8843	0.09352162
103	0x3d8b8ee5	0.06814364
104	0x3c7ebbe0	0.015547723
105	0xbd18f69f	-0.03734457
106	0xbd30c09e	-0.043152444
107	0x3c0269f5	0.007959832
108	0x3cf0fb0a	0.02941658
109	0xbdaef79f	-0.08543324
110	0x3d89ed05	0.06734661
111	0xbdbc6cb0	-0.09200418
112	0xbdf22159	-0.11822767
113	0xbd7c534c	-0.061602876
114	0xbc980ed7	-0.018561764
115	0xbd98ddc5	-0.07464174
116	0x3db7d06d	0.08975301
117	0x3d8bc0b7	0.06823867
118	0xbc441092	-0.011966841
119	0x3c81370f	0.015773324
120	0x3d9c219e	0.076235995
121	0xbddcb3ca	-0.107764795
122	0xbd7419e4	-0.059595004
123	0x3d7460cf	0.059662636
124	0x3dfeaac5	0.124349155
125	0xbdbd268d	-0.092358686
126	0x3cde24c9	0.02711715
127	0xbdfa1605	-0.12211231
128	0x3d801d8b	0.06255635
129	0x3dd88ce0	0.10573745
130	0x3d4fd928	0.050744206
131	0x3c9cda5e	0.019147094
132	0xbc962e75	-0.0183327
133	0xbd8e93f9	-0.06961817
134	0x3d72b0de	0.059250705
135	0xbcd86090	-0.026413232
136	0xbda5e3a2	-0.08100058
137	0xbdf5434c	-0.119757265
138	0xbdcb5592	-0.099284306
139	0x3df09c9f	0.11748623
140	0x3ded1ad8	0.11577386
141	0xbdb78cf6	-0.08962433
142	0x3c496ff1	0.012294755
143	0x3cedc891	0.029026302
144	0x3ddaca76	0.106831476
145	0xbcd23f44	-0.025664933
146	0xbd35ccee	-0.04438489
147	0xbad05a31	-0.001589602
148	0xbd1532b8	-0.036425322
149	0xbc5652ff	-0.013081311
150	0xbdb120eb	-0.08648857
151	0xbd8562e3	-0.06513002
152	0x3decbd20	0.1155951
153	0x3d09b9dc	0.033624515
154	0x3dcd4ad7	0.1002404
155	0xbd8ce3f2	-0.068794146
156	0xbdf4444b	-0.11927088
157	0xbdbf8359	-0.093512245
158	0xbd9bfaaa	-0.0761617
159	0xbd076bd0	-0.033061802
160	0x3df04f6d	0.11733899
161	0x3dbed6c4	0.09318307
162	0xbda15611	-0.07877744
163	0xbdaf4d47	-0.08559661
164	0xbd48adc9	-0.04899386
165	0x3d8d0426	0.06885557
166	0xbd088326	-0.033328198
167	0x3c41fbd8	0.011839829
168	0x3bf557a0	0.0074872524
169	0xbd6e2a02	-0.05814553
170	0x3cf8f05c	0.03038805
171	0x3d21b5d3	0.03948004
172	0x3d8376c5	0.06419138
173	0x3debe09a	0.11517449
174	0xbd5ee57e	-0.05441808
175	0xbdb560f8	-0.08856386
176	0x3d41fcd3	0.047360253
177	0x3d38e0d5	0.04513629
178	0xbdff36f4	-0.12461653
179	0x3d3f6178	0.046723813
180	0x3da6f29d	0.081517436
181	0x3d4041eb	0.046937864
182	0xbc88ae0d	-0.016684556
183	0xbd01dc32	-0.031704135
184	0xbdc78d46	-0.09743743
185	0x3d79b8a3	0.0609671
186	0xbd3129a4	-0.043252602
187	0xbde875c9	-0.11350591
188	0xbd29705a	-0.041366912
189	0x3ba76eab	0.005109628
190	0xbddd7d92	-0.10814966
191	0xbdbdb116	-0.09262292
192	0x3d9f8ff7	0.07791131
193	0x3dd97dff	0.10619735
194	0xbddcb6ba	-0.1077704
195	0x3d05e56f	0.032689508
196	0xbd945b78	-0.07244009
197	0x3cb232c1	0.021752717
198	0xbde101b5	-0.10986654
199	0x3df6b460	0.120461226
200	0x3d9aa972	0.075518504
201	0x3af71696	0.0018851336
202	0x3d588cd4	0.05286868
203	0x3de38133	0.11108627
204	0x3ded07f0	0.115737796
205	0x3dad6270	0.08466041
206	0x3cae1c7a	0.021253813
207	0x3da25d74	0.07927981
208	0xbdd799e8	-0.10527402
209	0x3de696f3	0.1125926
210	0x3db91ad9	0.09038324
211	0x3db62212	0.08893217
212	0xbd5064f5	-0.05087753
213	0x3c5063cc	0.012719106
214	0x3d3596e2	0.044333346
215	0x3cc66b83	0.024221187
216	0x3ce73e34	0.028227903
217	0xbd17d4ad	-0.037068058
218	0xbd2de265	-0.042452235
219	0xbd1b01f2	-0.037843652
220	0x3c69e975	0.014276852
221	0x3b95fa3a	0.0045769485
222	0xbd5e5c5c	-0.0542873
223	0x3ddf92d5	0.10916678
224	0xbc8c35d9	-0.01711552
225	0xbdffb64f	-0.124859445
226	0xbd2559bd	-0.040368784
227	0xbd2ddad8	-0.042445034
228	0xbc3332fc	-0.010937449
229	0xbdf39f48	-0.11895615
230	0xbde35048	-0.11099297
231	0x3d977100	0.073946
232	0xbde6e0ba	-0.11273332
233	0xbdb5be10	-0.08874142
234	0xbce67fc1	-0.02813709
235	0x3dd47c33	0.103752516
236	0xbd4330dc	-0.047654018
237	0xbdd021a0	-0.101626635
238	0x3d361a42	0.044458635
239	0x3df1fb93	0.11815562
240	0xbdfaed99	-0.122523494
241	0xbde88138	-0.113527715
242	0x3d9aa648	0.07551247
243	0xbdf64662	-0.12025143
244	0xbd6d50e0	-0.057938457
245	0xbdd54ec0	-0.10415411
246	0x3d689f58	0.056792587
247	0x3daf2de0	0.08553672
248	0xbd4e71d0	-0.05040151
249	0x3d71bb09	0.05901626
250	0xbc908578	-0.017641768
251	0x3da054e5	0.07828692
252	0x3d31ccf6	0.043408357
253	0xbacdd06d	-0.0015702375
254	0xbce8c705	-0.028415212
255	0x3dece09f	0.115662806

features.12.bias f4 [64]
0	0xbadff32f	-0.0017086024
1	0x3dddfa4e	0.108387575
2	0x3dfb154f	0.12259924
3	0x3d1ae6b2	0.037817664
4	0x3d31e240	0.04342866
5	0xbcfe2938	-0.031025514
6	0x3d1c37da	0.0381392
7	0xbcb7dbcb	-0.022443673
8	0xbaf0cb64	-0.0018371162
9	0xbdc2783a	-0.09495588
10	0xbd1de918	-0.038552374
11	0x3b0fbeca	0.0021933788
12	0x3dfde868	0.123978436
13	0x3d9cfe0e	0.076656446
14	0x3d757f6e	0.05993598
15	0xbdf3890e	-0.118913755
16	0x3dd6e089	0.104920454
17	0x3dee9bd2	0.11650814
18	0xbdbd1482	-0.09232427
19	0xbde95a12	-0.11394133
20	0xbd990eee	-0.07473551
21	0x3db0211a	0.086000636
22	0xbb08bb45	-0.0020863574
23	0xbd48deaa	-0.049040474
24	0xbdca4ed8	-0.098783195
25	0xbdd006f2	-0.10157575
26	0x3bdf733d	0.0068191574
27	0xbbdf7f00	-0.0068205595
28	0x3db2f4c1	0.08738089
29	0x3d834aaa	0.064107254
30	0x3df41154	0.119173676
31	0x3dcf1647	0.10111671
32	0xbde26364	-0.110541135
33	0xbde8b0cc	-0.11361846
34	0x3cc387ab	0.023868402
35	0x3da3d593	0.079997204
36	0xbd9b5d3c	-0.075861424
37	0x3b25a91a	0.0025277794
38	0x3dc17fd8	0.094482124
39	0x3c180dd1	0.009280638
40	0x3cf19f93	0.029495036
41	0xbda43504	-0.080179244
42	0xbceaf730	-0.028682321
43	0x3dbc13e7	0.091834836
44	0x3df98630	0.12183797
45	0xbdc5f070	-0.096650004
46	0xbdff08be	-0.12452839
47	0x3d2c4274	0.042055562
48	0xbdf9608e	-0.121766195
49	0xbdcc883c	-0.09986922
50	0x3ca51134	0.020149805
51	0x3d0e21f0	0.034700334
52	0xbd15ed14	-0.03660305
53	0x3dabdb0b	0.083913885
54	0xbdd7fb62	-0.10545994
55	0x3dbf2d8b	0.093348585
56	0xbdcb22f0	-0.09918773
57	0xbdb7dc14	-0.089775234
58	0xbd1979a3	-0.037469517
59	0x3dddccbf	0.10830068
60	0xbdbbc4c6	-0.09168391
61	0xbdd8f894	-0.105942875
62	0xbddcc77e	-0.107802376
63	0xbb63a302	-0.0034734611

classifier.weight f4 [22, 64]
0	0x3cf02192	0.029312883
1	0x3db2d3fa	0.087318376
2	0xbcf63035	-0.030052284
3	0xbd90d2fd	-0.07071493
4	0x3d34af58	0.044112533
5	0x3cac779a	0.021053124
6	0x3ab0c91d	0.0013487671
7	0x3dd1cb08	0.10243803
8	0xbd3b7fa1	-0.045776013
9	0x3dcebc94	0.10094562
10	0x3ddcc0fa	0.10778995
11	0x3ab5ea17	0.0013878968
12	0xbcc121ca	-0.023575682
13	0xbdc6fb48	-0.09715897
14	0x3de8ddde	0.11370443
15	0x3df4c55a	0.11951704
16	0xbdbc7c50	-0.09203398
17	0xbd06ce48	-0.03291157
18	0x3c8cf420	0.017206252
19	0x3cbb8538	0.022890672
20	0x3b888ac0	0.004166931
21	0xbc5d90ce	-0.013523294
22	0x3d23c592	0.03998334
23	0xbdad07cf	-0.08448755
24	0xbd05b494	-0.032642916
25	0xbd31d638	-0.043417186
26	0xbdc4c56f	-0.0960797
27	0xbde5bcd3	-0.11217656
28	0x398c5640	0.00026767142
29	0x3d898524	0.06714848
30	0x3d007a55	0.031366665
31	0xbde705fe	-0.1128044
32	0x3d81599c	0.0631592
33	0x3d01cc08	0.03168872
34	0x3dfb43b4	0.12268773
35	0x3d11cb11	0.03559405
36	0x3d780664	0.06055297
37	0xbdf63bd1	-0.12023128
38	0x3d862c27	0.0655139
39	0xbcc7dcb0	-0.024397224
40	0x3db1c86e	0.08680807
41	0x3d1a2e48	0.037641793
42	0xbc4fd2d0	-0.012684539
43	0xbcc8fd58	-0.024534866
44	0xbd9fd2e9	-0.078039
45	0x3c9c3ca0	0.019071877
46	0x3dad3cd4	0.08458868
47	0x3d500760	0.050788283
48	0x3cd58278	0.026063189
49	0xbdbb1eae	-0.09136711
50	0xbcac5cc1	-0.021040322
51	0xbddfda0f	-0.10930263
52	0x3def29e6	0.11677913
53	0x3d42fa83	0.047602188
54	0xbd3195e4	-0.043355837
55	0x3d5a6b9f	0.05332529
56	0xbdaf73be	-0.08566998
57	0x3cdbf2f0	0.02684924
58	0xbdf4f25d	-0.119602896
59	0xbc08e771	-0.008355961
60	0x3c410440	0.011780798
61	0xbdf76c44	-0.12081197
62	0xbc3f8800	-0.01169014
63	0x3d88e449	0.06684167
64	0xbd91727c	-0.07101914
65	0xbd94ba3d	-0.07262085
66	0xbb0fc93f	-0.002194002
67	0x3cbf76d0	0.023372084
68	0x3db933c6	0.09043078
69	0x3d0596bb	0.03261445
70	0x3d9f56db	0.07780238
71	0x3df2ac22	0.11849238
72	0xbd3c261f	-0.045934793
73	0xbde52e96	-0.11190526
74	0xbdaf28dc	-0.08552715
75	0x3dfbfec5	0.12304453
76	0x3d3e0a74	0.046396688
77	0x3d9d5603	0.07682421
78	0x3de36abd	0.11104343
79	0x3d43d2fc	0.047808632
80	0x3dcb0467	0.09912949
81	0x3dc0d157	0.094149284
82	0xbdbfa848	-0.09358269
83	0xbc9699d0	-0.01838389
84	0xbd342960	-0.04398477
85	0x3da04e56	0.078274414
86	0xbd6630dd	-0.056198943
87	0x3dab2d04	0.083581954
88	0x3db9059c	0.09034273
89	0xbc6a9ae0	-0.014319152
90	0xbcd4c83d	-0.025974387
91	0xbcf1b5f7	-0.029505713
92	0xbde14428	-0.10999328
93	0xbd613e39	-0.05499098
94	0x3d37db35	0.044886786
95	0xbd320431	-0.04346103
96	0xbd92d428	-0.07169372
97	0x3dbf17c6	0.09330706
98	0xbd46da44	-0.048547998
99	0xbca303da	-0.019899298
100	0x3b84dd40	0.0040546954
101	0x3d7b591e	0.061364286
102	0x3dcaf1d4	0.09909406
103	0xbb9303d3	-0.00448654
104	0x3d14e96b	0.036355417
105	0x3c36d430	0.011158988
106	0xbde735b0	-0.11289537
107	0x3df1923b	0.117954694
108	0x3bbbbca7	0.005729276
109	0xbc901210	-0.017586738
110	0xbd1e60dc	-0.03866659
111	0xbd815c41	-0.06316424
112	0x3df6a114	0.12042442
113	0x3db34c94	0.087548405
114	0xbdbab341	-0.09116221
115	0xbdd4d013	-0.103912495
116	0xbde8582c	-0.113449425
117	0xbacee552	-0.0015784896
118	0x3df4eaea	0.11958869
119	0xbdc44640	-0.095837116
120	0xbc9e4070	-0.019317836
121	0x3db9c8be	0.09071492
122	0xbdf178eb	-0.117906414
123	0xbdf0d14f	-0.117586724
124	0x3df280ce	0.11840974
125	0x3dedd1a2	0.1161225
126	0x3d10b4a8	0.035328537
127	0xbd7a9f8a	-0.061187305
128	0x3da7f15e	0.08200334
129	0x3d43705d	0.04771458
130	0x3cf80674	0.030276515
131	0xbcd04d67	-0.025427533
132	0xbdcba47d	-0.09943483
133	0xbd86ecf4	-0.06588164
134	0xb9a04423	-0.00030568344
135	0x3dadc1f3	0.084842585
136	0xbd1de1ca	-0.038545407
137	0x3d6d0cc0	0.057873487
138	0xbd0b34f4	-0.033986047
139	0xbde8f58f	-0.113749616
140	0x3cb60b9a	0.022222329
141	0x3d55d967	0.052209284
142	0x3d380a6f	0.044931825
143	0xbdadd05a	-0.084870055
144	0x3cd01c81	0.025404217
145	0x3d86ff50	0.06591666
146	0xbdf0853a	-0.11744161
147	0xbdd08b0c	-0.10182771
148	0x3ce8d658	0.02842252
149	0x3cd8849f	0.026430426
150	0x3de168c7	0.11006313
151	0x3dc6d454	0.09708467
152	0xbbe3c220	-0.0069506317
153	0x3d845b30	0.06462705
154	0x3cfd429b	0.030915549
155	0xbdab9989	-0.08378894
156	0xbca5fea3	-0.020263022
157	0x3b5b9ade	0.0033509056
158	0xbdd288ac	-0.10279974
159	0xbd29a68a	-0.04141859
160	0x3dd232a6	0.10263567
161	0xbd07d614	-0.033163145
162	0x3dcd822e	0.100345954
163	0x3dd44603	0.10364916
164	0xbd5ebaac	-0.054377243
165	0xbd4cce95	-0.0500017
166	0x3d191c10	0.037380278
167	0xbdf97dee	-0.12182222
168	0xbda52e14	-0.08065429
169	0xbdcf0ace	-0.10109483
170	0x3df3a7b4	0.11897221
171	0xbdc528c8	-0.09626919
172	0xbd59e73d	-0.05319904
173	0x3da0858c	0.07837972
174	0x3db913ac	0.09036955
175	0x3cef216c	0.029190741
176	0xbdf7113e	-0.120638356
177	0x3d7796e8	0.06044665
178	0xbd116935	-0.035500724
179	0x3d4afe7c	0.0495591
180	0x3c192c50	0.009348944
181	0xbd415757	-0.047202434
182	0x3be56960	0.007001087
183	0x3af99038	0.0019040173
184	0x3c24d1f0	0.010059819
185	0xbc7689d0	-0.0150475055
186	0x3d3dc45c	0.04632984
187	0xbca72a3a	-0.020405877
188	0xbde86a7e	-0.11348437
189	0xbc88f4c0	-0.016718268
190	0x3c1e4940	0.009661019
191	0x3de9e9c7	0.114215426
192	0xbdc77c3e	-0.09740494
193	0xbddfe9c8	-0.10933262
194	0xbd9ed09f	-0.07754635
195	0x3cd6f17a	0.026238192
196	0xbdb3ad72	-0.087733164
197	0xbd3cd66d	-0.04610293
198	0x3dc02c33	0.0938343
199	0xbd263460	-0.040577292
200	0xbc85a890	-0.016315728
201	0x3da4d862	0.08049084
202	0xbd0a1120	-0.033707738
203	0xbd83a6ff	-0.06428336
204	0x3d4c1430	0.04982394
205	0x3d4ee6c9	0.050513063
206	0xbd658ff2	-0.05604548
207	0x3d9b28a2	0.075761095
208	0x3db0e1aa	0.08636792
209	0x3df0b216	0.11752717
210	0xbda5d3c0	-0.08097029
211	0xbcb0b2e0	-0.02156967
212	0x3d3f9a10	0.046777785
213	0xb9ce807a	-0.00039387104
214	0x3dc9c2ce	0.09851609
215	0x3de2fbe8	0.110832036
216	0x3d125ed0	0.03573495
217	0x3da4a402	0.080390945
218	0x3dcdea37	0.100544386
219	0x3d1de2d2	0.03854639
220	0x3d7c8bfa	0.06165693
221	0xbd0da3ff	-0.034580227
222	0x3d2b7d39	0.04186747
223	0x3d9f6550	0.07782996
224	0x3db1ae1c	0.08675787
225	0x3ba36620	0.0049865395
226	0xbbd125a2	-0.00638266
227	0x3d859964	0.065233976
228	0xbd0dcbc4	-0.034618154
229	0xbdbd5c31	-0.092461
230	0x3cf95c0f	0.030439405
231	0xbd4679bd	-0.048455942
232	0x3d67e160	0.05661142
233	0xbdb656b0	-0.08903253
234	0x3d90ab70	0.07063949
235	0x3ab48dd3	0.0013775177
236	0x3cb02c69	0.021505551
237	0xbd74c174	-0.059754804
238	0xbdebb470	-0.11509025
239	0x3c591010	0.0132484585
240	0x3c0e2380	0.008675456
241	0x3de221dc	0.110416144
242	0x3df8c554	0.12147012
243	0x3dbfc1c7	0.09363132
244	0x3c7d1a20	0.015448123
245	0x3db8473b	0.08997961
246	0xbd4ab8d0	-0.049492657
247	0xbce40dd5	-0.027838627
248	0x3b1d5100	0.0024004579
249	0xbd467e24	-0.04846014
250	0xbd2aae51	-0.041670147
251	0xbd93032e	-0.07178341
252	0x3c1a4830	0.009416625
253	0xbdce7e16	-0.10082643
254	0xbdb826a8	-0.08991748
255	0xbbee4632	-0.0072715515

classifier.bias f4 [22]
0	0xbcf8db2d	-0.030377949
1	0x3d58bbdf	0.052913543
2	0xbd675892	-0.05648095
3	0x3dd5a058	0.10430974
4	0x3b65b5ac	0.0035050912
5	0x3df677a1	0.12034536
6	0x3e01a6f3	0.12661342
7	0xbd88ea63	-0.06685331
8	0x3deb8790	0.11500466
9	0x3c94fa8b	0.018185874
10	0xbd951d4c	-0.072809786
11	0x3d686b4b	0.056742948
12	0x3c893cb5	0.01675258
13	0xbdef5c6c	-0.1168755
14	0xbd917a27	-0.07103377
15	0xbdad46d5	-0.08460776
16	0xbdbe2489	-0.09284312
17	0xbd2d8163	-0.04235972
18	0xbd73d008	-0.059524566
19	0xbd31c069	-0.043396387
20	0xbda774a8	-0.08176547
21	0xbde10ac4	-0.109883815
