Models/thesis_adaptive_LwF_CL_1_0.pth (torch, 289499 bytes, 12 tensors)

features.0.weight f4 [32, 3, 3, 3]
000000 f6 4f 9f bb f1 38 3d bc ce 8b ac bd 8f 6e f6 3d
       -0.004861827 -0.01154922 -0.08425103 0.12032806
000010 5d 4f a8 bc 9e fb 2d ba 0d c1 7a bb 5d ba f3 3d
       -0.020545656 -0.000663692 -0.003826204 0.1190078
000020 78 a7 90 bd f5 f5 3a bc a2 2f 4c bc 6d 43 ad bd
       -0.07063192 -0.01141118 -0.012462528 -0.08460126
000030 ee 47 92 bb 30 0a 66 bd c2 cf 8f bd 56 1e fd bc
       -0.004464141 -0.05616206 -0.070220485 -0.030898254
000040 17 25 3d bc ef 57 7c bd b0 a6 08 bc 1d 11 d9 bd
       -0.011544487 -0.061607298 -0.008340523 -0.10598967
000050 f2 e8 79 3d 55 73 e8 3d ab 9d 41 3d 1c d1 46 bd
       0.06101317 0.11350123 0.047269505 -0.048539266
000060 96 a2 b6 bb 67 6c 4e bc 51 f5 90 bd 73 dd a9 3d
       -0.005573581 -0.012599087 -0.070780404 0.08294191
000070 96 c8 50 3d 74 f0 cf 3c 5e f5 cc bd 93 d0 b3 3d
       0.050972544 0.025383212 -0.100077376 0.08780017
000080 1c 69 2a be 16 aa 09 3d 07 c6 26 be 9d 57 bb 3a
       -0.16641659 0.033609472 -0.16286479 0.0014293079
000090 b5 42 ed bd 15 0a 3b bd 47 24 c1 bd 47 02 1c bd
       -0.11584989 -0.04566391 -0.094307475 -0.03808811
0000a0 91 85 6c bd 19 fa 96 bd d3 ba 46 3d cb 62 97 3d
       -0.057744566 -0.07371921 0.048518013 0.0739189
0000b0 01 3e d1 3d 5f b3 d1 bd 14 47 10 39 fb 8b 13 3d
       0.102169044 -0.102392904 0.00013759389 0.036022168
0000c0 f9 52 81 bd 5d 5e 00 3e 5d c9 89 bd c6 5d 4a bd
       -0.06314654 0.12535997 -0.0672786 -0.049405836
0000d0 af 28 0a be 8f 63 f2 bd 78 9a af bd fb 01 ba 3d
       -0.13492082 -0.118353955 -0.085743845 0.09082409
0000e0 98 53 91 3d b2 05 b3 3c 38 1c b4 3d bc 49 08 3d
       0.07096022 0.021853302 0.08794445 0.033273444
0000f0 88 d5 62 bd 75 ae 1f 3d 2b 9c 92 bd b7 59 1b be
       -0.05537942 0.038984735 -0.07158693 -0.15170942
000100 d2 f2 7d 3d fc 10 e9 bd 25 9d 96 3c c5 d1 fc bc
       0.06199915 -0.11380193 0.01838548 -0.030861745
000110 23 57 dd bd 8b 8c 0e 3e a3 c3 f3 bd f3 62 52 3d
       -0.10807636 0.139208 -0.11902549 0.051363897
000120 0b ca ef 3d 44 b8 3f bd ba a5 da bd 65 94 73 3c
       0.117084585 -0.04680659 -0.10676141 0.014866923
000130 3a 33 d5 3d 90 34 e0 bb cd c4 73 bd 20 c6 7f 3d
       0.10410161 -0.0068422034 -0.059513856 0.062444806
000140 3f b6 00 3e c4 9a 59 3d ab 7d 92 3d 08 63 bd bd
       0.12569521 0.05312611 0.071528755 -0.09247404
000150 28 2b 58 bb cc c7 63 3d 1b c1 da bd 1f 34 1a 3d
       -0.0032984708 0.055610463 -0.10681363 0.037647363
000160 9b 03 8c bc cc ca ab 3b 20 35 0b bd 6c 31 ba 3d
       -0.017091563 0.005242681 -0.03398621 0.09091458
000170 0c 52 ac bd a9 7e 1a 3d 92 d2 9a bd dc f0 81 3b
       -0.08414087 0.03771845 -0.07559694 0.0039654803
000180 98 7f e7 3c 8a 3c be 3c 12 b5 34 bd 38 12 eb 3c
       0.028259084 0.023222227 -0.044117995 0.02869521
000190 77 78 ca bd 40 15 d9 bd af 8b 83 3a 61 07 f1 b9
       -0.09886258 -0.10599756 0.0010036136 -0.000459726
0001a0 af fd c0 bd 44 93 da bd 9b c8 01 bc 22 34 b1 bc
       -0.09423386 -0.1067262 -0.007921363 -0.021631304
0001b0 a7 21 69 bd ae 3d b5 bc b4 8d 1b be 89 a5 f4 3d
       -0.05691686 -0.022124138 -0.15190774 0.11945636
0001c0 71 53 fc bc 6f f4 00 3e 0b ee 91 bd 95 d1 93 bd
       -0.030801507 0.12593244 -0.07125481 -0.07217709
0001d0 3d 63 ca 3c 7d 72 a1 3d 8a 7b e2 3d 41 a9 a0 3d
       0.024705524 0.07883165 0.110587195 0.078447826
0001e0 e4 ec 77 3a bf 2d 1c be 92 d9 f5 bc 98 01 d2 3c
       0.00094576017 -0.15251826 -0.030010972 0.025635526
0001f0 c8 99 d3 3d 3a 36 31 be 36 9f b5 3d 54 66 41 bc
       0.10332066 -0.17305842 0.08868258 -0.011804182
000200 c6 b2 42 3c 3e 8b 0a 3e b4 a3 84 3c a2 f3 17 3e
       0.011883443 0.13529679 0.016191341 0.14839032
000210 4e 3e 1e be 8e e9 72 ba 4a 62 82 b9 62 da bf 3d
       -0.15453455 -0.000926637 -0.00024868763 0.09367825
000220 01 dd 02 3d 9e 22 1b ba 2f ff b1 bd 87 e0 7e 3d
       0.031949047 -0.0005917939 -0.086912505 0.062225845
000230 38 1f de 3d 62 5f 33 bb 71 de bd bd fb fd 16 bd
       0.10845798 -0.0027370085 -0.09270943 -0.03686331
000240 d9 63 6b 3b f6 2f a0 bc 5b 9d c9 bd 97 ed d5 bc
       0.0035917668 -0.01955412 -0.09844466 -0.026114268
000250 1c 94 00 3e 66 ff b3 3d c7 bd 67 bd 13 09 65 bc
       0.12556499 0.08788948 -0.05657747 -0.013979214
000260 a9 a4 75 bd f9 b2 75 bc 40 47 93 3d b9 0e 2c 3c
       -0.059971485 -0.014996284 0.07191324 0.010501557
000270 ad 18 f3 3d bb d2 b9 3d c4 a8 56 bd 24 87 28 3e
       0.11869941 0.09073397 -0.05240704 0.16457802
000280 4f 97 a9 3d 67 b9 d7 bd fb 0a 9b bd 39 1c be bc
       0.08280813 -0.105334096 -0.07570454 -0.023206817
000290 5b 34 ba 3b db 16 5d 3b 9e 6e ec 3d 69 9b e3 3d
       0.005682511 0.0033735547 0.11544536 0.111136265
0002a0 67 de 75 bd ac 14 a6 3c af 44 d6 bd eb 08 c9 3d
       -0.060026553 0.020273529 -0.10462319 0.09816154
0002b0 c1 c1 9b 3b 6c ec 72 bd fb 67 97 bb 8c 7e a7 3b
       0.004753322 -0.0593075 -0.0046205497 0.005111521
0002c0 d7 ca 89 3b 0c ed 24 3d 9c e2 df 3b f8 2e 95 bb
       0.0042050886 0.040265128 0.006832434 -0.0045527183
0002d0 5e 10 d1 bd 33 d5 8c bd 4e 73 af 3b 79 da c6 bd
       -0.102082 -0.06876602 0.0053543216 -0.09709639
0002e0 a8 8a 21 bd db b1 d8 b9 12 af de bd b6 e0 eb bd
       -0.039438874 -0.00041331243 -0.10873236 -0.115174696
0002f0 e2 f3 21 bb 7c 73 a9 3d de ef b1 bd 7b f2 b9 bd
       -0.0024712016 0.0827398 -0.08688329 -0.090794526
000300 1e c5 37 bd 54 7f fc bd 87 6e 70 bd 2f e5 3d bc
       -0.04486572 -0.123289734 -0.058699157 -0.011590286
000310 52 bd ac 3c 6c 9d a7 3d 79 7c 09 be 57 4c 52 bd
       0.021086369 0.08184323 -0.13426389 -0.051342335
000320 a5 2a ae bd eb cf fd 3c a0 d3 95 3d 2a d4 1d be
       -0.085042275 0.030982932 0.07315755 -0.15412965
000330 f7 92 32 bd 75 9a 84 bc 9f ff ac 3c d5 1b 1d bc
       -0.043597188 -0.016186932 0.021117983 -0.009589155
000340 18 63 f4 3d ea 6f 5a bd b2 6d aa 3d 06 b8 01 be
       0.11932963 -0.053329386 0.08321704 -0.12667856
000350 32 01 a6 3d 45 5c 22 bd d1 f5 c0 bd 67 cf c8 bb
       0.08105697 -0.039638776 -0.09421886 -0.00612824
000360 72 49 0e ba 57 9b d1 bd 96 e3 67 bd fc 09 e3 bd
       -0.00054278143 -0.10234707 -0.056613527 -0.11085889
000370 13 0f 3d 3d 0c 27 a6 3b de 60 16 ba 86 0e 38 bb
       0.046156954 0.0050705727 -0.000573648 -0.0028084829
000380 2a ee 7a 39 45 33 0b bc 0d 71 a4 39 18 19 4e 37
       0.00023930581 -0.00849611 0.00031364747 1.2284399e-05
000390 dc 33 65 bb b2 c1 c0 3b 48 23 22 3d 72 2c 88 bd
       -0.0034973538 0.0058824653 0.039584428 -0.06649102
0003a0 e6 d7 42 3d c2 7d 67 bb 12 eb 7d 3d 7b 37 e4 3c
       0.047569178 -0.003532276 0.06199176 0.027858486
0003b0 7d e3 f7 ba cc 0d 8a bd 74 15 1c ba 94 9d a2 bd
       -0.0018912401 -0.06740913 -0.00059541245 -0.07940212
0003c0 77 a3 9d bb c6 ee 80 3b d9 b5 b4 bb 43 55 d2 3d
       -0.0048107463 0.003934714 -0.005514842 0.10270169
0003d0 c8 4a fc 3c 30 eb 78 3d 76 46 11 3e c7 7a b3 bd
       0.030797377 0.060771167 0.14187035 -0.08763652
0003e0 49 26 69 bb 0a db b8 bc 3f b0 9d 3c 96 d4 01 be
       -0.0035575798 -0.022565383 0.01924908 -0.12678751
0003f0 84 0f ab bd 6c de c2 3d a0 4a a8 bc 18 50 1e 3e
       -0.08352569 0.0951508 -0.020543396 0.15460241

features.0.bias f4 [32]
000000 ef 4c e7 bc 86 e4 0f 3e b5 18 07 3e b5 47 f6 bc
       -0.028234927 0.14052019 0.13193019 -0.03006349
000010 3b b9 db bd 45 b2 53 bd ed 0e 2a bd 8f 2c e6 3d
       -0.10728689 -0.051683683 -0.04151814 0.112389676
000020 96 74 cf bd b0 21 0e 3b ef 55 d3 3c 3d 4b 10 be
       -0.10129659 0.002168756 0.025797812 -0.14091201
000030 cf 52 3c bb c9 68 c9 bd 81 a4 e9 bd e5 e4 05 3d
       -0.0028735881 -0.09834439 -0.1140833 0.032688994
000040 e8 6d 63 3d 53 25 3e 3e 1e 65 ee bd 39 0e 74 bc
       0.055524737 0.18568926 -0.1164038 -0.014895969
000050 45 81 83 3d 2c 09 2c 3e 6a 7c cf 3d 98 aa 9a bd
       0.064211406 0.16800374 0.10131152 -0.075520694
000060 ea 35 0d 3e 1d 2b 0c 3e 28 50 a3 b8 fb 9f c3 3d
       0.13790098 0.13688321 -7.787376e-05 0.09551998
000070 86 68 bf bd 6b 95 1f 3e 53 f7 96 3c 68 cc 8f bd
       -0.09346108 0.15584342 0.01842848 -0.07021409

features.2.weight f4 [32, 32, 3, 3]
000000 6a 8b df ba 57 47 ab bb 71 9d 08 bc b7 42 a9 bb
       -0.0017055098 -0.00522701 -0.008338318 -0.0051654237
000010 3b d8 77 39 d4 6b 16 bb c8 8e 60 39 78 8a 1a 38
       0.00023636308 -0.0022952454 0.00021415495 3.684542e-05
000020 94 01 ff bb 4f f2 9b ba 01 93 a4 3c d2 63 7b bc
       -0.0077821705 -0.0011897775 0.020089628 -0.015343623
000030 87 a8 54 bc ff 4d b5 3c 69 11 10 bc 4b 4d 00 bd
       -0.012979633 0.022131918 -0.008793213 -0.031323712
000040 b3 fc 1c bc 4d 90 23 bb c1 70 0d bd 54 c0 19 3d
       -0.009581733 -0.0024957836 -0.03453136 0.037536934
000050 67 2c 27 3c 82 d3 e7 bc 76 06 92 3b 55 b8 d0 3c
       0.010203457 -0.028299097 0.0044563366 0.025478521
000060 cd a0 36 bc a3 a7 11 bd 70 e7 34 3d 16 5f 98 3b
       -0.011146736 -0.03556026 0.04416603 0.004650007
000070 a4 85 a0 bb f4 db e3 bb 5e 21 a3 3a 81 85 8c 3b
       -0.0048987437 -0.0069537107 0.0012445857 0.004288376
000080 f0 37 d4 bb 36 43 8c ba ae 8d de 39 7d 63 a0 bb
       -0.006476395 -0.0010701183 0.000424487 -0.0048946724
000090 f9 32 ec 3c d9 8f 34 3d 11 31 64 3c d0 ec 2e 3d
       0.0288329 0.044082496 0.013927714 0.04270631
0000a0 8e be 25 bc 99 c5 24 3d 08 8f 00 3d 4a e7 a4 bc
       -0.010116233 0.040227506 0.031386405 -0.020129818
0000b0 9c d8 61 ba 73 b3 41 bc 6a 5a 68 bc 45 b7 13 bc
       -0.0008615346 -0.011822569 -0.014181713 -0.009015863
0000c0 71 58 ee 3b 46 02 dc 3b 8c 39 63 bc a0 62 f1 3b
       0.0072737266 0.006714138 -0.013868701 0.0073664933
0000d0 b2 32 04 bb f8 d3 4f bb 04 2f 3b ba 0f 24 2c ba
       -0.0020171818 -0.0031712037 -0.000714049 -0.00065666524
0000e0 d0 a2 02 bb b4 4b a2 ba b7 6f 9d bb cc cd b8 b9
       -0.001993347 -0.001238218 -0.004804577 -0.00035248545
0000f0 3e 17 00 bb d4 e9 27 bc 02 c5 41 bc 16 54 26 bc
       -0.0019545103 -0.01024862 -0.0118267555 -0.010151884
000100 3c e2 24 3c 3b ce a6 bb ca cf d9 3b 8a 36 08 bc
       0.010063704 -0.0050905026 0.006647085 -0.008313784
000110 d3 2f 08 bb 82 e4 35 3c e9 df 36 3c ca 3f c2 3c
       -0.0020780459 0.011101844 0.011161783 0.023712058
000120 58 46 c8 ba 99 c7 a9 3b d7 2c 81 bb ba 94 be 3a
       -0.0015279753 0.0051812646 -0.003942113 0.0014540174
000130 fd 0a ff ba 0f cc a4 bb fe 17 d4 b8 3a 35 fd ba
       -0.0019458231 -0.0050292085 -0.00010113417 -0.0019318231
000140 9e 23 1e 3b aa 04 df bb 8c 93 0a 3d 7e 31 47 3b
       0.0024130116 -0.006805976 0.033832118 0.003039449
000150 d9 58 90 ba b8 2c ef 3a ae cf 1e 3b d4 10 71 bc
       -0.0011012807 0.001824758 0.0024232673 -0.014713485
000160 f8 38 4f bb a1 12 de bb 87 8d d2 ba 32 ee 06 3d
       -0.003161965 -0.006777123 -0.0016063907 0.032942005
000170 6f 84 84 bc d3 cf ec 3c 94 4a c9 bc f0 4d 2a 3d
       -0.01617643 0.028907692 -0.024571694 0.041578233
000180 65 6f 3c 3d 42 a1 2c 3d a7 b9 1d 3d 39 e0 cc 3b
       0.04600467 0.042145975 0.03850713 0.0062523154
000190 65 bf fc 3b 43 1a 36 bc 6b b1 2d 3b d5 5c 37 bc
       0.0077132457 -0.01111466 0.0026503454 -0.0111915665
0001a0 39 9f a4 bc e8 29 fe ba 98 3b c8 39 92 1c f1 ba
       -0.020095455 -0.0019391151 0.00038191373 -0.0018395355
0001b0 47 96 5e bc 06 c9 d3 3c db 61 e8 3b 02 f5 8d 3b
       -0.013585634 0.025852691 0.0070917434 0.0043321857
0001c0 65 1a 0d 3b b3 c2 0e 3c e2 53 89 bc 90 01 20 bc
       0.0021530625 0.008713412 -0.016763631 -0.0097659975
0001d0 7a fa 9c 3b 88 f2 67 ba b4 40 03 b9 80 a4 cf b6
       0.0047906013 -0.00088480907 -0.00012517237 -6.188231e-06
0001e0 34 6d 42 3b ae d6 07 3a 70 c2 a8 3b 55 55 92 3b
       0.002966714 0.0005181831 0.005150132 0.004465739
0001f0 d8 5a 57 b9 db fa 0a ba 6e ec 5c 3d ad 66 25 bd
       -0.0002053784 -0.00053016626 0.053936414 -0.040381122
000200 70 3a 7a 3b 8d cf bb bc e8 f8 ba 3b a2 6d b8 3c
       0.0038181804 -0.022926116 0.0057059415 0.022513214
000210 a6 8b 2b bd 0f 8b c4 bc 5b 0b 18 3d d7 68 1b 3d
       -0.041881226 -0.02399209 0.037120204 0.03794178
000220 6e c2 e3 bc f4 a5 90 b9 f2 82 23 bc 7f e2 bc 3c
       -0.027802672 -0.00027589465 -0.00997995 0.02305722
000230 9c a8 a7 bc d6 75 84 bb ec ba 0c 3c b6 ba 1c 3b
       -0.020466141 -0.0040423675 0.0085894875 0.0023915
000240 6e 39 af 3b 8e 2e 13 3d 7f 9f 5e 3c 18 e9 e7 3c
       0.0053474223 0.03593307 0.0135878315 0.02830939
000250 70 08 e7 bb e2 fa d3 3c ad c4 15 bc 39 29 9b 3c
       -0.0070505664 0.025876466 -0.009141129 0.018940555
000260 1c c0 09 3d 84 13 2e 3c dd fa 67 3c 2c a8 20 bc
       0.033630475 0.01062477 0.014158932 -0.00980572
000270 a8 08 2b bc 23 3e 6f 3d 10 58 a0 3c 5f 95 b7 3c
       -0.0104390755 0.058408868 0.019573241 0.022410093
000280 70 a2 0e 3d 96 91 2a 3c 9f cb a1 bb ea a3 ae 3c
       0.03482288 0.010410687 -0.0049376036 0.021318395
000290 08 66 2e 3b 36 46 d9 bc 56 e9 1c bb 38 4f bc bc
       0.0026611108 -0.026522737 -0.002394279 -0.022986993
0002a0 d6 3e 00 3c 74 0e 9e 3c 8a 06 4a bb 24 49 ab 38
       0.007827481 0.019294001 -0.0030826651 8.167539e-05
0002b0 48 9d 9e bb 3a 27 a8 bb 63 df a2 3b 5e 22 81 3b
       -0.0048405267 -0.0051316293 0.0049704774 0.0039408645
0002c0 73 48 d9 39 f8 d4 f5 38 16 16 51 3b e6 ea f2 3a
       0.00041443444 0.00011722179 0.0031904033 0.001853314
0002d0 2c 6f 3e 39 e5 8e 3b ba 29 0d 03 3a d2 ce b8 3b
       0.00018161227 -0.0007154777 0.00049992144 0.0056398893
0002e0 8a 0b 3a ba 0c 52 46 3a b9 bd c8 bb 44 a7 25 bb
       -0.00070970564 0.00075653265 -0.0061261323 -0.00252767
0002f0 42 9e 14 bc e4 e0 a2 3c 85 24 4f 3d 37 6a b6 3c
       -0.009070935 0.019882627 0.050571937 0.022267444
000300 a2 f1 81 3c d0 ad 91 3c e4 2a 5b 3b 16 72 1c 3b
       0.01586229 0.017783076 0.0033442313 0.0023871711
000310 18 6f 10 3d 33 4c f0 bc 66 d3 03 3d f7 08 c1 3c
       0.035262197 -0.02933321 0.032184027 0.023563845
000320 b2 47 5c 3c 4e 8c 29 3c 20 89 3a 3c 84 04 1e 3c
       0.013444828 0.010348393 0.011385232 0.009644631
000330 ea 04 84 3b 03 ab e7 3c 81 63 1a 3c 56 c6 d4 3c
       0.004028906 0.028279787 0.009423138 0.02597348
000340 37 00 0a 3d 66 1a fe bc d8 20 29 bb c5 e4 69 3c
       0.03369161 -0.031018447 -0.002580693 0.014275734
000350 84 1d cc 3b 0f 82 c4 3c 0c 74 58 3d c5 ca 24 bc
       0.0062291045 0.023987798 0.052845046 -0.01005811
000360 70 82 05 bd 51 16 88 bc 58 75 17 3d 9e e2 0e ba
       -0.032595098 -0.016612204 0.036977142 -0.0005450639
000370 3d 9a f1 bc 68 68 17 3d 83 cf a7 bb 0d cb fd 3c
       -0.029492492 0.036964804 -0.005121173 0.030980611
000380 30 43 2b bc 98 40 1f bc d8 89 cb 3c 4d 0f e2 3c
       -0.0104530305 -0.00971999 0.024846002 0.027595187
000390 3b dc 83 bb c2 5d 19 3d ee 7d ce 3b 9c 15 35 3c
       -0.0040240563 0.03744293 0.006301633 0.011052515
0003a0 b0 ee d6 3c fb 4e 24 3c e6 6f 8a 3b 7d 4c 40 b9
       0.026236862 0.010028596 0.004224765 -0.00018339041
0003b0 7d be aa 3a 29 1d 95 ba 86 3e 8e bb 46 3a 78 3b
       0.0013026741 -0.0011376488 -0.0043409495 0.003787653
0003c0 02 6f 08 3b cb 1f b3 ba c6 97 46 b9 7c 77 92 3c
       0.002081812 -0.0013666091 -0.00018939291 0.01787924
0003d0 56 cc 56 3b a8 a5 97 3c 74 ad 3a bb de 0a ee 3a
       0.0032775602 0.018511608 -0.0028484734 0.0018161198
0003e0 b2 ba fe 3b cd 47 e8 3b c4 f3 9b 3b b6 f8 5f 3b
       0.0077737207 0.0070886374 0.0047592837 0.0034175343
0003f0 78 ba ff 3c ba 0a 89 3b 8c b4 c6 3b 77 86 c8 bb
       0.031216845 0.004182187 0.0060640033 -0.006119545

features.2.bias f4 [32]
000000 7c 6f 68 3d 12 bf ec 3a c0 54 7f 3c c4 b8 97 3c
       0.056746945 0.0018062314 0.015584171 0.01852072
000010 c7 32 ec 3c 33 04 8e bc 90 17 ef bc e6 fc e0 bc
       0.028832806 -0.017335987 -0.02918604 -0.027464341
000020 dd 48 24 bd 9a b9 99 bb 36 3d b9 bc 51 42 63 bd
       -0.04010855 -0.004691315 -0.022612195 -0.055483166
000030 66 5b b1 bc b9 e4 47 bc 24 d3 9c 3b 14 e3 10 bb
       -0.021650027 -0.012200528 0.004785912 -0.0022108005
000040 00 58 45 3c d9 a9 6a bc 77 e5 05 bc 3a 39 fa 3c
       0.012044907 -0.014322721 -0.008172384 0.030544866
000050 9a e4 09 3b b3 35 70 bc d4 0c 04 3c 8f b9 82 3d
       0.0021040798 -0.01466124 0.008059699 0.06383049
000060 f5 5c 3c bb 35 35 cf 3a e4 61 55 3c 10 62 68 3c
       -0.002874193 0.0015808704 0.013023827 0.014183536
000070 4b 18 5a bc 4e ff 35 bb 5c c6 23 bb 73 fc 2f bd
       -0.013311456 -0.0027770582 -0.0024990058 -0.042965364

features.6.weight f4 [64, 32, 3, 3]
000000 12 95 aa 3b 3c 7e 13 3c 86 2b 97 bc c2 3d f7 3c
       0.005205759 0.009002265 -0.01845337 0.030180816
000010 6a ce 90 bb c5 cb 12 3c 21 65 e1 3b a0 1d f7 3b
       -0.0044191377 0.008959715 0.0068785106 0.0075413734
000020 70 98 f8 3b ea 1f 55 3b 31 dc a9 3a 16 96 b0 bb
       0.0075865313 0.0032520243 0.0012959299 -0.0053889854
000030 58 83 a0 bb cb b1 ac 3b 5c fa 43 3a 61 8f c3 3a
       -0.00489847 0.005270218 0.0007475966 0.001492005
000040 b8 07 2c 3b 52 2b a0 3a b8 56 72 bc 80 a1 8c bc
       0.0026249718 0.0012219942 -0.014791183 -0.017166853
000050 19 64 b3 bc 03 d1 8d bc 62 4b 7d bc 89 6a ca bc
       -0.021898316 -0.017311579 -0.015459867 -0.024709003
000060 19 ed 40 bc f5 36 2d bc b1 0e 9f bc d4 a9 a3 39
       -0.0117752785 -0.010572185 -0.019416185 0.00031216315
000070 46 08 94 bb 60 ba b0 bb b1 07 f8 39 71 02 19 ba
       -0.004517588 -0.0053933114 0.00047307977 -0.00058368506
000080 9c 57 88 39 c6 a9 8d 3b d2 9d a0 bb e4 50 99 bb
       0.00026005215 0.004323217 -0.004901626 -0.0046788324
000090 09 7c b2 bb f6 4d 61 bc fe e4 58 bc 12 5e 7f bc
       -0.005446915 -0.0137514975 -0.01323819 -0.015586393
0000a0 97 b5 5f bc 24 56 21 bc 1e c8 ee bb e8 e9 7b bc
       -0.013654134 -0.009847198 -0.0072870394 -0.015375592
0000b0 d1 0e 4a bc 9b 3e 6d bb 5b 6f a0 3b 0f 12 9b 3b
       -0.012332634 -0.0036200646 0.004896087 0.0047323774
0000c0 ac d6 11 39 5a ac 81 b9 2a c8 b9 39 dc 9f 87 3a
       0.00013908249 -0.0002473321 0.00035435084 0.0010347324
0000d0 c2 57 e2 3a c8 f7 01 bb ba 94 26 3b 39 1e 05 3a
       0.0017268586 -0.0019831527 0.0025418238 0.0005078051
0000e0 c2 97 8f 3b de c1 81 3b 20 43 82 3a c2 12 5c 3a
       0.0043821046 0.0039598783 0.0009938218 0.0008395129
0000f0 fd df df ba eb 92 7a 3b 58 f8 86 b9 2c 30 86 3b
       -0.0017080304 0.0038234543 -0.00025743502 0.004095098
000100 8f c7 85 bb ae 18 90 3a b0 89 98 3b 11 57 81 3b
       -0.004082627 0.0010993683 0.0046550855 0.0039471467
000110 9f cc 5e 3b 16 8d 3f 3a d8 f6 1a bb ff 83 62 ba
       0.0033996475 0.0007307095 -0.0023645665 -0.0008640885
000120 14 17 1b bc 46 70 d0 bc 06 f4 43 3d 21 fe 38 3d
       -0.0094659515 -0.025444161 0.04784014 0.04516423
000130 88 03 64 bc 5e 6e 67 3d 84 a4 9e bc 4d a9 06 ba
       -0.013916858 0.05650174 -0.019365557 -0.0005136922
000140 f6 78 09 3d 8b a9 aa ba 44 50 f9 3a d4 96 95 bb
       0.033562623 -0.0013020498 0.0019021113 -0.0045650993
000150 67 93 95 3b f7 fe 6b 3b c0 b2 a7 b9 8f 60 ad 3a
       0.004564691 0.0036010125 -0.000319859 0.0013227629
000160 c8 d3 f7 3a e9 4e a4 3b 7f 5a 15 3b 57 30 56 bb
       0.001890772 0.0050142896 0.0022789536 -0.0032682621
000170 69 e9 91 3a 2f 52 02 bb 41 05 94 3b 82 eb b6 3b
       0.0011132184 -0.001988541 0.004517228 0.005582274
000180 8f 00 15 3b a6 da 13 3a 4a 0f 9e 3b ca 9b 1d bc
       0.0022735929 0.0005640186 0.0048236 -0.009619663
000190 91 de 8e ba ee e4 8a ba c9 d0 4d bc de 3a 47 3c
       -0.001090007 -0.0010596791 -0.012561985 0.012160031
0001a0 e3 0d 0f 3c b3 43 4a ba 11 49 f3 3a 43 11 44 3c
       0.008731338 -0.00077157764 0.0018561204 0.011967006
0001b0 5c 16 a4 3b cf c1 95 3a 34 8c 19 ba cf 3d b6 bb
       0.0050075483 0.0011425557 -0.0005857379 -0.0055615674
0001c0 bc 44 87 3b 28 0c 36 bb 78 c0 1a b8 a7 5b 3c ba
       0.004128067 -0.0027778242 -3.689571e-05 -0.0007185288
0001d0 df 73 39 3b 16 38 a4 bb 7f 54 05 bc 9b cf eb bb
       0.0028297824 -0.005011569 -0.008137821 -0.0071963794
0001e0 b6 7f af 3a e5 4e ef bb fb 94 30 bc 2b 52 81 ba
       0.0013389501 -0.007303106 -0.010777707 -0.0009866407
0001f0 30 21 df bb f8 77 41 bc f5 0f 35 3b 41 7e 02 ba
       -0.006809376 -0.011808388 0.002762792 -0.000497792
000200 f1 dd 53 bb a6 00 5c 3b 55 d0 81 3b 07 a6 66 3b
       -0.0032328332 0.0033569722 0.0039616027 0.0035194175
000210 fc a2 24 bb 84 b5 0b bc 4a 2d 94 bb 0e 9f 1f 3b
       -0.002512156 -0.008527163 -0.0045220004 0.0024356279
000220 38 b0 1c ba f0 66 cd 39 38 55 57 39 eb 40 07 bc
       -0.00059771864 0.0003917734 0.00020535744 -0.008255224
000230 a8 d8 f4 bb a8 50 fe b9 5a dd f1 3a b9 02 ea ba
       -0.0074721165 -0.0004850675 0.0018452809 -0.0017853595
000240 33 07 6a 3d 00 f8 64 3c 09 c5 69 3d 7a ec 32 3d
       0.057135772 0.013975143 0.057072673 0.043682553
000250 49 db cc bb d5 82 69 3b 11 3e 35 3c 51 a9 0c 3b
       -0.0062517268 0.003563096 0.011062161 0.0021463225
000260 bc 80 f2 bc d0 8e 37 3b 3e 70 fa ba 1f a5 2b 3b
       -0.029602401 0.0028008707 -0.0019106937 0.002619095
000270 e7 c0 8d 3a 85 b0 8a 3a a3 55 c2 3a c3 a0 56 3b
       0.0010814936 0.0010581171 0.0014826547 0.003274963
000280 e8 e3 c5 3a 64 63 bd 3b ca 6c 4b 3c 9d 24 8f 3b
       0.0015097829 0.0057796706 0.012416074 0.0043683783
000290 66 a2 f8 3b 2d 5d ae 3b 95 55 01 3c 1b 75 98 3b
       0.007587719 0.005321166 0.0078939395 0.004652632
0002a0 06 95 08 3c 1c 76 29 3c 0c 3c 18 3c ea ab b6 bb
       0.008336311 0.010343101 0.00929166 -0.005574693
0002b0 0e 17 b2 3a 72 52 04 3b ec 37 18 bb cc a1 cb bb
       0.0013587193 0.0020190743 -0.0023226691 -0.006214356
0002c0 09 56 4d bb 9f ee 0d bc 0c 5c 04 bc 50 29 b2 ba
       -0.0031331799 -0.008662849 -0.008078586 -0.0013592634
0002d0 cc 1e 71 bb 4e 3a f9 bb a7 bf 1b bc d7 a3 23 bc
       -0.0036792038 -0.0076058274 -0.009506143 -0.009987793
0002e0 dc e0 02 bc cb 86 81 bb 68 a4 0e bc 08 60 c3 bb
       -0.007988181 -0.003952836 -0.00870619 -0.0059623756
0002f0 bc 24 1e bc 0c 0b ed bb 52 dc 37 bc 0e 48 b1 bb
       -0.009652313 -0.007233983 -0.011221962 -0.005410201
000300 e1 0c 77 bc 1e e7 64 bc f0 50 2f bc cb 98 54 bc
       -0.015078754 -0.013971118 -0.010700449 -0.012975882
000310 96 1b 41 bc a2 c4 19 bc 22 b4 9e bc ae 3f c8 3b
       -0.011786362 -0.00938526 -0.019373003 0.006111107
000320 85 93 3b 3d 63 e0 01 3d 62 aa 44 3c 07 bd af bc
       0.045794982 0.031708132 0.012003513 -0.02145244
000330 c4 05 ff bc fd 2f 44 3c 20 89 2c 3d ce 65 be bc
       -0.031130679 0.011974332 0.04212296 -0.023241904
000340 93 99 99 bb 1c 96 90 bc 68 d5 b9 bc e3 b5 bf bb
       -0.004687497 -0.017649703 -0.022684768 -0.00585054
000350 45 b7 ae bc 80 cb 6e bc 2c b0 27 bb d5 be a8 bc
       -0.021327624 -0.014574885 -0.0025587184 -0.020598808
000360 ab 52 de 39 57 91 05 3a b6 a6 22 3a 8e 38 94 3b
       0.00042404732 0.00050952047 0.00062046514 0.0045233434
000370 a9 81 b1 39 3d 2a a9 3b ac fa 1f bb 9a da af 3a
       0.00033856675 0.005162506 -0.0024410887 0.0013416589
000380 43 3d 70 bb 47 96 83 3a 82 3f 93 3b c8 17 54 39
       -0.0036657609 0.0010039293 0.0044936547 0.00020226755
000390 97 43 1e 3b bc 38 1a 3b 92 aa 3e b8 1c 84 aa bb
       0.0024149173 0.0023532351 -4.5458386e-05 -0.005203737
0003a0 64 e8 6e 39 c0 5e 6c 3b ca ad dc 3b 34 bb 4e bb
       0.00022784021 0.0036067218 0.0067345845 -0.0031544687
0003b0 2a 2f 20 3a ee f9 37 bc 54 97 ec 3c e5 93 5f bc
       0.00061105436 -0.0112290215 0.028880753 -0.013646101
0003c0 dd 32 e7 3c 1a 29 37 bc 21 2c 56 3c 1e 40 6f b9
       0.028222496 -0.011179233 0.013072045 -0.00022816702
0003d0 fa 88 39 bb 70 d1 2e 3a 72 ff da 39 33 64 a9 3b
       -0.0028310404 0.0006668782 0.00041770522 0.0051694154
0003e0 14 05 5f 3b 23 10 83 3b e0 ac dc 39 93 5d 23 bb
       0.0034030126 0.0039997264 0.00042090472 -0.00249276
0003f0 e8 a8 7b 3a 36 ad b2 3a 39 85 bf 39 60 6f 93 bb
       0.0009600059 0.0013631943 0.00036529618 -0.004499361

features.6.bias f4 [64]
000000 7b 09 e1 bc a3 24 d2 bc f7 3d e7 bc 24 2d 16 bc
       -0.027470341 -0.025652235 -0.02822779 -0.009166036
000010 aa 1b 26 3d 77 af c1 bc 9e f1 21 bc 52 5a 37 3d
       0.040553726 -0.023643238 -0.009884266 0.04476387
000020 2c b5 48 3d 51 4a 06 3d 87 11 eb 3c 3d 35 f6 bc
       0.049000904 0.032785717 0.028694881 -0.030054683
000030 74 88 be bc ab 4a 33 3d 75 01 5f 3d 03 87 23 3d
       -0.023258425 0.04377238 0.05444475 0.03992368
000040 38 fa 52 3d d7 3b ce bc d1 1d c9 bc fd f4 ed 3c
       0.05150816 -0.025175018 -0.02455035 0.029047484
000050 ea b3 44 3d 08 d1 2f bc 96 6b d4 3c d4 ae e1 b9
       0.048023142 -0.010730989 0.025930207 -0.000430456
000060 61 1a 6d 3c 30 a7 7e bc 25 41 27 3d 06 c4 a1 bc
       0.014471621 -0.01554279 0.04083361 -0.019746792
000070 72 52 a6 bc 06 b8 e8 3b 95 ea 49 3d 79 20 97 3c
       -0.020302985 0.0071020154 0.04929598 0.018448101
000080 ea fc 5b 3c 6a 24 6c 3d 8c 2f c9 bc 81 06 61 ba
       0.013426999 0.057651915 -0.024558805 -0.0008584038
000090 84 03 f2 bc a9 63 5e 3c 67 80 36 bd a7 03 06 3d
       -0.029542692 0.0135735655 -0.044556048 0.032718327
0000a0 fa 26 26 3d 2d 81 ab bc e4 26 04 3d 7c 41 69 3a
       0.040564515 -0.02093562 0.03226365 0.00088980026
0000b0 08 7a 42 3d c6 5b eb bc 9d 7c 23 bc 47 be e3 3c
       0.04747966 -0.028730284 -0.009978441 0.027800692
0000c0 72 6f 80 3c cb 80 ad bc a4 9d 72 3d 1f e3 25 bc
       0.015678141 -0.021179577 0.05923237 -0.010124951
0000d0 bc f9 11 3d fe 79 a4 bc a7 76 27 3d ae 07 43 bc
       0.035638556 -0.020077702 0.04088464 -0.011903686
0000e0 9c 18 11 ba 8e 8e 62 3d 5d 1b cf bc 93 34 07 bd
       -0.0005534978 0.055311732 -0.025281603 -0.033009123
0000f0 6a 11 44 bd 13 6d 49 3b 89 fc bb 3c 4f 97 a0 3c
       -0.04786817 0.003073518 0.022947567 0.0196034

features.8.weight f4 [64, 64, 3, 3]
000000 3e 59 25 bc 24 82 c0 bb 7d 6a ee bb 8f da c7 bc
       -0.010092078 -0.005874889 -0.007275878 -0.024396209
000010 f6 7f 89 bb 63 93 2d 3c 0b eb 92 bb b2 c7 8f 3c
       -0.0041961623 0.010594222 -0.0044835857 0.017551277
000020 71 80 d4 bb 3f 38 2c 3c d4 cc a5 3b fd bb ea bc
       -0.006485038 0.010511457 0.005059818 -0.028654093
000030 91 3d 0a 3c 59 a1 9c 3c a1 81 da 3b de 5b 05 bd
       0.00843753 0.019119905 0.006668285 -0.032558315
000040 5b e7 c9 bb a7 45 92 bb 9b 3a 5d 3b 19 97 95 bc
       -0.006161613 -0.0044638696 0.0033756855 -0.018260526
000050 01 ee 8b bc b1 23 e0 bb 20 62 de bb 7d bc da bb
       -0.017081263 -0.0068401922 -0.0067865998 -0.0066753016
000060 a0 ec d6 bb bc 5b d2 bc e1 3a 0e bc 02 de 58 39
       -0.0065589696 -0.025678508 -0.00868103 0.0002068207
000070 c2 7e 00 ba c4 02 ea bb fb ab d8 b9 e7 d8 59 ba
       -0.0004901701 -0.007141443 -0.00041326866 -0.0008310214
000080 8d ae 93 3b 10 a4 6b bb 7b 50 c0 bb c5 ae 1c ba
       0.004506892 -0.0035955943 -0.005868969 -0.00059769704
000090 bb 99 0f bc 10 ab cd 3a cc 76 24 ba ad 92 e7 bc
       -0.00876468 0.0015691239 -0.00062738056 -0.028268183
0000a0 6d e3 fd bc fe d7 61 3c 25 59 99 ba db 82 3c bc
       -0.030992234 0.013784407 -0.0011699541 -0.011505808
0000b0 92 5b a8 3c aa 1a 10 3b 52 e8 50 bb 88 16 9f bb
       0.020551477 0.002198855 -0.0031876755 -0.004854981
0000c0 bc a0 9c bb 8a 90 a3 ba 7b 28 60 bb fa bd bb ba
       -0.004779903 -0.0012478989 -0.0034203816 -0.0014323585
0000d0 0c 5d 05 b9 63 d2 ba 3a e7 1b 4a bb 89 0b 29 3a
       -0.00012718531 0.0014253374 -0.0030839385 0.0006448557
0000e0 03 4e fe 3a de c4 df ba 85 3f a2 3b 6d ee 84 bb
       0.0019401911 -0.0017072221 0.00495142 -0.004056743
0000f0 5e 3b b6 3b 1c a4 c6 39 db 03 99 3b 7f 51 44 b9
       0.0055612763 0.00037887774 0.004669649 -0.00018722376
000100 7c 5d 56 bb 63 5e 0d bd 06 4c 8e bc 76 dd 47 bc
       -0.003270953 -0.034513842 -0.017370235 -0.0121987965
000110 d4 62 56 3c 0f 2d e3 3c 08 43 47 3c 69 70 17 3c
       0.013085086 0.027731447 0.012161978 0.009243109
000120 22 4c 0c bc 6a 75 d4 bb d2 10 00 bd a4 5f c6 bb
       -0.008563073 -0.0064837234 -0.03126604 -0.0060538817
000130 8f 42 e0 3c e0 ae a8 bc e6 39 25 bc 49 c1 10 bd
       0.027375488 -0.0205912 -0.010084605 -0.03534058
000140 13 6d 9b 3b 30 94 25 38 a3 46 89 bc 49 ea e4 ba
       0.0047432273 3.9477076e-05 -0.016757315 -0.0017464842
000150 ad 09 d7 3c 06 cc cf bc fd 91 08 3c b9 27 3a 3c
       0.026249731 -0.02536584 0.008335588 0.01136201
000160 4f 92 df bc 61 3d d4 3c 14 9a 10 3c 18 4e b9 bc
       -0.027291445 0.025908174 0.008825798 -0.022620246
000170 3a ce 02 bd ec 71 72 bc 58 93 0b 3d f0 4c f2 bc
       -0.031934954 -0.014797669 0.034076065 -0.029577702
000180 d3 f3 9f bc c6 b8 3d bc f4 ed bf 3c 32 ab 6b bb
       -0.019525444 -0.011579698 0.023428895 -0.0035960195
000190 18 f2 50 bc 7d 90 e8 bc 67 a0 05 3a 50 0a 66 bc
       -0.012753032 -0.02838921 0.0005097449 -0.014040545
0001a0 10 4d 53 bb 60 03 aa bb 81 a1 ba bb b3 65 b2 bc
       -0.0032241978 -0.0051883906 -0.0056955223 -0.02177701
0001b0 e6 f0 dd bb 13 6a 2b bc f7 a1 66 bb 90 14 fe bb
       -0.006773102 -0.010462302 -0.0035191753 -0.007753916
0001c0 05 a6 66 bc fa fb ad bb e7 22 13 bc f3 cf 1a bc
       -0.014077668 -0.005309579 -0.008980489 -0.009448993
0001d0 d0 84 14 bc 1f fc 71 ba 52 6c bb bc 61 62 67 bc
       -0.009064868 -0.00092309894 -0.0228788 -0.014122576
0001e0 8b c2 54 3b c7 30 a9 3c 74 f8 4c b9 aa 82 17 3c
       0.003246459 0.020653142 -0.00019547512 0.009247461
0001f0 59 eb 31 3c 97 7a 6b bc 19 cc 04 bd b0 dd e2 39
       0.010859334 -0.014372489 -0.032421205 0.0004327125
000200 c3 f1 7d bc db 5e 65 3c 3f 28 5c 3c 2f 38 f9 3b
       -0.015499535 0.013999666 0.01343733 0.0076055746
000210 ad 6b e7 bc 4b 68 b2 3c b3 6f 8a ba 71 5e c2 3c
       -0.028249586 0.021778246 -0.0010561853 0.023726674
000220 cf 10 23 3c 40 35 65 bc 25 b7 b8 3c 41 23 d3 bc
       0.009952738 -0.013989747 0.022548268 -0.025773646
000230 8f 83 b7 bc eb 99 02 3d cd 1d 98 bc 1c a3 1c b9
       -0.0224016 0.03188507 -0.018568898 -0.00014938082
000240 3d 70 3c bb 6a 1f ea bc 17 34 c2 bc 6b 0f 7f bc
       -0.0028753423 -0.028579433 -0.023706479 -0.015567641
000250 86 8b 0a bd 88 00 e3 3c f3 5a 88 3b b4 1d d3 bc
       -0.033824466 0.027710214 0.0041612326 -0.025771
000260 ba ad 0a 3b 1b 52 88 bb 7e 49 be ba 2b 43 91 bb
       0.0021160678 -0.0041601784 -0.0014517752 -0.004433056
000270 74 25 6e b8 b8 31 6d 38 de 5e b9 bb 74 c8 13 ba
       -5.6778503e-05 5.6551507e-05 -0.005657061 -0.0005637475
000280 46 13 26 ba 47 82 c2 39 75 d2 33 bb 71 ed 91 bb
       -0.00063352694 0.00037099628 -0.0027438675 -0.004453354
000290 11 46 45 bc 52 77 e0 bb be 57 b7 b9 93 97 c4 bb
       -0.012040631 -0.0068501616 -0.00034969853 -0.0059995144
0002a0 52 4c 0c bc b2 ac 35 bc 24 65 86 ba ef 9c 8a bc
       -0.008563118 -0.011088537 -0.0010253531 -0.016920535
0002b0 78 97 38 3b 55 46 12 bd e8 47 c0 3c 57 05 32 bd
       0.0028166454 -0.035711605 0.023471788 -0.043462124
0002c0 f9 49 a8 3c 3f 5e 35 3c e6 bf 04 3c bc 0a d2 bc
       0.020543085 0.011069833 0.008102393 -0.025639884
0002d0 d8 37 ee bc 7e a1 ee bc 5f b4 19 bd 8c 82 a0 bc
       -0.029079363 -0.02912974 -0.03752553 -0.0195935
0002e0 b6 1b ed 3b e8 5c e6 bc 37 d5 b8 3c f6 0c ac 3c
       0.0072359694 -0.028120473 0.022562606 0.021002274
0002f0 4c a0 db bb 29 cd d4 bb 71 c3 13 bc 0e 36 a0 bc
       -0.0067024585 -0.0064941836 -0.009018765 -0.019557025
000300 51 54 20 bc 86 b8 1d bb 35 34 9a 3b 82 9d 13 bc
       -0.009785728 -0.0024066283 0.0047059306 -0.009009721
000310 64 ab 6c bc 1d 30 7e bc eb b8 49 b9 93 85 ff ba
       -0.01444516 -0.015514401 -0.00019237741 -0.0019494764
000320 e1 28 da bb 76 e8 4f bc eb 1f db bc 75 52 16 bc
       -0.006657705 -0.0126897 -0.026748618 -0.009174933
000330 22 a7 fd 3b d9 78 62 bc 46 bd 4b 3c 52 2e 0c ba
       0.007740871 -0.013822758 0.012435263 -0.00053474784
000340 f8 e1 b3 b9 32 d0 22 ba d4 6f b4 3a 64 b0 b6 bb
       -0.000343099 -0.0006210833 0.0013766238 -0.0055752266
000350 d0 02 e6 ba 75 d8 68 3a 6b 30 02 3b bd 41 83 bb
       -0.0017548446 0.0008882352 0.0019865285 -0.0040056393
000360 f4 4b 5f 3b b9 f8 0f bd 51 f8 92 3c 20 7d c5 bc
       0.0034072371 -0.03514931 0.017940672 -0.024107516
000370 db c4 6e 3c 8e 7c e8 3c c4 62 0d bc 2f ac 2a bd
       0.014573301 0.028379705 -0.008629505 -0.041668113
000380 70 1f 12 38 b6 eb 1a bb 4b 2b 71 3a b4 93 13 3a
       3.483839e-05 -0.002363903 0.00091998716 0.00056296145
000390 d8 93 c9 3a 47 83 b0 bb 70 7a 88 b8 17 7a b1 bb
       0.0015379144 -0.005386743 -6.507791e-05 -0.0054161656
0003a0 7a e0 95 39 22 c2 a1 ba e7 82 b6 3c b8 7b 2b bc
       0.00028586743 -0.0012341181 0.022279216 -0.010466509
0003b0 45 75 84 bc 53 3f 59 3c fa 55 04 3c d1 76 77 3b
       -0.0161692 0.013259727 0.008077139 0.003776003
0003c0 15 b0 13 3c 53 22 42 bc 9c e8 ed b9 4a 71 f8 ba
       0.009014149 -0.011849004 -0.0004537747 -0.0018954661
0003d0 ff 0d 89 3b cb 8e 5c ba 7e da 9d 3b 54 d1 45 bb
       0.0041825767 -0.0008413612 0.004817306 -0.0030184584
0003e0 ca fa a3 bb e2 7b 48 39 dc a4 a2 bb cc 75 19 b9
       -0.0050042616 0.00019119636 -0.0049635004 -0.000146351
0003f0 c5 10 3d 3b e8 26 07 bc ad c7 cf bb 09 14 6a bc
       0.0028849107 -0.008249022 -0.006340942 -0.014287003

features.8.bias f4 [64]
000000 81 aa 13 3d 6f a3 7c 3c e8 48 02 bd 80 db c2 3c
       0.036051277 0.015419825 -0.03180781 0.023786306
000010 4a f4 c3 3b e5 36 8f bc 10 02 3b 3d c5 3a 16 bc
       0.0059800493 -0.01748223 0.045656264 -0.009169285
000020 6e a8 2d 3c 62 da 48 3c ee 32 bc 3c 5c ad c7 3c
       0.010599239 0.012259098 0.022973504 0.024374656
000030 75 4f 38 3d 07 a3 b0 bc fe 00 c8 bc cc 92 dc 3c
       0.04499765 -0.021562112 -0.024414536 0.026925467
000040 ff 0c 0e bc ad 9c 8b bb 4b 0a f5 3c 42 be b7 3c
       -0.008670091 -0.0042606206 0.029912135 0.02242959
000050 20 aa bb 3c d6 57 e6 3b 16 91 b3 3b ce 12 ec 3c
       0.02290827 0.007029514 0.005479942 0.02881756
000060 2d c2 c1 bc c1 e2 0a 3d 5f 38 ed bb 48 e2 6e bc
       -0.02365216 0.033907656 -0.007239386 -0.014580317
000070 0f 5a 79 3b cb 50 ca 3c a6 b3 24 3b d2 15 68 3b
       0.0038048064 0.024696728 0.0025131493 0.0035413397
000080 dd 32 1e 3c 21 1d 31 bb 84 8d f2 bb 21 f9 18 bb
       0.009655681 -0.0027025419 -0.007402124 -0.0023341852
000090 63 fb a8 3c 24 02 ce 3c d6 86 95 3c 58 fc 0f bb
       0.020627683 0.025147505 0.018252771 -0.0021970477
0000a0 ab 8d 62 3c 98 87 d2 3c 05 1b 06 3d 8c 4a 57 3d
       0.013827722 0.025699422 0.03274061 0.052561328
0000b0 b5 cb 00 bc 79 f9 99 bc bf 92 65 3a 30 2e f0 bc
       -0.007861068 -0.018795716 0.00087575236 -0.029318899
0000c0 63 5d 3c 3d 3b 05 a9 bb af 93 b4 bb 75 ff 0e 3d
       0.045987498 -0.005158094 -0.0055107693 0.03491159
0000d0 de 38 1d bc 93 a7 21 bb 00 f5 25 bd ee 17 66 bc
       -0.009596078 -0.0024666532 -0.040516853 -0.014043791
0000e0 07 08 fa bc f4 d1 13 bc aa 65 8e bb 1c 52 4e 3d
       -0.030521406 -0.009022225 -0.0043456154 0.050371274
0000f0 f5 d5 5e bc 87 f0 a3 3c 59 59 26 bc 53 0c 1c 3c
       -0.013600816 0.020012153 -0.010153138 0.009524423

features.12.weight f4 [64, 64, 1, 1]
000000 48 f4 88 3d 7d 95 fd bb d9 74 83 bd e6 19 aa 3d
       0.06687218 -0.0077387677 -0.06418771 0.08305721
000010 00 a1 0f 38 c4 d1 a3 bb ea 5c ae bd 88 39 22 b8
       3.42438e-05 -0.0049993712 -0.08513816 -3.867739e-05
000020 8f a4 85 3d c9 64 95 bd 62 88 89 3c bd 43 ff bd
       0.06525528 -0.07294614 0.016788665 -0.12464092
000030 8d 7c c3 bb 7d 74 41 bc 86 56 21 bd d1 75 89 bc
       -0.0059657753 -0.011807558 -0.039389156 -0.016779812
000040 10 4a 8a bc a3 0e c8 3c ce 37 7e bc ee 4b e8 3c
       -0.016881019 0.024421042 -0.015516235 0.028356519
000050 9d e2 7d 3d 54 24 15 bd e3 10 32 bd ff fb 65 bc
       0.061983693 -0.0364116 -0.043473136 -0.014037131
000060 28 9d 00 3c 0d e9 c6 bd 82 2b 4c ba 59 a4 4b 3c
       0.007849969 -0.0971242 -0.00077884656 0.01242932
000070 7f 2f 6f bd 0f 8f 90 bc fa 21 3c 3c 66 71 81 bd
       -0.058394905 -0.01764634 0.01148271 -0.06320457
000080 02 95 4a 3d 95 e3 e4 bb 59 28 5a bd 20 39 80 3c
       0.04945851 -0.0069851377 -0.053261135 0.01565224
000090 20 8f 9b 3b c0 31 b1 3b d0 6d ec bc b0 d3 80 bd
       0.0047472864 0.005407542 -0.028860956 -0.06290376
0000a0 d8 1e 38 bc 1a 37 51 bd 77 9b db bc d8 3a 2c bd
       -0.0112378225 -0.05107794 -0.02680753 -0.042048305
0000b0 be d0 06 3b ac d3 42 bb 8b d0 20 bd e7 ab 67 3d
       0.0020571197 -0.0029728217 -0.039261382 0.056560423
0000c0 d4 85 82 bd 60 a0 17 3d fc ab cc 3a f1 09 8e 3d
       -0.06373182 0.03701818 0.001561522 0.0693549
0000d0 88 69 c4 bc 3c 7c bc ba 67 0b 57 3d 78 39 96 bc
       -0.023976102 -0.0014380286 0.05250111 -0.01833795
0000e0 7a ff 73 3c 86 9f c5 bc ab 9f 8c ba b4 95 e6 bd
       0.014892453 -0.024123918 -0.0010728737 -0.11259022
0000f0 e5 a2 3e 3d 88 21 04 bd aa b3 02 bd 7d 21 74 ba
       0.046542067 -0.03225854 -0.031909622 -0.00093128515
000100 01 53 d4 3d 1f 87 9f 3c 0b fe de bc a5 4b 3d bd
       0.10367394 0.01947361 -0.027220747 -0.04621472
000110 2f 2b 12 3e 93 53 9d bb 45 4e 0b 3d d5 63 8e 39
       0.14274286 -0.0048012226 0.03401019 0.0002715873
000120 f3 7e 91 3d d4 38 68 3c 49 e2 6d bd a1 84 9e 3d
       0.07104292 0.014173705 -0.05807713 0.07740141
000130 99 3c bb 3d 32 ae 5d 3b 3e 4f e1 bb 1e 71 19 3e
       0.091424175 0.0033825752 -0.0068759015 0.14984557
000140 5b 93 52 bd 44 c5 3c bd 97 09 75 3b 38 d8 22 bc
       -0.05141006 -0.046086565 0.003738975 -0.009939246
000150 7f 36 2e 3d 36 78 0c 3e e5 7e 40 bb be 66 04 bd
       0.04253244 0.13717732 -0.002937251 -0.032324545
000160 c5 71 0a bb 52 89 bf 3d 20 12 fd 3c 8a 57 ee bc
       -0.002112494 0.09352364 0.030892432 -0.029094476
000170 d5 1c 01 3d 11 75 e2 3d c0 34 c1 bc 7e 44 8a 3b
       0.031521637 0.11057485 -0.023584723 0.0042195907
000180 d9 f4 1f bb 10 0c da 3c 94 98 bc 3a 7d d1 ad bc
       -0.0024407415 0.02661708 0.0014388734 -0.021218056
000190 c6 90 38 bd 14 57 a5 3c 55 fd 12 3c 3a 67 0c bd
       -0.04505994 0.020183124 0.008971532 -0.034278132
0001a0 08 e4 2b bd e4 78 47 3d 02 10 a0 3c ff 88 cd 3d
       -0.041965514 0.048699275 0.019538883 0.100358956
0001b0 53 28 ea ba 61 17 1d 3b 87 01 6d 3a fe 5e 2b 3b
       -0.0017864801 0.0023970234 0.000904106 0.002614915
0001c0 11 be 39 3d 9e 46 30 3c 15 86 9d bb d5 56 10 3e
       0.045347277 0.010759024 -0.0048072436 0.14095624
0001d0 cd 2b 96 3b a6 6b 11 bc 67 91 31 bd 49 82 a8 3d
       0.004582858 -0.008875763 -0.043351557 0.08227975
0001e0 03 cd 25 3d ed ee c3 3d c9 02 07 3d 70 b0 14 3d
       0.040478718 0.09567056 0.03296164 0.036301076
0001f0 b6 ed 5e 3d 7e e3 44 3d 19 d4 66 3d fa 95 10 bd
       0.054425918 0.048068516 0.056354616 -0.03529928
000200 ed df 2e 3d b5 b7 fa ba 56 0e 81 bb d1 df 0c 3d
       0.04269402 -0.0019128235 -0.0039384766 0.034393135
000210 48 8c 1a 3d 74 dd 1e bd da 2f c0 3d c9 9a aa bb
       0.03773144 -0.038785413 0.09384127 -0.00520644
000220 ad 98 75 bd f0 b1 03 bc d3 a4 2f 3d 2c 0d a4 3d
       -0.059960056 -0.008038029 0.042881798 0.08010325
000230 ac a1 85 3d eb 3b d6 bc 1e a2 66 bb e7 d1 90 bc
       0.06524977 -0.026151618 -0.0035191844 -0.017678214
000240 61 cc 2b 3d 72 73 53 3d 2e df 80 bd 02 65 7b bb
       0.041942958 0.05162377 -0.06292568 -0.0038359766
000250 43 bf 29 3d cc 94 ee bc 91 11 aa 3b 54 cd 08 3d
       0.041442167 -0.029123686 0.0051900824 0.03339894
000260 fb d2 3a bd 01 f3 6d 3a a2 cf a4 3b f3 d6 03 3a
       -0.045611363 0.0009077043 0.0050296346 0.00050292833
000270 16 57 ac 3d 3a b3 bb bd 09 9f 82 bb b6 35 97 3d
       0.08415048 -0.09165044 -0.0039862436 0.073832914
000280 64 2a 2d bd ba 8d 8c bd 8a e0 1f ba a1 51 b7 bc
       -0.042276755 -0.0686297 -0.00060988276 -0.02237779
000290 1a 1c 8d bb c3 4e e5 bd a4 96 aa 3d 2c 56 db bb
       -0.0043063285 -0.11196663 0.08329514 -0.006693622
0002a0 fe ea 96 39 da ef 83 bb 79 70 9c bd 3e 8b 65 bc
       0.00028785312 -0.0040263953 -0.0763864 -0.014010249
0002b0 00 3d 27 37 9d 24 7e 39 21 a8 5a 3d 7a 28 4b 3c
       9.968178e-06 0.00024236967 0.053382996 0.012399787
0002c0 42 58 b0 3d be 54 a4 bb 9e a5 1d 3c fa df 6d bd
       0.08610584 -0.005014985 0.009622006 -0.05807493
0002d0 6b 5c 45 3d 9e 62 a1 bb 4f 30 95 3b 52 d3 72 bd
       0.04818384 -0.004925086 0.004552878 -0.059283562
0002e0 a2 54 3e bc 10 1a 0c 3d 40 80 97 3b 1e 4c bf 3d
       -0.011616858 0.034204543 0.004623443 0.0934069
0002f0 5a 1d 02 3d ff 9b d4 ba fe 0c e7 3b ae 3a dd 3a
       0.031766273 -0.0016220807 0.0070511093 0.001687845
000300 39 90 84 bd ce 6b c0 bb d9 a9 89 bb 12 4c 8e 3a
       -0.06472821 -0.0058722263 -0.0042011556 0.0010856411
000310 8a 06 25 bd 45 a8 86 bc 5a 33 59 3d 20 b4 aa 38
       -0.04028944 -0.016437659 0.05302749 8.1397826e-05
000320 bb cd cd bc cb b6 31 3b cc 9d 24 bd 15 03 c0 bd
       -0.025122514 0.002711701 -0.04018955 -0.09375588
000330 c2 bd ba 3d 3e af d6 bc 42 07 ff ba f2 f6 26 3d
       0.09118225 -0.026206609 -0.0019457119 0.04076285
000340 f6 2c 36 39 65 25 a4 3b 4b 71 5c 3b 5b 87 cc 3c
       0.00017373622 0.0050093406 0.0033636864 0.024966886
000350 df ca 1e 3d 71 32 93 bd 90 ec 36 3c db 40 9e 3d
       0.03876769 -0.07187355 0.011164799 0.07727214
000360 99 7d 93 ba b1 a3 d4 bb f3 77 13 bd 98 5a 5d 3d
       -0.0011252641 -0.00648924 -0.036003064 0.054041475
000370 5b 57 16 3d fc 29 5c 3c 56 a4 86 b9 b7 9f 76 bd
       0.036704402 0.013437744 -0.00025680911 -0.06021091
000380 df 76 57 bd d5 7a b0 3d 2a 00 27 bd 8d 74 9d 3c
       -0.0526036 0.08617178 -0.04077164 0.019220615
000390 e7 91 da 3a c0 ff 72 3c b1 0c a3 3d a9 42 29 3b
       0.0016675562 0.014831483 0.07961405 0.0025827086
0003a0 d4 33 cf bc 51 c6 0c 3d c3 d8 94 3d d3 49 13 3a
       -0.025293268 0.034368817 0.072679065 0.00056186056
0003b0 e3 8d 83 3b 38 fa c2 bc 8c 76 57 3d 26 4f c2 b9
       0.004014717 -0.023800954 0.05260329 -0.00037061534
0003c0 91 f1 d2 3d 9e c1 d2 bb 97 db b8 39 09 c3 db bd
       0.102999814 -0.0064317724 0.00035258822 -0.107305594
0003d0 3a a1 1e 3c 9e 41 30 3d 91 e0 c2 3b 29 a0 08 3d
       0.009681994 0.043031327 0.0059471806 0.033355866
0003e0 7f 1d 41 3c 6e 6d 84 3d c0 2b cd 3c ae 67 2c bd
       0.011786818 0.064661846 0.025045276 -0.042091064
0003f0 79 ea 65 3d 14 3a e7 3c 3a d8 8e bc df 04 aa bb
       0.056131814 0.028225936 -0.01743709 -0.005188569

features.12.bias f4 [64]
000000 60 23 f0 3d 9e 78 9b bc 0c 88 ce bd fe 92 91 bd
       0.11725497 -0.018978413 -0.10084543 -0.07108115
000010 9b 3c 9f bd bc 8e 3c 3d e6 27 17 bd cc 34 26 bd
       -0.077752315 0.04603456 -0.036903284 -0.040577695
000020 48 fa 65 3d 1a 34 0b 3c d2 b5 95 3d ec 5d 0b 3e
       0.05614689 0.008496309 0.0731007 0.13610047
000030 c0 ba 81 3d 69 bd d9 3d 3c bb cf bd 63 60 fd 3d
       0.06334448 0.1063183 -0.10143134 0.123719
000040 07 22 34 3d 46 a8 85 3d 12 7e 97 bd d7 49 4e bd
       0.043977764 0.06526236 -0.07397093 -0.050363388
000050 48 a8 50 3d c3 17 dc 3d c6 65 3f 3d ef 58 b8 3c
       0.050941736 0.1074672 0.046727918 0.022503344
000060 d5 91 08 3d d8 89 1b 3d 70 9c 9d 3d 39 3d 51 bd
       0.0333422 0.037973255 0.07695854 -0.051083777
000070 09 45 71 3d 4b d0 57 bd 72 c6 20 3d f9 1c 06 bc
       0.058903728 -0.052688878 0.039251752 -0.008185619
000080 1b 13 28 3d a0 ea 66 bb ce 00 a3 bd 0c 26 24 3c
       0.041033845 -0.0035235062 -0.07959138 0.010018837
000090 28 65 ee bc f0 cf bc 3d 08 a9 19 3c 39 4f d3 bd
       -0.02910097 0.092193484 0.009378679 -0.10317845
0000a0 e1 85 69 bd 4c c9 38 bd 0f 78 c7 3d 2e 4a 1d bd
       -0.057012442 -0.045113847 0.09739696 -0.03840082
0000b0 6c 5d 24 bb ee 50 ed 3d 1b d0 d0 3d 21 83 2b 3d
       -0.0025080098 0.11587702 0.10195943 0.0418731
0000c0 9b 1b 0d bd f7 f4 aa bd 2d f8 73 bd 66 04 ca bc
       -0.034450155 -0.083475046 -0.05956285 -0.0246603
0000d0 db 7e af 3c 3b f9 43 bd 86 14 c9 3d 68 68 35 bd
       0.021422794 -0.047845107 0.09818368 -0.044289023
0000e0 4c cd 34 3d d0 d2 12 3d 4f 4f 55 bd ed 2d fe 3d
       0.0441411 0.035845578 -0.052077588 0.124111034
0000f0 49 19 e4 3d bf 07 cc 3d 5d d1 d0 3d ee 8b 41 bc
       0.11137635 0.09962415 0.10196183 -0.011813147
